CS224WFINALPROJECT/saved_models/trained_vae.pth (torch, 9080 bytes, 10 tensors)

adj_A f4 [10, 10]
00000000: aabb 0aba 86a0 a7bb 3643 4e3d 6d01 353e
00000010: 9c80 953b 178a 7e3b bd7f 3e3c d8d2 2dbb
00000020: f377 8b3c c065 be3d ccbf 8fbb 7be3 8d3c
00000030: 9f8f 1abc 9f88 68bb 4eb6 ff3b 6544 cf3d
00000040: 6e35 83ba 4803 543d 8d3e 7ebc 2619 153b
00000050: e364 293d 4f23 f6bb a7dc 493c 42c5 d13d
00000060: ee23 3c3a efdf 6ebc b778 873b 72c7 8a3c
00000070: 020e 2f3c f578 6cbc 6b15 1e3d 74d7 6739
00000080: 51e0 833e 18ce 5e3c 14f3 833c 341e 8f3b
00000090: 69a9 70ba af59 c4bb 5998 bc3c 2a3e 1e3c
000000a0: ae98 c93a 98e1 993c 2eb4 123a ca54 093c
000000b0: cd32 193c 8474 bd3c 86d2 903a 79ae 723d
000000c0: 8ba2 81bc 0dc1 063d 8843 8ebb f9b9 863e
000000d0: 00ef 2fbb 6653 bb3b 56e6 bcb9 b4d8 533c
000000e0: 9e00 2bbc d5b5 873d 4980 473c 137b e63c
000000f0: 8dcc 6c3c 6046 973b ef55 b8ba 10cd b6ba
00000100: 4656 dc3a a42c 85bb 766d 843c 7e45 113c
00000110: 35fe 3b3b b392 553d 8af5 16bb 04dd 003d
00000120: 1b76 c13c 1c68 f6bb 8d85 733e 6a87 443e
00000130: 20db aa3b 4510 d43b 2e63 313c 6791 8e3d
00000140: e172 a33c 6a54 93bc 6db8 363b c804 383c
00000150: c75f 28bc 69d0 b03c 2f56 383c bf29 063c
00000160: e5e2 ea3b 475e 5d3d 2439 963d 1453 f4bb
00000170: c9a6 89bb 57e0 8a3a abcd 083d f844 833c
00000180: f3b9 813e 482f e13d bae3 7b3e ab1d 9b3b
-0.00052922464 -0.0051155714 0.050357066 0.17676325 0.0045624506 0.0038839632 0.011627135 -0.0026523378
0.01702497 0.09296751 -0.0043868776 0.017320385 -0.009433656 -0.0035481823 0.007803715 0.10120467
-0.001001043 0.05176094 -0.015517843 0.0022750585 0.04135598 -0.0075115333 0.012320674 0.10242702
0.0007176985 -0.014579757 0.0041342634 0.016940806 0.010684492 -0.014433135 0.038594645 0.00022110139
0.25757077 0.013598941 0.01610712 0.004367614 -0.00091805175 -0.0059921364 0.023021864 0.009658376
0.0015380585 0.01878433 0.0005596307 0.008382032 0.009350491 0.023126848 0.0011049069 0.05924842
-0.015824577 0.03289895 -0.0043415464 0.2631376 -0.0026845336 0.005716729 -0.00036029768 0.012930084
-0.010437159 0.066264786 0.012176582 0.028134858 0.014453066 0.0046165437 -0.0014063696 -0.0013946611
0.001681038 -0.0040641595 0.016165476 0.008866666 0.0028685455 0.052141856 -0.0023034536 0.031460777
0.023615887 -0.007519735 0.23781414 0.19192281 0.00521411 0.006471666 0.010826869 0.06961327
0.01995224 -0.017984588 0.0027880922 0.011231609 -0.010276741 0.021583753 0.0112510165 0.008188664
0.007168161 0.054044988 0.073351175 -0.0074561927 -0.0042007905 0.0010595423 0.033399265 0.016024098
0.2533718 0.10995346 0.2459859 0.0047337613

weight f8 [64, 1]
00000000: 00e0 4ba4 e441 b03f 3da7 285f 4517 bb3f
00000010: ea2d 80de fa40 9cbf 4554 6116 f9ec 883f
00000020: f5a4 d4b0 ae25 bf3f f65b 0f6a 08b4 273f
00000030: 961b db8c 9b45 463f 5b83 eadf f72b 12bf
00000040: f06e bef3 da02 9d3f 1c37 8ce1 c876 fc3e
00000050: 905d 5b01 9321 b8bf 9bce 1281 e15c bebf
00000060: 0fb5 c032 9f36 b4bf 25c0 d4ff b82f be3f
00000070: 2eb3 af54 5800 803f 0576 6816 2f94 b3bf
00000080: f552 f186 434a b4bf 19e2 a634 55e2 b5bf
00000090: 2d64 dafa a250 ac3f 8b9a 9fed dc9d b63f
000000a0: bf03 1d9c 9424 adbf d1bd 4e08 7649 983f
000000b0: 9b4f 94d1 b297 b8bf 3281 ef18 e318 9f3f
000000c0: b5f8 a1ba 1fd0 a1bf fbe7 abd3 2ffd b53f
000000d0: 18c4 3c5c b42f 9f3f 7c47 1867 8d01 c5be
000000e0: 6463 e5b7 46bf 6c3f c168 e787 0321 c2bf
000000f0: 3119 d659 4fee 12bf 5be5 721c 2e37 b73f
00000100: 04ad c545 b70c c9bf f053 fce5 b4bb c0bf
00000110: 039c b4dd 15ff 1c3f a901 33a4 d828 a83f
00000120: 4961 8679 f1f5 b63f 8be0 8162 e2e9 20bf
00000130: 8b58 385b d277 8a3f 09cc 4728 ff90 663f
00000140: a4c0 53f8 4715 a5bf e236 33f4 855e 7cbf
00000150: 3632 d2b4 8adc a23f 4821 2138 2acc e9be
00000160: 6fc1 6c11 e93b 353f 5d7f fcf4 cb84 a2bf
00000170: 5f35 273b 2368 a23f 8fb0 9321 0153 b8bf
00000180: 3262 4aff 1726 b53f d7ee 29bb 7a9d c83f
00000190: 4943 9db7 f125 9b3f 5a3e 20f0 7e47 c2bf
000001a0: 1814 9f25 99f1 a7bf 1ea3 fb73 8bca b93f
000001b0: d2b7 418c 645b c9be f110 34e2 352f a6bf
000001c0: 3b5b 2668 83a6 ab3f 06a1 3fcc e8c8 813f
000001d0: ae48 b32c eef8 c4bf e052 3703 86f5 713f
000001e0: 5c00 63e9 ec4f bd3f 234a edad 0145 283f
000001f0: 20ba 4a1e b11b bdbf 2b3d 43db 1974 c73f
0.06350544940130476 0.10582383702481209 -0.027591628866543795 0.0121707401232617 0.12166873757509562 0.00018084147180161243 0.0006796845934439074 -6.931972891745018e-05
0.02833120453543264 2.7145388318542467e-05 -0.09426230223777154 -0.11860474969108241 -0.0789584635646927 0.11791568990588581 0.007813158115789056 -0.07647985741683534
-0.07925817532061415 -0.08548481498190376 0.055302708741870134 0.08834629823068434 -0.05691971212082291 0.023717731720976524 -0.09606473557170007 0.030368374249406922
-0.034790984661399994 0.08589457433473051 0.03045541584942066 -2.504117951892516e-06 0.0035091763703970925 -0.1416325009911983 -7.22156459770126e-05 0.09068573183585242
-0.19570055872768688 -0.13072835187691068 0.000110612592312806 0.047186632198193586 0.08969029633442917 -0.0001290406082750144 0.012923854264084397 0.0027546866933732023
-0.04117798715913182 -0.0069260819029303995 0.03683885056770857 -1.2301215751034933e-05 0.00032400550974200684 -0.0361694084697308 0.03595075699886751 -0.0950165469145665
0.08261251433067043 0.19230589045388655 0.026511933166435218 -0.14280688023471805 -0.046765123217064 0.10074683744063548 -3.0227903114387624e-06 -0.04332893739959499
0.054004770721056215 0.008683985455676179 -0.16384675200112525 0.004384540068220061 0.11450081537168572 0.0001851620245028755 -0.11370379437969591 0.1832306213968676

bias f8 [64]
00000000: b563 6437 16e2 e0bf 3ebe 979a 3d42 efbf
00000010: 1f1f 526b 9903 d1bf 480a 8264 a35a cdbf
00000020: 68d7 620f 2f7d f0bf cbad 8d3c afb1 73bf
00000030: 9f93 55da 8b80 89bf 943a 3689 a878 61bf
00000040: bb74 3ba3 ada8 d3bf 8f63 2a0b 9b04 40bf
00000050: 022d c4f5 6d3e efbf da63 87f6 09c2 f0bf
00000060: a480 331d f0eb ebbf 562d c9c6 4075 edbf
00000070: 247c 0702 e4d8 b8bf 6437 782b 17cc e7bf
00000080: 4f17 3be2 07de e5bf 0d89 0f1f 9af9 e8bf
00000090: c431 51cb c59e ddbf d7f0 0438 5640 e7bf
000000a0: 8b51 303d 4b13 e1bf 7ed2 f031 c544 d2bf
000000b0: 0fae 5aab 9c23 df3f cda3 5a3a 7b50 cebf
000000c0: 6ad2 14e2 233c d3bf 24c4 2e39 5176 e5bf
000000d0: f7c1 cc71 c136 cebf 0dc7 3075 af72 fcbe
000000e0: 890b e3cd 28cd 9fbf 4e36 0039 b15b f4bf
000000f0: f422 8bdc 3013 51bf d045 48ea 29d3 eebf
00000100: 1618 6e42 bb5d fabf 05c5 4c7e 0fe4 f2bf
00000110: 1c20 26e4 c87b 4cbf 50ab 69fa 410d debf
00000120: 2304 d0a3 2078 e8bf 153f dea1 84e5 6dbf
00000130: f4e4 de86 d0a6 bebf 31c8 fef6 25e9 9dbf
00000140: 2ff1 aecb 89ff d9bf 80bf 3847 56ff b7bf
00000150: f244 9c5b ce0c d4bf 73c0 9043 4b6d 58bf
00000160: 83ce 2e0b 3b12 71bf a55d 3d8a d146 e2bf
00000170: 19f5 1298 ff52 d3bf 1233 8518 763a eebf
00000180: bb15 1f70 d225 e7bf 233d 677e 65f5 f9bf
00000190: 1cec a591 a155 cabf 615f baa9 7caf f3bf
000001a0: 294a b1d4 c43d e0bf 0344 2729 821f edbf
000001b0: 2d73 0b63 7814 febe 9749 fc53 bebf e4bf
000001c0: 2e8f 68cc 239b dbbf 6b1c a564 9e1b bbbf
000001d0: 3e16 13d3 4bee f6bf 4c46 09fc 7686 a3bf
000001e0: af56 e7d0 a724 edbf cac5 4532 984b 67bf
000001f0: eba6 b1dc 3012 efbf eccf 48ec f2c8 edbf
-0.5275984842183933 -0.97683601564308 -0.26584468346162454 -0.22932855994811718 -1.0305624581355577 -0.004808125035974563 -0.01245221386006695 -0.0021327296942169147
-0.3071703046860638 -0.0004888302849678105 -0.9763707924006726 -1.0473727827104455 -0.8725510187469081 -0.9205631144081206 -0.09705948876897758 -0.7436633919730693
-0.6833533686228551 -0.7804689985898975 -0.46281571250144915 -0.7266036123396827 -0.5336052126972829 -0.28544740559599535 0.4865485833531417 -0.23683109616584233
-0.30054566457992016 -0.6706930271958567 -0.2360460096038108 -2.713011720007542e-05 -0.031056058470095436 -1.2723858095736378 -0.0010421731150690979 -0.9632768226458044
-1.6478836626934075 -1.1806788381184685 -0.0008692484773726891 -0.4695591874539575 -0.7646640014137386 -0.003649481818634013 -0.11973288815251576 -0.0292097026828701
-0.4062218178840053 -0.09373988379297593 -0.3132816214211537 -0.0014909014701167927 -0.004167776717554641 -0.57114483833259 -0.3019408211801689 -0.9446363905823054
-0.7233669462081517 -1.6224112451198571 -0.20573825465894025 -1.2303434972763727 -0.5075401453162317 -0.9100962451722129 -2.8686487158025e-05 -0.6484061851827388
-0.4313439842392083 -0.10589017827179396 -1.4331777806377342 -0.03813525988210795 -0.9107245521688209 -0.002843663462208855 -0.9709705648831152 -0.9307798972063188

weight f8 [1, 64]
00000000: b10e d198 0b0a 703f f6d8 3c2d 9c5b 76bf
00000010: 0dba 57ad 7d42 67bf 29fe 23ea 212a 60bf
00000020: e5d2 1abd 73c3 8c3f 494e 3150 ace2 2cbf
00000030: 893b c3ec d89a 4cbf e3e4 ce98 c68e f7be
00000040: cfdb 5959 52d7 61bf fd7e 1c12 9ce5 efbe
00000050: c00b 7016 a9be 5e3f 515c edae 7abb 63bf
00000060: 4a65 bfb9 78b5 5a3f 208f 92e7 f595 79bf
00000070: 6e00 c861 c13e 8a3f a83b 417a 2bd1 783f
00000080: f48c 4e6b 4bb9 803f cb3f 3d68 bbb1 933f
00000090: e461 eda2 8edb 89bf 4432 118a 4895 953f
000000a0: 4598 401e 054b 843f 81f0 e4fe c376 733f
000000b0: 861d 6d12 2590 c6bf cdbb d25e 6f9a b83f
000000c0: 2710 d9f0 3511 7d3f 6779 5546 5a4e ab3f
000000d0: 9524 c475 9f66 913f 3652 5a24 f511 98be
000000e0: 9561 62e8 37bf 3f3f 55b4 4053 4d65 993f
000000f0: 022d 9e9f ca75 0f3f 6f6e ec62 0e77 8d3f
00000100: 55d0 ea6a eacd abbf f1ca 97d5 11f5 8dbf
00000110: fe94 de7a ea98 073f 5f5d 1d6a 2429 93bf
00000120: a13a d253 5d6d 943f 3f73 b9f8 49df 17bf
00000130: 27e0 b150 aa25 52bf 77c2 0da8 2af8 613f
00000140: 4a47 1551 9013 8a3f 5c2b 41cc ad83 44bf
00000150: c4a8 5da2 4efa 9a3f b609 00ed 8bbf 0d3f
00000160: 521c 447e 1471 12bf 82de f777 16bd b33f
00000170: 919e a212 9d49 6cbf 07f5 2d87 d887 923f
00000180: ac63 b0f5 077c 8c3f 21d9 6566 71e2 a23f
00000190: 9076 8b84 382c 46bf 9c09 80f9 d92a 89bf
000001a0: 6156 670a 6c19 82bf a747 f0a4 ae42 833f
000001b0: 5b3c f934 11ba 92be e8bc c67d f7db 753f
000001c0: d55d 31ee 33e6 8b3f a1b0 e1ad 3d7f 48bf
000001d0: 2e34 76ac 1a6e 7abf b27b 2abc d02a 2a3f
000001e0: a432 fe7f e692 97bf d38a 9405 ceb5 22bf
000001f0: e5ca 83f9 cb25 88bf 58d4 b0e0 4ef1 b93f
0.003915829945131997 -0.005458459916374494 -0.002839322531819072 -0.001973215331531515 0.014044670303840554 -0.00022037843163734614 -0.0008729514315975888 -2.246639046507994e-05
-0.0021778686885300723 -1.5209633207613043e-05 0.0018765116926722086 -0.0024087330015550097 0.001630180259772312 -0.0062465291640909915 0.012815008923098694 0.0060588548986534665
0.00816592141365511 0.019232681500682063 -0.012625803324838487 0.021077283312751285 0.009908714280822415 0.004751935585144308 -0.17627395057409617 0.09610649170893666
0.007096491533562988 0.0533321581703941 0.01699303776061763 -3.586731377261438e-07 0.00048441996512729155 0.02480049915918799 6.000542266723122e-05 0.014387237924487565
-0.054305387069150036 -0.014627589541281934 4.5008331070387264e-05 -0.018711632706382427 0.019948442688980553 -9.106530176823407e-05 -0.0011076129183305113 0.002193530381582594
0.012732627367458744 -0.0006260489103707511 0.026345471057916084 5.674024362180582e-05 -7.034957485895055e-05 0.07710400036727985 -0.0034530704334264158 0.018096335650160913
0.013908445535024537 0.03688387274717032 -0.00067665824561987 -0.012288763929977624 -0.008837551181311189 0.009404529961134346 -2.7905143882163337e-07 0.005336729777283035
0.013622670847481292 -0.0007475901764002654 -0.006452659792000976 0.00019964025530769047 -0.023021318018026662 -0.00014274730600857005 -0.0117908416291121 0.10133831964124462

bias f8 [1]
00000000: 72fb 4b22 9c58 b43f
0.07947707974743226

kl f8 []
00000000: 36db d784 5b9d 123f
7.100936019087127e-05

weight f8 [64, 1]
00000000: 7612 bef7 2f9c f0bf e457 eb9d ab9b c93f
00000010: 46af 3def 66a8 b0bf d918 7f8e f205 eb3f
00000020: 3876 2432 71d0 ec3f eea4 1cbb ae11 0640
00000030: d77c 386f b5d1 0540 6997 48b3 86ac fa3f
00000040: 010b a3d6 a4e3 0dc0 ff0d 66e9 3608 0840
00000050: b454 f578 f869 0d40 6ace b094 75f0 d3bf
00000060: 1dc7 7c85 6f00 0640 ff8d ff79 5301 c03f
00000070: bcdf 98b3 5d0f e6bf 85c6 51b4 b1cb 0540
00000080: e7a2 1991 b7ba 09c0 6d07 7753 56d9 06c0
00000090: e400 f26a 9f66 e2bf e932 e535 fea1 1040
000000a0: 48ac e9f4 aa95 01c0 f49d bd96 cc36 d7bf
000000b0: 6971 96ab baa5 07c0 8ae9 9302 a919 c8bf
000000c0: 7e4f 1796 50af 01c0 46db f217 ea52 0740
000000d0: 4168 dc8c 3c56 f73f 4547 d5d2 4b54 e4bf
000000e0: 144f 0d85 9683 dbbf b481 4102 a51c 06c0
000000f0: fab5 3387 f768 01c0 893d ef62 d93b 05c0
00000100: 011d 87d1 8871 02c0 6b9c c0b9 068e f23f
00000110: a984 6413 613b 06c0 d05e aa9d f54b 05c0
00000120: a355 b371 1b11 0940 dec8 68e5 6878 e9bf
00000130: 2922 966f b27e 0640 5601 d071 7104 07c0
00000140: 3a8b 47fc 987f b7bf 9a14 e5e4 24e1 0740
00000150: 1962 a2bc cb12 0740 7b56 20ed dcd1 01c0
00000160: dfc3 25c6 7543 d0bf 35fc 36b7 2c3f c03f
00000170: 1622 cb5e 3e50 db3f e38b 1e28 a6a4 e7bf
00000180: 011f 69fd 0aef e93f 695b ad0a 4f81 0340
00000190: 26af 1604 6c6e 07c0 64ae 5bd8 cbbd e5bf
000001a0: 80f3 f295 680a 08c0 65cd e1a5 897e f53f
000001b0: d9d9 a801 e164 9a3f 3266 023e 4b4e d0bf
000001c0: e8e6 abf1 3709 0240 4799 01b8 22e5 06c0
000001d0: a913 fd88 6240 0ac0 2b9d d2e6 245f cabf
000001e0: 90cd 0c2d 140a 06c0 abce 6b49 37c4 0640
000001f0: 90f4 b1dd 0adf e83f 9b02 ee04 4d8b 0840
-1.038131683105488 0.2000631829347973 -0.0650696119388928 0.8444760115751492 0.9004446009964289 2.7586340540043386 2.7273968400109925 1.6671206477417064
-3.7361542480952044 3.004010985781633 3.6767434549206772 -0.3115514709527135 2.750212710256973 0.12504046875902472 -0.6893757350689991 2.7244600379424946
-3.216170438380107 -2.8561216850948115 -0.5750271881843472 4.158196298708142 -2.1980799802600224 -0.36271967621584555 -2.955922451523453 -0.1882830870234325
-2.21060292490614 2.9154855605114873 1.4585538389569737 -0.6352900617441511 -0.42990649216993515 -2.7639866043320698 -2.176253372445669 -2.65422322552303
-2.3054367417677217 1.1596743827774627 -2.778993751053879 -2.662089568864623 3.133353126798015 -0.7959484558726009 2.811863776940545 -2.877169503364864
-0.09179073485533432 2.9849336512002766 2.884177659707586 -2.2274721646779745 -0.25411743498176337 0.12692793794664828 0.4267726827352204 -0.7388487609463222
0.8104300450731615 2.438139041343153 -2.9289169616148625 -0.6794184900040361 -3.005082293965131 1.3433929900901032 0.02577544758443104 -0.2547786813316605
2.2545012360177346 -2.861882627056875 -3.281437940810481 -0.20602856894149943 -2.754921295121399 2.8458085762047935 0.7772268609984554 3.068017996324057

bias f8 [64]
00000000: 457f 18db c4bb e7bf ba5e e994 0713 edbf
00000010: bb88 fdc4 3b3d d8bf 32d8 e0aa d95c d1bf
00000020: f7a7 d538 961c d2bf a15d c5ca cd17 d43f
00000030: a6e3 8236 00dc d13f 81fa 91aa 9dd3 d1bf
00000040: e72b bf9b 022e db3f bb21 af44 29f5 da3f
00000050: 4adc 6b3e 2bd0 e13f 55c8 b9b1 8d32 bdbf
00000060: 3f5e 72b8 7a35 d63f 5d25 71d3 fb2c b6bf
00000070: 8a36 9e55 d7c6 e8bf 6f0e 5f4e e4c2 d83f
00000080: 2ab4 a20c 52bd d93f c955 c0c6 9fc8 d43f
00000090: 7ac4 700b f10a e3bf 03d6 66e6 6f29 e43f
000000a0: cc50 17b5 da19 c63f 4dd2 6f7c 7da6 e7bf
000000b0: a83c 4d3e c67b d63f 3168 1533 1fec e9bf
000000c0: ec0d a299 7c6d c63f f01e 7a80 4075 db3f
000000d0: 9936 2a12 93ba d7bf 0e65 2f31 b3fb e8bf
000000e0: 7160 1c76 9a5d dabf eac6 7170 90f1 d03f
000000f0: 88c7 b27f 1074 cebf 6bbe 0303 0360 cf3f
00000100: 262d f4f2 e243 c73f 4118 bdd9 3679 c7bf
00000110: 364e a700 caed d43f e65a e58f 8db7 ca3f
00000120: 89db 5a1b 2574 dc3f 72b3 4d93 da83 e2bf
00000130: d1e8 e919 f57b da3f f9c3 5a15 9125 d63f
00000140: e8e0 e6bd db82 b1bf 6042 d1ed 7aeb db3f
00000150: 811d ef76 bbe6 d93f 422b 5160 cd94 c63f
00000160: 415d bf59 fa35 dbbf d46e 23f3 bb4a debf
00000170: d778 ba2b ad14 ebbf 4f4d ce98 338c e8bf
00000180: a594 ad8e be6f c6bf 20e1 311c 76bc d63f
00000190: f861 c6be d273 d73f 8dce aef9 9273 f0bf
000001a0: 87d8 4111 6514 d83f 74b2 eefe dc6d d7bf
000001b0: bcda 972d 5803 9abf b6ad 158f 5883 babf
000001c0: 1090 a34e 8a60 d43f dd00 54d1 856b d63f
000001d0: 8da9 4f14 6d3e da3f 39f4 902b ed8f dfbf
000001e0: 0a41 3daa 1eb7 d33f fb36 ba03 7112 da3f
000001f0: 8531 3d64 09a7 c6bf 8c6f fba8 7db7 dc3f
-0.7416710166180357 -0.9085729511670799 -0.3787373946889933 -0.2712921303494823 -0.2829948000932058 0.31395287324763826 0.27905278514259135 -0.27854100854157343
0.4246832390751351 0.42121345241005387 0.5566612452665904 -0.1140526350880305 0.347014122127323 -0.08662389671476008 -0.7742726013400028 0.3868952527375091
0.4021802066225201 0.32474512490565793 -0.595085642189715 0.6300582408936751 0.17266401140535093 -0.7390735083013823 0.3513045891203981 -0.8100734708525633
0.17521626950848146 0.4290314917238751 -0.37076260351100526 -0.7807250939032728 -0.41196309599172937 0.2647439096536873 -0.23791700587531417 0.24511754653166248
0.18175923216799922 -0.18338666564722142 0.3270134931928824 0.2087265923134602 0.44458892508867415 -0.5785954358121741 0.41381576090465183 0.3460428913631968
-0.06840299021030527 0.4362475702701314 0.404707780977752 0.176416084317987 -0.4251695515099137 -0.47331141227708184 -0.8462739805288731 -0.7671144470681756
-0.1752851673765338 0.35525276902582625 0.36644428854336253 -1.028216338466254 0.3762447994735187 -0.3660805215429612 -0.025403383047854375 -0.10356667989042631
0.31839235000211463 0.3503126663417911 0.41006018622888335 -0.49315957312120734 0.3080517446988017 0.4073755775833516 -0.1769725551079199 0.4486993932930481

weight f8 [1, 64]
00000000: 556c 4972 e5cc c4bf 40b8 2c30 fce8 97bf
00000010: b529 d5d3 d5c3 9c3f 15f1 f768 1728 d33f
00000020: cf64 9677 4360 d83f 4eb8 4222 7de2 de3f
00000030: 5fed 6144 1af5 dc3f fe3f 62c1 9f2d ee3f
00000040: 3013 6736 5a1b dbbf 3dfe 6934 0219 d83f
00000050: 9b78 4458 88fd e03f ecd3 3910 5692 983f
00000060: bf08 7228 17cd e03f b131 d1c4 3fbb 85bf
00000070: dce2 c2a7 8ed5 c5bf 2ada 4356 7c9d e33f
00000080: 2d69 10d0 6b0b edbf b8cd 89c3 84bd e4bf
00000090: ec9f 0730 13a0 863f 1844 e01f 8c31 e13f
000000a0: 87cd 892a 5ab9 c8bf 166d 34f9 2fd1 993f
000000b0: 53b6 260d 221c e6bf ee34 34f5 4e9f b93f
000000c0: ae78 3f46 4839 d2bf 2b09 9a10 3e7b e83f
000000d0: 2ba7 be48 9d84 d73f 4798 f0f9 1e82 78bf
000000e0: 415b f25f c502 95bf f720 9a37 5635 d7bf
000000f0: 0cc9 0419 63b3 f0bf 1233 d237 9e60 d7bf
00000100: 76fe eef3 219e d0bf 11ce c7ae d0ff cb3f
00000110: 93f5 e129 7ee6 e8bf bbd8 5852 1c60 d4bf
00000120: 3106 0c43 e2c0 e13f e60d 1d1f 818f a6bf
00000130: d979 3f80 ef7e e83f 56c2 786f a469 edbf
00000140: a095 ec7b 0a58 893f 85de 3c41 2637 e73f
00000150: b26e a928 1c78 df3f 5749 7abe 19da d0bf
00000160: 28ab d4bd 9f8b bcbf 0fe6 1b66 43f9 aabf
00000170: 31b3 ec3b 1a33 823f d30c c32f dbf6 abbf
00000180: ad8e e515 b1eb 9abf 68d5 6760 ed68 e73f
00000190: 54f8 ae8d af1c f1bf 5e72 d761 0727 9a3f
000001a0: c33d b198 91a6 ebbf d0db e73e 7c6e d63f
000001b0: ba7f 6869 df68 54bf 8389 1f66 90b4 903f
000001c0: a1ca 56e8 c97d e13f f609 b4b3 d4f6 edbf
000001d0: 7ef1 24c6 2f61 eabf db8e 8ad3 8bb5 683f
000001e0: 0052 b5d0 5977 e4bf 6f77 c888 af0a e63f
000001f0: fe74 cc47 4775 98bf 6c35 c6a7 065b e73f
-0.16250293808374985 -0.023349705162381662 0.028090802244415253 0.29932198763687384 0.3808754604193156 0.48257377954258096 0.4524598758504989 0.9430693413760307
-0.42354445755727266 0.3765264045577828 0.5309488033269817 0.02399572824511502 0.5250354566526524 -0.01061105555904693 -0.17057974997967207 0.6129743275512898
-0.9076441825630234 -0.64813459578584 0.011047506240132031 0.5372982618883979 -0.19315650059762055 0.025212049088719622 -0.6909342057094342 0.10008710371421944
-0.28474623546743316 0.765044243264389 0.3674691400907359 -0.005983468056944891 -0.020518383008119704 -0.36263041906251153 -1.0437956788342175 -0.36527209712294095
-0.25965164968145105 0.21874435934260864 -0.7781363313694548 -0.318366127411888 0.5547953900824664 -0.0440636015396441 0.7654950623362381 -0.9191457917386952
0.012374956042161156 0.7254821085143283 0.4917059323395093 -0.26331180192314235 -0.11150549301661938 -0.0526829778809309 0.008886532739404625 -0.054617738323509045
-0.02628971763750936 0.7315585024759175 -1.0695033583174522 0.02553950819661776 -0.864083097674602 0.35049348967680505 -0.0012457067256334956 0.016313797219376546
0.5466050660964649 -0.9363807210759763 -0.8243636007314732 0.0030162554724756214 -0.63956919444405 0.6888044044060119 -0.023884881741754953 0.7298615719643471

bias f8 [1]
00000000: e257 8921 85af 883f
0.012053527914002108
