CS224WFINALPROJECT/saved_models/trained_vae.pth (torch, 90555 bytes, 12 tensors)

adj_A f4 [50, 50]
00000000: 7de0 8dbf 6244 8bbf 1353 83be 7e68 e0be
00000010: 2459 573f ea79 323f 4ee8 9dbe c4ee 07c0
00000020: e037 a33e 1eab a0bf 4c85 ab3e 1f49 a13e
00000030: aa20 013e b740 9f3f 041b 8e3f 4806 82be
00000040: 3c51 acbf 669c d9bf 2253 0e3f 1e62 493f
00000050: 1ce9 173f 0145 c6bf 6cae b2be baf0 ed3f
00000060: 677c 3e3f 9640 14bf 399a 34be b4be 2b3e
00000070: 43cd b03f ecd6 cb3f 32ba 733f 2127 56bf
00000080: 5ac3 1ebf 5579 1c3d 3e26 f8be 96bc 823e
00000090: e189 e43e 8dab f13d 175f 223f 91eb df3e
000000a0: 2e9a c4bd 34cb 503f 340e 97be 9974 453d
000000b0: 478d 023f 6b53 1340 ef32 bbbf 9c4c cabf
000000c0: b065 2cbf 2b30 603f 6ba0 883f a331 5f3e
000000d0: 8dfa 71be c31b cbbe 266e 093f f371 c7be
000000e0: 91de e0be c469 3c3f f43d c23f 87b9 5a40
000000f0: d9d8 c4bf 8b18 9dbf 6cbc e93f 0080 0bbf
00000100: 3858 13bf fbd6 693f dc03 8f3f 4a78 a43f
00000110: 3735 bebf bce3 2340 2819 f5be 53a0 a53e
00000120: 1c7d d1bf 0542 0bbf 81ab f8be aa7f fcbe
00000130: 3508 89bf 0e1f 8d3f 9e07 1cbe b07d 4f3f
00000140: caf5 b2bd e3b2 313f f32c 58bf 3ee8 053c
00000150: f3a3 593f bf66 c9be b6e0 853f 0025 ba3e
00000160: 7940 81be b911 1340 3813 f0bf a0d3 e8bc
00000170: 6280 86bf 50fd 75bf 4626 d03c b77e 373f
00000180: d979 d33f 3350 adbf f88b b73e fbae 053f
00000190: 3b22 23c0 1be8 d0bf 9693 5cbe 0f59 9a3e
000001a0: 0dcd 7c3e 8e1b 813d 362a af3e c1e9 e43e
000001b0: 9fe1 ed3e 74ff 5cbf 6795 433f f67a 6dbf
000001c0: c7fc 66be 1f10 1cc0 64d3 8ebd a537 f4bc
000001d0: 062a 753f 5b0d bb3e 928a 6abf 6b29 53bd
000001e0: 136a 1bbf c096 dbbe 1049 f53f aedf d2be
000001f0: aee3 0a3e dc2e 943f 4530 733f 493f ac3f
00000200: 1c48 57bf 86d3 dabe 255d 50bf cbb4 103f
00000210: 3fae 1e3f d333 ed3e 5e22 f93f 1c29 89bf
00000220: 0cc2 aabd 4423 d53d 2426 16bf 534c 9cbf
00000230: da53 dfbd 628d 7ebf f13f 9dbe 8551 843e
00000240: 0f20 a5be 23e1 d53d 97ed 6f3e 681a 943f
00000250: 8fc9 913e 1c98 b13e 56a4 46be 2f97 49bd
00000260: 79a5 4b3e b1ad 43bf 0d95 f2bf 3b72 fd3d
00000270: adf5 34bf 0c1d a33e 8d31 283e 1ec9 c23e
00000280: 3525 773f 241c 7fbf 195d 973e 1dcd e7bd
00000290: 0c7f 803f 754c fcbe 3f52 413f 8156 203f
000002a0: c40f a33e 2251 603e ef48 e7bd 002c ba3e
000002b0: 227c 9ebe c5e7 8abf 8731 7d3e d57f b3bf
000002c0: 8464 6bbd e84c b8be dceb c4bf 9d70 b8be
000002d0: 448d 893f fa0e 013e b038 ca3f 286c 463f
000002e0: d1bc 8abf 6526 3abf 3782 bb3f 6d91 893e
000002f0: f742 2c3f c160 7cbf 6c07 99bf fc53 98bf
00000300: 7f9e 0dbf da67 0a3f 462a c43e 15cf c33e
00000310: 4d02 293e 39a3 5e3f ae2b 92be bf9a 813f
00000320: a4a4 a5bd ae81 88bf 14de cb3e fbde 193f
00000330: a523 2b3f 4e3a 9bbf 58f2 193f dc83 0abf
00000340: 1dc0 963f 7a1a bb3d 1c17 783f 638a 553f
00000350: 8547 a1bf 7c06 7b3f 470b fabe b66b a3bf
00000360: 8aec 723f 8c1f a53f 9efa 28bf c64d 123f
00000370: 769d 963e 46d0 d7bc 4821 87bf 9455 f7bd
00000380: ef8b acbe 654f c83f 2607 4b3e b55b c53e
00000390: 9ad7 0ebe e0a0 213f a547 93be a306 abbf
000003a0: 69f7 0abe 9e59 0abf 5289 07bf c1f6 5a3f
000003b0: b2ad 64bf 0d15 553f 4c5f 943f 8b93 e0bf
000003c0: 05f6 bdbf ab46 e1bf 9608 a93d fb36 89bf
000003d0: 7c38 b73f e8d5 edbd f10c 123f fbb1 33be
000003e0: f2ba 9abd f209 843f 63c3 663f 2819 e2be
000003f0: 7d4e 5dbf 0806 1b3e 6253 f43f 617f c43e
-1.1084133 -1.0880244 -0.25649318 -0.4382972 0.8412039 0.69717276 -0.30841297 -2.123948
0.31878567 -1.2552221 0.33500135 0.315011 0.12610117 1.2441624 1.1101995 -0.25395417
-1.3462291 -1.7000854 0.555956 0.7866534 0.5934007 -1.5489808 -0.34898698 1.8589089
0.7440857 -0.5791105 -0.17636956 0.16771966 1.3812641 1.5924964 0.95205986 -0.83653456
-0.6201683 0.03820165 -0.48466676 0.25534505 0.44636443 0.11800299 0.63426346 0.4373441
-0.0959972 0.81560063 -0.29503024 0.0482069 0.5099682 2.3019664 -1.4624919 -1.5804629
-0.6734266 0.875735 1.0673956 0.21796279 -0.23630734 -0.39669618 0.536837 -0.38954124
-0.43919805 0.73598886 1.5175157 3.4175737 -1.5378677 -1.2273115 1.8260627 -0.5449219
-0.57556486 0.9134366 1.1173053 1.2849209 -1.485999 2.5607748 -0.47870755 0.3234888
-1.6366305 -0.5439761 -0.48568347 -0.4931615 -1.070563 1.1025102 -0.1523728 0.8105116
-0.08738287 0.69413584 -0.8444359 0.008173047 0.8501579 -0.39336202 1.0459201 0.36356354
-0.252445 2.2979567 -1.8755865 -0.028421223 -1.0507929 -0.9608965 0.025408875 0.71677727
1.652156 -1.35401 0.35848975 0.52220124 -2.5489643 -1.6320833 -0.21540675 0.3014607
0.24687596 0.06304084 0.34211892 0.4470959 0.46461198 -0.8632729 0.76399845 -0.9276575
-0.22557364 -2.438484 -0.06973913 -0.02981169 0.9576725 0.36533627 -0.9161769 -0.05155317
-0.6070873 -0.4288845 1.9162922 -0.4118628 0.13563415 1.15768 0.9499553 1.3456813
-0.84094405 -0.42739505 -0.8139213 0.5652587 0.6198463 0.463286 1.9463613 -1.071567
-0.08337793 0.10407117 -0.5865195 -1.2210792 -0.10904665 -0.99434483 -0.30712846 0.25843444
-0.3225102 0.10443332 0.23430477 1.1570559 0.2847409 0.34686363 -0.19398627 -0.049216446
0.19887342 -0.7643691 -1.8951737 0.12375303 -0.7068737 0.31858099 0.16425152 0.38044065
0.9654115 -0.99652314 0.29563215 -0.11318419 1.0038772 -0.49277082 0.7551612 0.62631994
0.31847966 0.2190595 -0.11293208 0.36361694 -0.3095408 -1.085198 0.24725924 -1.4023386
-0.057468906 -0.35996175 -1.5384479 -0.36023417 1.0746236 0.1260337 1.579855 0.77508783
-1.0838872 -0.72714835 1.4649113 0.26868764 0.6728968 -0.98585135 -1.195539 -1.190063
-0.5531997 0.54064715 0.38313502 0.3824393 0.16504784 0.8696781 -0.2854895 1.012535
-0.08088043 -1.0664575 0.3981787 0.60105866 0.66851264 -1.2127168 0.6013541 -0.5410745
1.1777378 0.091359094 0.9691026 0.83414286 -1.2599951 0.9805677 -0.4883673 -1.2767246
0.9489218 1.2900252 -0.6600741 0.5714992 0.29417008 -0.02634443 -1.0557032 -0.120768696
-0.3370051 1.5649229 0.19826946 0.3854653 -0.13949433 0.631361 -0.28765598 -1.33614
-0.13570942 -0.54042995 -0.5294391 0.85532767 -0.8932754 0.83235246 1.1591582 -1.7545027
-1.4840704 -1.7599691 0.08253591 -1.0719904 1.4314113 -0.11613065 0.57050997 -0.17548363
-0.07555188 1.0315535 0.90141886 -0.44159818 -0.8644789 0.1513902 1.9087946 0.38378432

weight f8 [512, 5]
00000000: 6167 b980 5938 d13f 7a3e 2105 f399 c23f
00000010: 0394 978d e570 d0bf 677a 6ea9 a5e8 d03f
00000020: 2d97 3257 942b d23f 0834 33db 823c cd3f
00000030: bf62 cadc d9d5 d83f 3000 61c3 0fa7 b03f
00000040: 1b7e 1d9e 5907 953f 3c2f 65c2 8b43 b0bf
00000050: 6a91 debc 6cc0 dcbf d035 7d3e fd60 d53f
00000060: 4ede bc8e 01be bb3f 1545 4f2c 7337 d2bf
00000070: 304d 9cc2 8d0d d0bf c8dd 98e2 0dbe c5bf
00000080: fe2f 5cc1 3f71 d6bf 65a7 3515 812b da3f
00000090: d99c c87d ec79 d0bf c299 7fc5 bfb3 ca3f
000000a0: 9ff2 62b9 bf80 dabf c87b 1516 cbb9 d9bf
000000b0: 5aa9 6708 61f7 babf e0a5 1ee3 a06e c23f
000000c0: a55e 69cb 7490 cc3f 2ecc eebd 4ffb 9b3f
000000d0: f0a1 b9ec ab78 bcbf 854e 39da 58e4 d3bf
000000e0: b270 284e d72d d1bf cbde f157 39da d8bf
000000f0: 0461 1907 800b a53f fbfc 0da4 4a11 aebf
00000100: d506 b098 3b6a dabf 10bd ce42 74b0 d9bf
00000110: 0110 1ac3 0d8a d43f 6d41 be34 6ac5 d63f
00000120: d303 fd57 96a1 c93f 2633 7e4f 01f8 d93f
00000130: 19fd 2987 b216 d03f 538b dd4e 78de d9bf
00000140: 91d8 d2f8 229f d93f 67f7 69f1 f312 c9bf
00000150: 5f03 fce2 95b3 d43f c3cd a711 5808 c13f
00000160: a1d1 86d0 d8bc bb3f c4bf 70fb f6b2 d6bf
00000170: 3f1e f597 b0b5 993f 34ad 2a0f b6d1 cc3f
00000180: 229a 135d 2ed2 d6bf 5cd3 6492 fb16 c4bf
00000190: 3295 e76e a857 d3bf 9e78 cb3c 56c8 ccbf
000001a0: e82c 7c4f 407e d63f fb2f d2a6 2aa5 d9bf
000001b0: b824 4ec3 ffca a4bf 478a ced2 2cfa d63f
000001c0: 8ea8 2694 b973 cdbf 2119 6fa2 76a0 c33f
000001d0: ea21 2a49 0888 a83f 34af 9a44 551d a93f
000001e0: e34c 4e6c 3c3d c43f 9bd2 2fa8 c82e d2bf
000001f0: 366f b7a9 9aa3 dabf 5e18 ed3d db99 d9bf
00000200: bd24 d735 dc09 d2bf 434a f5e6 a357 ba3f
00000210: 6219 d6fd e90e 98bf a15a 3673 48bb d33f
00000220: 27f5 f5ca c66f cd3f 83be 3b33 df04 c0bf
00000230: c01e 5b0e fffb c6bf 0616 ec2b 36eb b8bf
00000240: 0462 9fa8 6d18 ca3f 16cb 011b dcef ce3f
00000250: 445b f727 0244 d9bf f5e2 1102 2fad d5bf
00000260: 52e0 c70a efaa c73f 0384 727f e756 dcbf
00000270: 46bc 9f66 8cac cabf e754 5f17 0d45 cc3f
00000280: c72c 922d d8df a5bf fb8b b52f 74e0 bd3f
00000290: c786 b844 fde3 91bf 0a3f 8454 ef7a d2bf
000002a0: b004 4088 7152 d4bf 3b32 993e 6c99 d5bf
000002b0: 8dc3 78b3 fe18 5a3f 2889 3edd 8e8d d63f
000002c0: 7ca5 b1d4 63b7 d93f 03a8 f978 1bc2 d7bf
000002d0: 56ca b5f9 eeda b2bf f429 2a03 3bd4 c73f
000002e0: 984e fda9 ccf7 db3f 5dac 3adb 2a00 d4bf
000002f0: b557 4261 dc53 d43f 6f51 88d9 efed 90bf
00000300: 5f57 c189 f235 d73f 401c 8029 becb d2bf
00000310: 8dc0 6470 831c ccbf 007e 41bb 38e4 b8bf
00000320: 4303 ce0e d6b2 db3f ec93 2726 14ed afbf
00000330: 8280 fe44 9a94 da3f a4ab f4d9 c8eb cbbf
00000340: 972d eba6 1055 d7bf 8fb7 a1f1 9cfc d23f
00000350: 5621 f242 b867 d03f 7ef2 7dd0 2fcf ce3f
00000360: 5581 2b62 bfa2 c33f f87c e70f 4a57 c6bf
00000370: 80e7 a045 5865 c03f 3b3b 302a f992 bb3f
00000380: 0875 f110 aca5 c3bf b8a8 7ecb cf02 da3f
00000390: 3c5a 3c62 62e6 bfbf 0765 ce77 633c d5bf
000003a0: 3c61 a4c8 b180 d53f 3043 2d73 9d0e d53f
000003b0: 3f4e f6b7 322a b93f 90cd 2826 4598 dbbf
000003c0: 5cf5 34a0 eaea cabf da11 e8be fc8e cd3f
000003d0: 1e35 10f6 6696 bbbf 33cd bb1f 7584 d33f
000003e0: 55e7 eb6a 2b53 ad3f 16a3 645b 6384 c5bf
000003f0: c5c0 1afa 5a9c d63f b588 6361 f74d dbbf
00000400: 8bdf 8b95 65a8 d8bf 4d41 b86b fc97 c9bf
00000410: 6320 aea9 a00e d9bf 2bc3 f2a7 8d06 dabf
00000420: 4bf1 b51b c9c6 c2bf 289e 769c 8070 d93f
00000430: 3f2d 073b b6ac c4bf b90d 9a27 a1f5 d4bf
00000440: 0566 738c 1570 d23f 5787 f1c7 4c6d dbbf
00000450: 02b6 76a5 0d75 bf3f 643c d13c 34af d8bf
00000460: 3eb3 3d35 17d0 d3bf 0073 5f2f 2e67 d43f
00000470: 4655 b624 a4e4 cdbf 38f3 0f9d c05d be3f
00000480: a8c9 2c13 119c d1bf 5a89 ebd7 c203 c53f
00000490: 6d91 cbcd 5bc9 c7bf d0ab dddb c5f4 d6bf
000004a0: ff06 adef a617 bdbf 7743 399b e6ce b73f
000004b0: 5a5d d620 a688 b9bf 3e19 672b 9b64 d5bf
000004c0: e70c 8f52 03ab dc3f 881e 76cf 38ab c13f
000004d0: df9f c3d6 6b8e bebf d899 a554 7b83 dabf
000004e0: 0003 12d1 1c4f c23f 5fb1 4984 859d dabf
000004f0: 8ddb 8e69 d8be d03f cd6c a868 ea77 da3f
00000500: 9c6f 16a6 47eb cb3f 7f6a 35ed 50fc d23f
00000510: ff1d c919 79a3 bbbf 79c5 213c e5bc b63f
00000520: 2c5c 7163 789a cf3f bced 13c3 4ab3 c9bf
00000530: e524 d24f e07c d33f 9983 b8ea 6a2a bebf
00000540: 3b10 2645 48d7 d6bf ec47 4106 1dc3 d93f
00000550: 3a35 190c e643 b73f bc9f 855a f378 c93f
00000560: 073a c56f 8a65 cabf 12db ee4e a406 76bf
00000570: 6e58 d88b a4f2 d3bf b5c5 4d2f d7bb 8abf
00000580: 8d55 66ce bfc5 78bf ef81 923b d294 bc3f
00000590: f0be 13b8 d77e cebf 3509 5cb2 f937 d0bf
000005a0: cc50 0479 4e74 dc3f 1da8 45ad 686e c23f
000005b0: 6445 d094 8d75 d53f 4c95 fc80 fb7a c53f
000005c0: 096c b860 f429 d8bf bc00 fe10 0377 b83f
000005d0: c26f 42f8 d81b a8bf d4fd 5b83 ad95 d93f
000005e0: 2223 2940 8c1f bbbf f0a0 734d e7fd d5bf
000005f0: b4c9 93e8 5c45 d7bf 4e65 4797 4da3 d9bf
00000600: eb66 7df1 5bf7 b9bf ea14 7a45 197c d5bf
00000610: 5ec2 e359 c123 c43f c2a0 1279 3da5 d23f
00000620: e57c 4f0b 430d d4bf 1fb0 0ab4 3585 cbbf
00000630: c2a6 1d2b 5f59 acbf 8a37 4aec 28f2 c83f
00000640: 1769 9f51 dd2f c3bf 85aa 5914 9f03 dbbf
00000650: 0a17 fb65 db6b d8bf 4908 b9be a55b a53f
00000660: 5e26 6e93 8127 a6bf 5d10 0d68 80e1 d3bf
00000670: d994 4548 15fe dbbf b554 3545 92c8 c1bf
00000680: ee2b a294 8975 dbbf 890f c41b ffb4 c1bf
00000690: 6503 65fb b896 cabf f30d 0de7 a205 aebf
000006a0: 92de a77e d3d1 c9bf 6c7e cd32 5325 a3bf
000006b0: cd49 5331 7ccb dbbf dd80 fa89 dd0b c9bf
000006c0: 4ab3 0dc2 6d0f babf 21cb f931 513e d5bf
000006d0: b82c 0d19 e139 ccbf c0ee 7971 370d bd3f
000006e0: c176 bda4 64c5 dbbf 850b a404 05ab d13f
000006f0: 9d99 8642 a8fd b23f 85ba 2701 83ea cc3f
00000700: 9e06 2a8b f768 d83f 445f 97b1 ef56 ddbf
00000710: 5526 a978 dac3 bbbf a3e5 4cf7 1b28 c23f
00000720: 7fc4 636c 5eda 86bf 7c30 5025 34fc be3f
00000730: e384 974f 8ce4 d03f b363 6570 7b8c be3f
00000740: 19de c9f3 634d c73f 9f53 0e9d 37d1 c5bf
00000750: 3d6c 0eaa 35b4 d3bf a636 2520 7994 d93f
00000760: 9e49 2060 1a88 cc3f 3020 26b4 c97d c5bf
00000770: 4a1e 4b3a 5c47 a03f 3573 d425 7605 d63f
00000780: 15a0 3895 662c ce3f 30c0 55df d641 b6bf
00000790: a2c6 b900 3b7d dabf e0b3 317a 5c83 d3bf
000007a0: 67ef ac6a 6a13 c8bf b714 35e6 f346 b83f
000007b0: 26b8 33f5 c55a d43f f86d e197 b67c a5bf
000007c0: 2b25 43ed 95a3 99bf 2acb ecd1 172e afbf
000007d0: 38b9 a76c baa8 dc3f c812 c465 5e47 b23f
000007e0: 0e8d ecb3 81dc d0bf d12a 8b21 a35b 98bf
000007f0: eb4c 8908 d841 db3f 6fcd da76 6ba8 b1bf
0.26906430788732477 0.14532315969926285 -0.25689066722253545 0.264199653110984 0.2839098788775683 0.22840915396810169 0.38805243074015644 0.0650491573333063
0.020535850787721893 -0.06353066917398292 -0.44924467510488475 0.3340447530980244 0.10836801276024596 -0.284634392996922 -0.2508272552961044 -0.16986249508202733
-0.35066217310736636 0.40890528746841986 -0.2574416378360645 0.20861050742605697 -0.4141082106032545 -0.40196492344506085 -0.10533720450590547 0.14400111284093864
0.2231584542484956 0.027325864760950384 -0.11121630219862033 -0.3108121996967628 -0.2684229148160383 -0.38831933582649175 0.041103363863557646 -0.05872567417736182
-0.4127339354600797 -0.4013949062745761 0.32092613270674525 0.3557992472715544 0.2002437524443211 0.4057620312021747 0.2513853378258815 -0.40420348836612624
0.4003379278104911 -0.19589089668073287 0.32346102873275656 0.1330671392639556 0.1083503254984124 -0.354673142955104 0.025107154154538455 0.2251498769813708
-0.35657843675145007 -0.15695137642037593 -0.30222521620301557 -0.2248637959336905 0.3514557625027934 -0.40070596972577704 -0.04061126002404464 0.3590194758091098
-0.23009414419113167 0.1533344548353819 0.04791284459230723 0.049051918625393404 0.15811877525684456 -0.28410545753949074 -0.4162356049907773 -0.40001565024829755
-0.2818518186364363 0.10289978397967396 -0.02349439250749564 0.30830584765628016 0.2299736491221804 -0.12514867784146952 -0.179565317163215 -0.09733904430694204
0.20387049420857306 0.24169493979169293 -0.39477590468361634 -0.3386952896321838 0.1849039843216383 -0.442804216823845 -0.2083907605260455 0.22085727349500603
-0.04272342258726663 0.11670614399695005 -0.017471272773156323 -0.2887533498151106 -0.3175319510047059 -0.33748918641211717 0.0015928733172467541 0.3523900185192752
0.4018182351197408 -0.371222370281089 -0.0736531600612492 0.186164261384263 0.43699947929892735 -0.3125102177534183 0.3176184606357951 -0.01653265729153602
0.36266768887195683 -0.2936854748990676 -0.21962016094176243 -0.09723238536525258 0.43279029317641377 -0.06235564199213414 0.41531998384198954 -0.2181330742108375
-0.3645669584336359 0.29666827771040344 0.2563305524604592 0.24069783859512833 0.15340416234449586 -0.17453885819029558 0.1280927982314175 0.10771138458242728
-0.15349341227821633 0.40642161247763964 -0.12460913561185633 -0.33181082439257675 0.3359798869510262 0.32901703117117886 0.09830014220488524 -0.4311688301706562
-0.21029408285714168 0.23092612573249377 -0.10776370532422105 0.3049595651529728 0.05727515869325709 -0.1681026645904004 0.35329317497508966 -0.42663368712068045
-0.38527812580240867 -0.19995074519875758 -0.3915177971871399 -0.40664998437118766 -0.14669145443975604 0.3974916007959757 -0.1615207470152686 -0.3274920355545095
0.2880910750951389 -0.42854613805513025 0.12287984170571778 -0.38569360675041353 -0.3095758457118797 0.3187976324677919 -0.23354007523145465 0.11861804804352694
-0.2751505553489104 0.16417727988216307 -0.18583247707932618 -0.35868975135116177 -0.11364215232336149 0.09300080575600399 -0.09974134732907683 -0.334265510926702
0.44793780386335275 0.138037778186334 -0.11936067574754315 -0.4142750097875285 0.1430393238879546 -0.4158643524049434 0.26164827640916927 0.4135690710115341
0.2181176720595176 0.2966501537791046 -0.10796315078288642 0.08881981580795707 0.24690155845266426 -0.20078405881200279 0.304496839475702 -0.11783474188315636
-0.3568897891311768 0.4025337754329701 0.09087980075238003 0.19900361938493727 -0.20622377831973912 -0.00537742789213415 -0.3116847387003706 -0.013053589945885994
-0.006047963374290599 0.11164583162690865 -0.23824593055859777 -0.25341646593018946 0.44459878747990156 0.14399441204597077 0.33529986889433006 0.16781562612701817
-0.3775607056174413 0.09556597866867639 -0.04708745985519115 0.39976060703335503 -0.10595013204978135 -0.34362204135551533 -0.3636085768950139 -0.4005922295887857
-0.10143065114734966 -0.3356993845448658 0.15734116448540453 0.29133545707237485 -0.3133094416097733 -0.21500273982144422 -0.055369352353250814 0.19489013230889568
-0.14989820943339602 -0.422096032975482 -0.38158307036461336 0.041714839488591844 -0.043270158049449434 -0.310638524639449 -0.4373830037860223 -0.13893345240891156
-0.4290489150523048 -0.1383360753608225 -0.2077246882927525 -0.05863675184675889 -0.2017158859668951 -0.0373941421046283 -0.43429474656036576 -0.19567460286362506
-0.10179792392382328 -0.33192853813595674 -0.22051633570877072 0.11348291893403495 -0.433922921065328 0.27606320813372803 0.07418300270237528 0.22590673023610833
0.3814066752457651 -0.4584311708726896 -0.10845723577326656 0.1418490369340307 -0.011158693011085184 0.12103582297294396 0.26394946835178085 0.11933108800930263
0.1820492687581783 -0.17044730347393242 -0.30787412268699993 0.3996870817107755 0.22290353482874264 -0.16790124222120673 0.03179443561162694 0.34408334440540794
0.23573000227156685 -0.0869421286822678 -0.4138934619032658 -0.3048926537801986 -0.18809251984373107 0.09483265276238027 0.3180403608847676 -0.041967111625776654
-0.025038092237797443 -0.060898537040335946 0.4477983532987255 0.07140150055426908 -0.26345865793901246 -0.023787068292942252 0.4258937915194127 -0.06897613193250661

bias f8 [512]
00000000: f74c c82b 21e7 cd3f efa2 4793 e808 dabf
00000010: b80d 9480 7838 a83f ea73 1542 9d69 da3f
00000020: cfd1 15ca 0f01 d9bf 9fb3 0ce6 f59a c93f
00000030: 24ac d384 431e d33f 7e5a 2605 95c9 c1bf
00000040: e21f 1117 632a 9e3f da92 16e4 c2b1 763f
00000050: feaa 779b e57b c0bf c75d 37f1 c0de c83f
00000060: 5687 1020 c2b6 ce3f ce9c 4d7c a7c9 903f
00000070: d33d ca29 0216 c73f 3482 e707 0420 d3bf
00000080: 6a02 82e3 0324 dabf 6628 f42f 1ae2 c23f
00000090: 419d 7c02 dd5f c4bf d60c eccf 496c a63f
000000a0: 86c1 f1c0 6df9 b0bf b5af 300b a09a d93f
000000b0: 26c6 cf20 622a d43f 9093 d53d 1421 c53f
000000c0: eb1c a6a4 da24 dabf 0929 b9b5 e568 c73f
000000d0: c1ce a8c5 9ddd d5bf fa86 feeb a9a6 c3bf
000000e0: 6ac8 0bc8 2cb5 d4bf 4588 6953 f724 c7bf
000000f0: 9b74 6375 f4fd d4bf 1a26 c24e 93d9 cd3f
00000100: 5efd b65f a3e6 c5bf f459 2c7e 9d6b c33f
00000110: 6d05 fb0f 5238 aabf 15c9 7cdc 525b d13f
00000120: 16af 48ac 6657 d3bf b11f 5b3e 5443 d2bf
00000130: eec2 80c8 3cdc d3bf cc7e da9f 13cb d63f
00000140: aa29 1262 8063 d5bf f7e3 5a1e 615a b8bf
00000150: d8bd 219d 307d abbf 7125 6139 4733 d73f
00000160: b727 d877 b865 dbbf 7a8c dc49 7265 c5bf
00000170: 3a7e 065f eadd c9bf d630 0c5c bd1e d4bf
00000180: 2e96 74d1 1b7e d1bf 31a7 4d78 3923 ba3f
00000190: 8756 4f79 eb1f d73f 61fc d290 3bd5 d8bf
000001a0: dcbe 54c8 def2 93bf 9d22 fe1f 7a68 b23f
000001b0: c231 1447 d80d b8bf 826d c289 baf9 cbbf
000001c0: 411d 1718 4777 cf3f 5d46 4d6e 9651 d7bf
000001d0: d12c ea90 4f24 dc3f 3dc2 eccd 921d d9bf
000001e0: f2fe acfd d8dc d43f 9b9c 34bb 2bf7 db3f
000001f0: 7aa1 7479 650e db3f 8e00 dc2d 591e c53f
00000200: 06a7 123e 6bb1 a8bf 0953 716a fcd0 babf
00000210: 7f24 1a38 d0f2 d4bf 1667 b58a 996d bbbf
00000220: bebc c90e 90f1 aa3f f2f7 082e 775e d53f
00000230: d1ec a3cd 564e a23f ec9c 3284 ec5e c83f
00000240: 770a faa6 51b9 a6bf 0c68 b84f 005a b13f
00000250: 3767 4560 289f cb3f b486 de15 648f cbbf
00000260: a9e0 221e 14be 76bf 7c1e 5a6e 100a dabf
00000270: 3d3e e925 7351 a0bf cc6a 6fc7 562a d7bf
00000280: 2d7e a67b 8787 d23f c14e e1f1 b393 d7bf
00000290: 63b6 2f0a 0201 c13f 8010 6822 6b06 dbbf
000002a0: ad03 d5d4 2314 d83f 2945 202a 63e7 d33f
000002b0: d8f0 0861 10b6 b03f 8d3e 28fc 8fb2 7abf
000002c0: 2399 cc17 2b19 c83f 6906 d5ce e344 d3bf
000002d0: 7b14 42a4 0840 bcbf 41b8 0747 ac89 c43f
000002e0: 0cac a175 a585 d3bf ea08 d842 01c7 53bf
000002f0: 73b9 ffa0 4199 d03f b578 7051 4c22 cd3f
00000300: bb7b 4879 3f8f dabf dc7a 65f7 b253 c9bf
00000310: c77f 777d d572 d9bf 7f90 a2c8 bf82 da3f
00000320: 1663 6289 a73b c4bf b534 cc95 7b13 d83f
00000330: 72ba 704d d8b3 db3f cb75 3605 fdbe cd3f
00000340: a77b 928d 72f4 d23f 8749 22f5 6468 cf3f
00000350: f424 ec8f c7d1 a3bf f425 a974 7154 d93f
00000360: 5c66 8dcd ed98 bdbf 59c1 bef6 6473 cebf
00000370: 41dc e8d4 b717 dbbf fea2 200d 605a c83f
00000380: ddf0 39bd 4e87 b43f 37b4 baea 660e cebf
00000390: f29d 6326 ac42 bbbf 7050 a292 e9ec 57bf
000003a0: 5951 4e93 9c4b dbbf ea0c 333b 648e d63f
000003b0: c52e d903 51d1 893f 1ec3 da5c f805 cd3f
000003c0: ff94 8d38 908f d7bf e190 85ca 0cd3 ae3f
000003d0: 1be0 56b3 244c b53f 1648 50d8 4da1 d43f
000003e0: 5057 d729 4e4d cbbf bbed cd8d 7bd0 db3f
000003f0: fc9b fa14 bcfb dabf 2ecc 7775 15fe b9bf
00000400: 6719 3286 89d4 993f 97c1 13d0 8286 d7bf
00000410: 112c 1476 74ca d43f fbe8 9da2 ef3b d23f
00000420: d936 3635 6502 dc3f 0a39 3cfc 7d1a ba3f
00000430: 2e8b e071 b3e7 cc3f 8e39 7ef9 6587 db3f
00000440: 0def 1c4e 8e86 78bf 4993 d512 df31 af3f
00000450: a174 ef7b 583c d13f d2e5 bf4f 4ad5 b8bf
00000460: 9361 3bab ae15 d4bf ddfa c322 480d d5bf
00000470: 9c01 2902 6b54 c53f ae99 aecc b2ff c53f
00000480: cb73 ec7a 9e0c d0bf 07b5 6a11 a15a d63f
00000490: 8535 0f47 1b33 d9bf d80e 9fab ab94 c3bf
000004a0: ee78 df03 3a8e 933f f61b fad5 4a66 c53f
000004b0: d6de 4e55 4cc8 d0bf bf64 de14 2f04 a9bf
000004c0: 0810 4f7f a82b d73f 42e2 1c6b 7d4d d0bf
000004d0: c401 8ac2 3bf5 cc3f 183f 8b06 d2e5 d2bf
000004e0: bb72 9e59 7109 823f 911e dbbf 9356 dabf
000004f0: 47c6 91e1 d939 db3f 0b31 0603 301f c1bf
00000500: 706a aabb 89ab c7bf 3e77 cc94 6e57 d13f
00000510: 3ba4 45d0 8d0f d8bf d089 4f68 3655 d73f
00000520: 636f 0e66 c208 d9bf 19b4 8f23 1f88 c0bf
00000530: d5ee 70e2 d5a4 bd3f 8562 5c2f f8e1 cc3f
00000540: a1c8 6bd8 53ae bcbf 7a0a 513a 3e7e da3f
00000550: 7790 da68 04ea cb3f a3bc 89e7 44c1 923f
00000560: e170 d270 a6e7 acbf e4d9 1fea aa44 d8bf
00000570: a4b4 950c 35e0 a63f 7d29 c469 bacd d03f
00000580: 0c69 5f66 3ff9 ac3f 4b98 c0ae da72 d9bf
00000590: f6f9 eb12 09ec ba3f 5090 70f2 83c3 d23f
000005a0: 9e09 6204 67be b9bf 5922 485f 2c65 9dbf
000005b0: 837f 9e00 0c75 c2bf 11c2 4008 0192 d0bf
000005c0: 555d aa11 43e8 afbf 0e92 3b3c dde5 d1bf
000005d0: f00a 260e cdfd db3f f822 9b26 d926 c4bf
000005e0: 8a4f dfff b40c d03f 4d28 ada7 22e3 b43f
000005f0: 94d8 fa2c 3dbd db3f 825c e0c0 5320 ac3f
00000600: d2c9 8512 bbd5 bf3f d8a7 0270 914b c4bf
00000610: c910 e796 c4d2 c5bf 6e2c 4777 931b cf3f
00000620: 16d7 bbf9 6f64 c43f 37cf cac3 b517 d2bf
00000630: 025e 01a8 3ed5 a4bf 5391 527d 6ff4 dbbf
00000640: f2ee ce45 8a7d cebf 54c0 7305 9e68 d4bf
00000650: 3e3f a946 3a79 d4bf 6313 be66 e95b d3bf
00000660: cd21 0325 c79a d63f 0dda d3a4 2368 c93f
00000670: 0f5c 4fd9 c99d babf cbc8 d04e 4db6 ad3f
00000680: 76f5 3aaf c312 d03f 18a1 4c9d f3bc 65bf
00000690: b25e 2445 2e1c d43f 00e7 e548 f127 d5bf
000006a0: 28f2 e376 8afa ad3f babb 4014 ab6a d63f
000006b0: 4f97 1304 e525 d2bf 2676 9040 5c01 c6bf
000006c0: dae7 6219 08d2 cb3f dac1 caa7 defd aabf
000006d0: 0785 98da c56f c23f 23cb c569 49a9 da3f
000006e0: 31f7 4868 0ce6 d63f 1ed3 788a 14f0 c73f
000006f0: f7b3 547b e571 aabf b5a7 c592 e0e5 a03f
00000700: 6af9 5913 1e1c d7bf 8e1d 10e7 7982 d73f
00000710: 4739 5849 1a8a 853f 12b4 4638 5eac d43f
00000720: 99f8 0b17 0ce5 cb3f b757 37cb 16a2 c73f
00000730: 136f c8c4 f929 b43f 619c 68f9 4e7f c43f
00000740: 4d7e 52db 31de d8bf bc03 63ec 5ed1 c63f
00000750: cfe7 32e1 894d 973f 6eb4 5807 5370 d53f
00000760: 58fd 6a99 e98f d73f 3829 661c 05ac d93f
00000770: 8cc5 85a3 2f56 823f e066 8808 12a1 c83f
00000780: 270a ffc9 15a5 ad3f eec2 7f92 e286 99bf
00000790: de06 88c7 3420 ce3f f18e 816c 3f4e b33f
000007a0: 7af7 4a9d d9ba d0bf 6e29 4afd 0236 ccbf
000007b0: 1831 1de4 01b3 773f 4f3e 2353 a5e1 883f
000007c0: ea37 6d34 e286 ab3f 721e 23ba 576d d93f
000007d0: 36f5 769b 597f d6bf 3ea5 cd97 07e3 d7bf
000007e0: 9a8a b9b9 4919 a1bf 1df9 44ee 0941 ba3f
000007f0: 1a9f 286a 1802 d3bf 89e1 47dd 50a9 cd3f
0.23361601484121028 -0.40679373152538195 0.047305837340924695 0.41269618466850366 -0.3906897996414757 0.20004152043239018 0.29872215243693945 -0.13896429778533909
0.029458568842784312 0.005540620129441643 -0.12878103343185637 0.19429790285242474 0.2399523407521495 0.016394249879706994 0.18035914459731703 -0.29882908603579783
-0.4084481927639333 0.1475250944279793 -0.15917551633286034 0.043794924384224096 -0.06630598030620236 0.4000625714568245 0.3150868721414518 0.16507199305774778
-0.4084993942164618 0.18288871167380474 -0.34165138533283473 -0.15352367423206897 -0.3235580400061112 -0.18081561634886803 -0.328000177991109 0.23320237489342405
-0.17110101865362543 0.15172165547183136 -0.05121094174456684 0.27119895488716966 -0.3022095377407238 -0.2853594407029006 -0.3103172262226924 0.35614481554692357
-0.334198089382563 -0.09512907973375194 -0.05368949812043028 0.362504774126669 -0.42808353141355887 -0.16715839964408358 -0.202084823989013 -0.3143762015249768
-0.27332206205969356 0.10209998309224201 0.36132323118850035 -0.3880146898554298 -0.019481163956867373 0.07190669327804718 -0.09396125541042635 -0.21855861403023985
0.24582756687434862 -0.36435471316972273 0.4397162356551237 -0.3924300204262499 0.32597946904205266 0.4369611099413732 0.42275368557832105 0.16498865832545956
-0.04822859890675883 -0.10475137327859953 -0.3273201511261234 -0.10714110981407673 0.052624227338009075 0.33389071937187886 0.035753929712848305 0.19039684729543838
-0.044382621415043504 0.06777955957696252 0.21579460812318427 -0.21531344478448988 -0.005552366814463174 -0.40686426903310013 -0.03187141263753943 -0.3619591662988284
0.28952204776030294 -0.36839007016281405 0.1328432607401054 -0.4222667537690157 0.3762292459905961 0.31099776376602734 0.06527807587639545 -0.006517946664203256
0.18826807653494723 -0.301079704269887 -0.11035207758148317 0.16045144527692126 -0.3050321243997025 -0.0012071144404904263 0.2593540260558235 0.22760919548540462
-0.4149931606679577 -0.1978667934408439 -0.39763390781990576 0.4142302951170293 -0.15807050903529135 0.3761891329639398 0.43285186350377736 0.23239100222137518
0.2961698896924027 0.24537336320333855 -0.03870986587396344 0.3957790030732149 -0.11561476009719612 -0.23789655731298856 -0.4233226374812525 0.1902580322360094
0.08018962974341855 -0.23481451474563794 -0.10648609101519194 -0.0014602929100293836 -0.4264899672064267 0.3524408891791625 0.012606270723288468 0.2267446950331981
-0.3681374122882772 0.060203933450596166 0.08319310549165986 0.32234521984457964 -0.21329667132402585 0.4345997700508765 -0.42161466644978396 -0.10153326146955585
0.025224827590613865 -0.3675848991397514 0.3248568680871254 0.2849082077078859 0.437646200146316 0.10196673782431645 0.2258209520378726 0.43013905872876357
-0.005987697486314903 0.060927363442522316 0.26930820563377195 -0.0970045513821767 -0.3138233825862013 -0.3289356555468837 0.1666387329623945 0.17186579698791377
-0.25077020649206067 0.3492815656744174 -0.3937442964496188 -0.1529745662684181 0.019097239004502713 0.16718421409697698 -0.2622252305113596 -0.04886004571671653
0.3620396846056342 -0.2547296091102319 0.22623393057803132 -0.29527712477737245 0.008807073161557146 -0.4115342496483914 0.42540595081581895 -0.1337642683760197
-0.18492242492068867 0.2709614232170344 -0.37594933833185323 0.364575960031428 -0.3911596295017629 -0.12915410267251629 0.11579643991802453 0.22564604103606115
-0.1120350268718391 0.4139552659509388 0.21807913894474826 0.018315388328514214 -0.05645485045644861 -0.3791911398288035 0.04467931536314865 0.26255665138946666
0.0565891087023421 -0.39763514581352827 0.10516411506612386 0.2931833140921798 -0.10056156022077409 -0.028706258121049853 -0.14419698744040596 -0.2589113789172482
-0.06231889334338329 -0.27965479738330223 0.4373657835168805 -0.15743555436190326 0.2507755755188944 0.08159081071531311 0.43342522995534094 0.0549341366715277
0.12435502245151689 -0.15855615586525462 -0.17049462669650087 0.2430290539180961 0.15931510633497997 -0.28269714470228585 -0.04068942833754009 -0.43679415930298154
-0.23820618065462146 -0.31888533146321163 -0.31989914799213526 -0.30248484643407475 0.35319689383007075 0.1984905772039415 -0.10397016101283917 0.058031478758850584
0.25114528763136634 -0.002653575715516731 0.31422001602320926 -0.3305628978629187 0.05855210019396778 0.35026051500147626 -0.2835629024324264 -0.17191651489786003
0.21734715690200695 -0.05271812246553838 0.14403603719350874 0.4165824444709633 0.35779104408344425 0.18701416741682747 -0.051650210671461076 0.033003824154391216
-0.36109115495482647 0.3673386341547137 0.010517316211033146 0.3230205106327172 0.2179274666340845 0.1846340648905291 0.07876549772521128 0.16013514688640654
-0.3885616914576289 0.17826448957751306 0.02275672375683496 0.33498073308402965 0.36815872175426057 0.4011242654165872 0.008953449418842373 0.19241547981874074
0.05790012446188469 -0.024928608123391642 0.23535785429708417 0.07541271590303801 -0.26140442238453654 -0.22039830558453438 0.005785949122423049 0.012149135207805943
0.05376345529531064 0.3972987478013926 -0.35152282888505526 -0.37323179077664637 -0.033396057054024555 0.10255491320728934 -0.29700289122637147 0.23172961048818433

weight f8 [2, 512]
00000000: b6ec 8ada 4237 9ebf d070 fc91 e86a 90bf
00000010: 316b 8d71 53be 813f 5621 c174 cb6e a5bf
00000020: ef14 3125 e97d 9f3f 184a 24c3 5633 5c3f
00000030: b824 9634 44f9 9fbf 5d5a 2e08 9c83 a33f
00000040: 80d2 72c2 8a6a 9bbf 4f8c 7572 fd63 a13f
00000050: 4af6 205a 8783 9dbf 8f69 f036 0b08 86bf
00000060: 700a f643 1e74 a73f 3a48 0ac8 453b 883f
00000070: 565b 2576 7507 83bf 6c52 cfce ce48 64bf
00000080: e70f 5218 ba29 a13f af5b b7eb 3f49 8b3f
00000090: 293e 9f49 8c3f 91bf d6fc 902c 5714 a7bf
000000a0: 54ff 01a5 4948 a1bf 2d47 d11f 57ff 9a3f
000000b0: 93ad 4dec 64dd 923f 4d2d ccce 9d7d 703f
000000c0: 43b2 422c 2548 863f 4110 f01c 4d8a a33f
000000d0: db02 4bd9 61be a23f e80d 9f0e 6cf9 91bf
000000e0: a5dc 9398 e742 a33f 0d46 636e 9ce7 99bf
000000f0: fe3b a86c e0a5 963f 6156 5b93 963f 923f
00000100: 0a9b eb52 3374 90bf 97e2 f6f7 cabb 9abf
00000110: 61ed b18b 8ebd 963f 56a4 c7e2 8254 a5bf
00000120: 7005 dd4f ffcd 7f3f e91a 718c 99c0 a73f
00000130: e90c 99f0 f489 973f faf2 9d3b 6726 41bf
00000140: 72d3 419a b0eb 2ebf d336 4c95 c61c a23f
00000150: 2965 0393 3d92 9cbf 9263 a5fb 75e6 92bf
00000160: 2fbf 371a 9b07 9d3f 1bcd f17e d14d 5c3f
00000170: 77f4 cb35 bc33 93bf 7f52 0aed a448 843f
00000180: 4f92 2211 b5a4 993f a9ac 96e0 762f a7bf
00000190: fed8 bc31 7a42 a4bf 5fe2 cfa5 1b1a 9e3f
000001a0: 6646 e4d3 bee0 9c3f 04aa c4e4 9a16 963f
000001b0: bd86 82cb 26d8 a1bf e5a3 75d6 e25d a63f
000001c0: 628c 0e83 e884 a03f 62b1 822f 0c7e 85bf
000001d0: 8c0d 5641 5a7a 813f 1096 1580 33c3 88bf
000001e0: b060 1a10 ca43 6e3f 8a23 e11d 3f99 8abf
000001f0: 407a c047 5dc3 9d3f eeea a0a5 6b3c 60bf
00000200: 6743 3f6b a5b2 a53f 4b01 5c75 cc96 6b3f
00000210: ef0e 181a cad4 7ebf 9f97 0dc2 5249 94bf
00000220: ff72 fbb8 848d 9cbf ca70 9861 1315 a1bf
00000230: 1a7f 067b 07eb 9fbf 45a1 73c2 7a25 63bf
00000240: 0727 ca78 a734 a0bf 6f54 6a39 579f 92bf
00000250: 9527 ac68 2ae0 91bf dd82 06a2 c937 9fbf
00000260: 8b12 7a4d a071 953f 723b 55c5 3f4a a1bf
00000270: 80df 1bb2 797d 97bf c2bf a047 3022 9fbf
00000280: 71cd f03d 5917 a13f 43f4 8b54 5a40 a7bf
00000290: 7e20 6eb2 866f 9a3f dc94 0dc3 c0a0 90bf
000002a0: 3159 b411 5ad2 9cbf 61fe 9608 340e a3bf
000002b0: 6ef9 41ac 7c96 8c3f a10e c2bd 31dc 7d3f
000002c0: 5953 f839 98a8 9abf ba41 874b d5b4 903f
000002d0: f6de 84a5 c9b5 a6bf 9d73 9c46 1924 84bf
000002e0: 3755 f051 005a 913f 9c75 762c d8d5 88bf
000002f0: 2151 d548 93b3 8ebf d656 367c 232d 75bf
00000300: 9853 4b23 67c6 a03f 02db 16f8 160b 943f
00000310: a400 d4ff 0053 a23f a19b 7553 7fc8 403f
00000320: fb1d d4cd 7eea a0bf 3ec9 d5aa 013e 66bf
00000330: 1564 87a9 707a a8bf 0983 269e c3f0 923f
00000340: a2db b019 fb93 8a3f 47b3 9dd0 e067 a0bf
00000350: fb21 412b 701f 81bf 2ac6 c8f9 5e3c 94bf
00000360: cb48 9a42 f992 a23f 8e97 e434 7498 93bf
00000370: eab0 c83e 5e84 8abf b526 5123 47cc 9c3f
00000380: 3ac5 b370 8e02 92bf 52a3 745a 8b3c a2bf
00000390: 10a1 375d af2f 98bf 0e41 cb38 118d a2bf
000003a0: 017f b18d 33c6 98bf a0ce ec10 a486 8cbf
000003b0: 0de9 c94c 6a71 a73f ff32 c151 5c7f 913f
000003c0: efc9 67bd 7d5f 85bf 698b aa1d b919 a3bf
000003d0: 22ee 10cb e328 803f 15bc 8a10 60ae 9d3f
000003e0: 5012 6a7e 3a6c a2bf a0af 0a05 95e3 63bf
000003f0: a068 b03f 2af1 9cbf ddc2 fa26 3532 97bf
00000400: a7b0 b977 beb6 a03f 2dbd 6fe8 ebcb 97bf
00000410: e6a8 6cde 191f 8fbf f5c4 5b00 1818 9ebf
00000420: d62b e8c4 0ed8 9e3f 241e 19a0 4fb7 a2bf
00000430: df82 1c09 dc2d 963f 4f63 0009 9163 7ebf
00000440: ccc3 c352 eaa2 82bf c2e7 2dee 1c77 a93f
00000450: fc2b b711 df86 9d3f e1dc a1c3 cf2f 993f
00000460: 5030 0723 ec58 92bf 0858 1919 d6cd a6bf
00000470: ba2b 8a57 a94e 513f faa3 a49c 5b03 90bf
00000480: 9879 6de1 3cf4 99bf b6db 1d1e e211 953f
00000490: 3b45 9e02 e551 98bf 63fd ce50 027c 9bbf
000004a0: f0d8 8a6c 1c16 9abf ac84 a9a3 2f83 a0bf
000004b0: 918b 2e12 b41f 6b3f f28e cf1c 86d5 a13f
000004c0: f964 fefd 574a a3bf b109 4d58 5818 4cbf
000004d0: aa8f a572 3081 7bbf e3db fd6a 415f 8fbf
000004e0: de81 865d de48 a6bf 8983 80f0 3992 a73f
000004f0: 854d 531c 97c0 a0bf 1abc 2088 a9e2 9abf
00000500: a1fc 079f b808 9c3f c886 223c 279e 97bf
00000510: 486c c51c 878f 8abf 3ce6 e1e1 2611 91bf
00000520: 1486 5e88 f2f9 95bf 718f e430 4a63 523f
00000530: 5bbe 2677 28a2 9c3f ec2b c6ab 6166 7b3f
00000540: 4d3a d90c 5748 98bf 20fb 0986 c616 a2bf
00000550: f5b8 cf6b cca3 a1bf 8aec d431 0d27 98bf
00000560: 558b 10bd 43af 99bf 2c4d 50cd f233 a53f
00000570: 4cae 4b86 39a4 a1bf f24c e5ca 75fa 933f
00000580: b2b1 74e2 3d37 9bbf d73e 983c d9d2 88bf
00000590: 146d 9146 f67f 99bf 52fe ef59 4282 7cbf
000005a0: 93af a476 7c2f a23f 622e 96b0 5549 85bf
000005b0: 4fd0 21a0 3f8c a3bf bf03 798c cbef 94bf
000005c0: dec6 0f54 586f 5c3f 8538 22d6 d066 a3bf
000005d0: d4cc fd53 d78a 8e3f 2f17 4038 f749 a43f
000005e0: 99c5 ab78 a324 9fbf 549e bceb 095b a1bf
000005f0: dfb5 1f86 f407 94bf 160f dc1d 16ce 9bbf
00000600: e702 5d9f 36d6 803f 5844 b231 2a29 a43f
00000610: 3995 e24c 0dcd a2bf 42bd f917 8d3c 853f
00000620: 60ae 586f 61eb a2bf a2b4 e054 7d7e 6fbf
00000630: b4b4 369e c9fa 7cbf 1e21 9e52 6126 a43f
00000640: 639c 0bfd b2b6 92bf 1054 0631 bb26 90bf
00000650: b15e f862 98b2 89bf acc6 4289 defc 98bf
00000660: 125d 3d4c 5ee0 993f 0027 e486 f653 6b3f
00000670: b405 a4b4 ddee 8d3f 8bc8 6e42 793d 4f3f
00000680: e84d 9817 d067 a03f dd63 fcda 9197 8dbf
00000690: ba00 e16b 8255 a2bf 5509 d80d 6cb3 a0bf
000006a0: e57d a5d4 d38c a5bf fb4e 5f47 24cd 8b3f
000006b0: 44e9 11b4 15ac 993f 9f71 5580 b78e 753f
000006c0: afe0 b9d0 b1af a3bf 2638 310f b943 953f
000006d0: ef25 f4a5 4e53 a2bf c828 9c1b da16 903f
000006e0: fff4 0a1b eef0 7dbf f6d0 bf00 e908 9e3f
000006f0: 1d7c f652 afa0 65bf 11d0 f014 68f8 a33f
00000700: 75e8 57d0 93a9 f3be 1124 3f37 751d 903f
00000710: d66a b0f2 f7e9 703f 510d 9e3e 0089 903f
00000720: fc41 ba6f a786 98bf 5c08 5b43 98a8 95bf
00000730: c6ee e5eb 24ee 7dbf ec9c 8334 350a 913f
00000740: 986e 8fbd fb74 9d3f b295 2983 a9b0 a73f
00000750: 3053 ef17 3853 8b3f b553 77a1 a6e0 a23f
00000760: 7a4d d41e e7d8 a33f 8e0a 0f19 dcbb a83f
00000770: ad0b f104 17bc 793f 6444 7f09 3097 983f
00000780: 7e89 d797 e5fa 963f 22d4 90d4 d3be 873f
00000790: 2df3 2f27 0256 9fbf ba4a 1192 064e 98bf
000007a0: 4056 8d45 2b83 6c3f 7348 511e 0403 923f
000007b0: 5785 44eb 6c07 833f 9aa4 8569 27d5 923f
000007c0: 0914 cb2a 4de5 a13f 6580 7d84 71af 8cbf
000007d0: d6cb 4d56 0f15 82bf 752e 9fae f442 8dbf
000007e0: eb30 d04e 3f94 91bf 1cbe 68cd 8c68 a1bf
000007f0: 7298 e21b 4aba 303f d8ba 889e 15ce 60bf
-0.029507679547106057 -0.01603282347706242 0.008663799193234208 -0.04186092186188499 0.030753748793604648 0.0017212245261971678 -0.031224313459038838 0.0381134757982877
-0.02677361308879478 0.0339659883709592 -0.028822054744742233 -0.01075752984438763 0.04580778674700958 0.01183180348133216 -0.009291570346858496 -0.0024761237350310796
0.033521476239030616 0.013323306447018483 -0.016843978875668384 -0.045077060880879635 -0.033754636185220704 0.026364671055780043 0.018422676966492423 0.004026047169428293
0.010879793561195622 0.0381645295929336 0.03660875108244507 -0.01755303229562158 0.03761981713790278 -0.025297588574920527 0.022117144233614987 0.01782069467920733
-0.016068269668632097 -0.026106997856660454 0.022207476879413494 -0.041660394843184775 0.007764813721054295 0.046391294854904626 0.022987200913360182 -0.0005233768526831932
-0.00023590594094327237 0.0353757912872489 -0.0279016133289122 -0.018457263454681412 0.028349326586918962 0.0017275377138304463 -0.01875204161023133 0.009904182895561718
0.025042370959129475 -0.045283999362561396 -0.039569681712622526 0.029396469111789943 0.028201085741847008 0.021570606434730535 -0.03485223039866756 0.043685043982641315
0.03226400947394194 -0.010494322967439632 0.008534150236988912 -0.012091066690753244 0.0036944338360847748 -0.012987607097004323 0.029065568451296153 -0.0019819357376297175
0.04237858709496472 0.0033678048447428935 -0.007527150593435768 -0.019810956090985262 -0.02788360003511325 -0.033363919890889784 -0.031170002826569655 -0.0023372075698839
-0.031651719565230656 -0.018185961608271514 -0.017456686629010305 -0.03048625041413088 0.02094126198655259 -0.033769600714200446 -0.02293958806600882 -0.030403856632062583
0.03338126069175019 -0.045412848301545704 0.025816063538087956 -0.01623822393903117 -0.02814617856082541 -0.037217737244188205 0.013958906180275146 0.007290071775176849
-0.026033762491425836 0.01631482385147518 -0.04435567994590699 -0.009834477870350794 0.016944890023372152 -0.012126625878233814 -0.014990950260348303 -0.005170000661925042
0.03276369386518424 0.019573553936164785 0.03578951952840839 0.0005121823987054194 -0.03303905737453402 -0.002715113884442704 -0.047809143728677984 0.018496567275749807
0.012977563592455447 -0.03204252764303433 -0.008360744781513487 -0.01976154708444803 0.036277570133408675 -0.01913625309784766 -0.012947784701360782 0.02812300828035204
-0.01758787691955386 -0.03561816672510666 -0.023619403900654368 -0.036232507880074136 -0.024193578265452768 -0.013928682104597911 0.045787164567587 0.017087404718313156
-0.01043604120511518 -0.037305626746522 0.007890491137110326 0.02898550129856055 -0.035981967860639785 -0.0024278555432228482 -0.028263721596979097 -0.02265246439373213
0.03264422618380652 -0.02323883634738626 -0.015196039295535656 -0.02938878538310959 0.03012106968712288 -0.036554802220561095 0.02165931516276742 -0.007419172805406784
-0.009099798823145287 0.049736885141967516 0.028834805923718662 0.02459644919914872 -0.017917337072319406 -0.04453915649780532 0.0010563520174027134 -0.01563780921529554
-0.025345755824099564 0.02057603176896424 -0.023749902996830868 -0.02684024446693679 -0.025474971890354803 -0.032250870445531404 0.003311015797821289 0.034832182900371836
-0.03767657256612184 -0.0008573943492609562 -0.006715001344080132 -0.015318404271722435 -0.043524693409611834 0.04603749333205715 -0.032719347198191286 -0.02625527280195792
0.02737701864861875 -0.02306424431356538 -0.012969070020224419 -0.016666991745728263 -0.02146128613788363 0.0011223053475725964 0.027962333938999922 0.006689435508074642
-0.023713455352032665 -0.0353300131437122 -0.03445280853326153 -0.023586469809043588 -0.025082643904294006 0.04141196018476942 -0.03445606006956989 0.019510117062350348
-0.026577918001906738 -0.01212091175241829 -0.02490219884599039 -0.006960162339055014 0.03551854084284325 -0.010393781138893835 -0.03817938642251361 -0.020445995758794796
0.0017355310994812616 -0.03789379705368482 0.014913255930628123 0.039626813522814046 -0.030413202514812807 -0.03389769556661962 -0.019561596571227354 -0.02715334470032279
0.008221079576857316 0.039376562658738734 -0.03672067225969972 0.010369398397613087 -0.0369520615025436 -0.0038444946176442044 -0.007075107164763828 0.039355317435424406
-0.018275067038214476 -0.01577274786685129 -0.01254767467530313 -0.024402119758355198 0.02526995983438691 0.00333593511380037 0.014615757060257951 0.0009533731543938257
0.03204202926658778 -0.014449252601069712 -0.03580863539582553 -0.03261888188355281 -0.04209005327970398 0.013574870517835338 0.02507051383552407 0.005263058473556375
-0.03844981835294569 0.02076615481592383 -0.03579183364679383 0.015712173400097368 -0.007309846973553079 0.029330864592297133 -0.0026400970743476596 0.03900456672309372
-1.875153704664801e-05 0.01573737287234073 0.004129379794018026 0.01614761717020247 -0.023951164430913593 -0.021150950537738175 -0.007307190155525672 0.016640502290923218
0.02876656860813273 0.046269700299301234 0.013342321615633063 0.0368702003576468 0.03876421214422528 0.04830825620549205 0.006282892150070757 0.024014235095652828
0.022441470520683897 0.011594443249217493 -0.03060153354816746 -0.02373514429593613 0.0034805150175241384 0.017589630461153093 0.009291506700324232 0.018391242805055975
0.03495255610827292 -0.014006506782323134 -0.008829231091771843 -0.014287864283594612 -0.017167081056002436 -0.03400077826915668 0.0002552443437572389 -0.002051393723625377

bias f8 [2]
00000000: e7d3 2888 c099 9d3f eb7e 52c4 5b58 7fbf
0.028906830130114882 -0.007652624573125637
