CS224WFINALPROJECT/saved_models/trained_vae.pth (torch, 80635 bytes, 12 tensors)

adj_A f4 [4, 4]
-1.1321951 -1.1304872 -0.26381877 -0.41891712 0.8511942 0.7257347 -0.36373073 -2.0751069
0.3537841 -1.3074142 0.39829132 0.32571483 0.15791972 1.1747549 1.153669 -0.21703635
00000000: c5eb 90bf ceb3 90bf 4113 87be 4e7c d6be
00000010: dde7 593f c0c9 393f ea3a babe 8dce 04c0
00000020: 3123 b53e 5959 a7bf d7ec cb3e 18c4 a63e
00000030: b5b5 213e 5e5e 963f 6dab 933f c73e 5ebe

weight f8 [512, 5]
0.06628069289575456 -0.17764165063601464 -0.036856447645218685 -0.2909080363764317 -0.12998119747096123 0.10074672589510929 -0.025934261760335253 -0.05648988200675188
-0.08977601573787332 -0.26302042755379407 0.13693658678059262 0.2857537380455531 -0.25579666124017053 0.16156806807225432 -0.32782007662792517 0.015492028033374156
-0.25065005433113285 0.042624022544431046 0.0845536143729466 0.16008355371836347 0.21243566349322027 -0.24205682488762859 0.2610625122210336 0.11573259536477418
-0.27337882078004766 -0.2993931618880299 -0.029431605456293388 0.3648748882924863 0.077670614272762 -0.0317593704082753 0.2635446276726127 -0.1275110688266685
-0.21840998192546868 -0.39533426854217363 0.20428552287421162 -0.12753467384229983 0.03035171720757847 -0.01251860653969346 0.3164552010651427 -0.43320999969621393
0.4386449147839677 0.3384349198529371 0.2370988094598662 -0.2201931988457032 -0.2809822460187227 0.43496233053759226 0.23082203600773857 -0.13205540421040882
0.07142345819074883 0.2013511761815753 -0.45239125582246675 0.05042570961633967 0.05887408301284027 -0.36946937068638247 -0.32555101199699754 0.4418593810220201
0.0793042722065163 -0.3234880293960362 -0.0913964530675318 0.31664082070003635 -0.3230675542189003 0.28438389868000086 0.2711056672072862 0.25559930289645466
-0.08162727623981447 0.19446856829699616 -0.43325033146094033 -0.22190759751736222 -0.2793574586445866 -0.302963231885767 -0.014777915949392598 -0.29490801784437487
-0.24112050198248422 -0.06448477716127508 -0.09001916918556689 -0.27781638535496045 -0.08796262493029287 0.014315613509277953 0.10374814020681078 -0.11382645108716542
0.02944987507922951 -0.2810953153645211 -0.06636638732987639 0.3208072385341882 0.36852161213496776 -0.42423794017401223 0.20114860320242184 -0.2955455001688914
-0.29001523801207585 -0.26043413489417555 0.14746704845443614 0.11278321432369323 -0.28211328896877125 0.40613114647927434 0.16187185795538148 0.05414591081569742
-0.05595135851333413 0.4161060647230636 0.0033381964767159648 0.41670322795500847 0.31852791148615506 -0.2211002427543029 0.18835691244935063 -0.04330165668759995
0.03085351935684281 -0.32736362328145796 0.1701902100858695 -0.4121535546600032 0.0002805737706462073 -0.015716566275396374 0.2689396850726225 -0.15995453946646554
-0.16782867553406744 0.19210100879763753 -0.37133810941731876 0.3484126681022129 -0.3822155959826155 0.3506236330570743 -0.16906280326128292 0.1164003125110225
-0.4164491360658799 -0.3687496149963447 0.16937694907196632 -0.34124100979335753 -0.031902460253152715 0.33788616342276606 -0.2053886434551433 -0.3392274019942023
-0.26826460890063497 0.23753433934216936 0.014425300171260065 0.049731164579074436 -0.31807905994685987 0.22690830407527332 0.14235091879493791 0.12795307167414008
-0.3749319376478201 0.0512011690509549 -0.2088682169860067 -0.3537051905992862 0.22994048721802318 0.1064526380116259 -0.3997427514171074 0.4020777097249545
0.24176282451309153 0.14392038624909725 0.05636526907730554 0.19775862772726 -0.0989272149591141 0.011247306143552325 0.3688206976704775 0.13968682103950894
-0.15097382004813556 0.3234761525235103 0.24407163565409037 -0.13310705144509624 0.34507899744694154 0.1371030403150567 0.4316431364856946 -0.22001837627055454
-0.4186046488616664 0.0005778053211414343 -0.3818347714273606 -0.18710764477390054 0.07376405191041993 0.37961965636218725 -0.014281323592338897 0.0802346184823718
-0.19595995645804115 0.18102316790504738 0.1403597972970615 -0.2609200090646894 -0.1863257652050482 0.2546706391219453 -0.30032102462539034 -0.265344003490298
-0.20169773314920356 -0.09959127384888276 0.44325013624273846 -0.3062278693569483 -0.17576057994071717 0.32410775460680114 0.058896809245736724 0.22867974797803742
-0.15724041651826492 -0.37523899989749837 0.09356244350058984 -0.037058505624629444 0.20910794887823578 0.36275567962342864 0.2982670733946603 0.15317066612412664
0.045066799091421104 -0.341808428205815 0.11331832235911007 0.2903199891462429 0.024038482182067965 0.21248175408431502 -0.08819412757813712 -0.29564003352781937
0.3678647792010135 -0.09218259045461714 -0.2557473668224464 -0.2654936639314982 0.43870729537502295 -0.1795730317437657 -0.1889812584519112 -0.2979896338762827
-0.09832917074710824 -0.15499104013044562 0.3281385409483453 0.45558410503493724 -0.3155441259329752 -0.27441307998539216 -0.23883521142781045 -0.08565796865743676
-0.28372330036434645 -0.17281560691415326 0.42494313308946646 -0.11721381859540358 -0.2442797166072401 0.2850262327402777 -0.38700295409786195 0.31592831746847244
-0.15525721603279646 0.044736796060079 0.34995187844811654 0.21968709290677696 -0.17764796613631492 -0.09750618591189225 0.08425311152723804 0.27816762634862213
-0.2730140986161358 0.19635146186852692 0.14552440396686966 -0.020312852755929877 -0.3314426070436755 -0.3361240616370008 0.42780979631488836 -0.1008597456802342
0.12982053192678245 0.037966839490228554 -0.17871554145865554 -0.43565909663140734 -0.10044278807600635 -0.21459426707308502 0.2831182987212148 0.3041117176095844
0.34513456634531614 -0.44460215126562586 -0.41892805776258873 -0.15523818983976384 -0.2539916880430781 -0.08745564268747852 0.13835245932743268 0.1450989843890824
00000000: a8ee 5780 c5f7 b03f 5bcf f12b f6bc c6bf
00000010: e2de 902a d9de a2bf b257 98bd 3c9e d2bf
00000020: ffc8 1d50 39a3 c0bf bb08 e694 89ca b93f
00000030: b019 6dd8 828e 9abf 623c 8ce7 3dec acbf
00000040: 6131 8f9b 8ffb b6bf be80 a1a1 53d5 d0bf
00000050: 049c ec58 2387 c13f bd62 e70b ca49 d23f
00000060: 24f6 9cf5 f85e d0bf bc5f 3930 43ae c43f
00000070: adb4 050f 01fb d4bf 9036 04ce 48ba 8f3f
00000080: 12f1 8586 a60a d0bf 6960 b4dd d0d2 a53f
00000090: ef8a 7d40 4ea5 b53f b485 ec2d 9e7d c43f
000000a0: 778d 9a81 1731 cb3f 4c3e 55d1 b7fb cebf
000000b0: 32dc 0c8a 3fb5 d03f 9643 2cc0 a6a0 bd3f
000000c0: a1d6 aae1 097f d1bf b820 bdef 4129 d3bf
000000d0: 973d 9d9b 5123 9ebf b343 1634 1c5a d73f
000000e0: 0868 29ac 38e2 b33f c67c 7da2 c342 a0bf
000000f0: cbfb 3849 eadd d03f af88 3e5f 4852 c0bf
00000100: 0cb3 beb8 dbf4 cbbf 231c 981a 284d d9bf
00000110: 733f e52b 0726 ca3f 3a1d a162 0e53 c0bf
00000120: 44ce 2243 8514 9f3f a990 6fed 5aa3 89bf
00000130: 4054 ce50 cd40 d43f c7b4 3f6f b6b9 dbbf
00000140: 4072 e31e c212 dc3f 8def 25f0 eaa8 d53f
00000150: 0d7c 46f8 4059 ce3f 9405 ec6d 4a2f ccbf
00000160: f20c 5af5 9cfb d1bf 5ca8 293e 6cd6 db3f
00000170: 35b8 ec93 938b cd3f 8b00 2c05 31e7 c0bf
00000180: 8ab3 18c9 ce48 b23f 0d02 5b16 e0c5 c93f
00000190: 503f 3074 faf3 dcbf 060b 5c0b 66d1 a93f
000001a0: e388 3e6a be24 ae3f 8f30 fedb 62a5 d7bf
000001b0: 583c 6de9 d3d5 d4bf 7fe7 ba91 6c47 dc3f
000001c0: b360 8fe7 484d b43f 53d2 b922 07b4 d4bf
000001d0: 143c e508 c265 b7bf 6f0e 5fdc d743 d43f
000001e0: 6435 f188 23ad d4bf b3bb 1586 5833 d23f
000001f0: 6f98 9a95 cb59 d13f df85 b42d bd5b d03f
00000200: 105c e971 86e5 b4bf cebf 7796 58e4 c83f
00000210: 0bc7 2699 5fba dbbf 9416 09d9 7767 ccbf
00000220: 446b 311b fee0 d1bf d6bf 35e5 bf63 d3bf
00000230: 823a a54d e243 8ebf c910 fee0 c5df d2bf
00000240: b776 345f 09dd cebf bf5d ff08 1382 b0bf
00000250: 0b44 aa0b 7f0b b7bf 881e 5960 bec7 d1bf
00000260: 5b8e 58f5 b784 b6bf 1d96 c11e 8151 8d3f
00000270: f085 35f5 3c8f ba3f 83d0 d6f4 ba23 bdbf
00000280: 6ba7 58a9 1b28 9e3f c529 a334 77fd d1bf
00000290: 55af 2237 63fd b0bf 1fc3 7415 1b88 d43f
000002a0: dd49 ffab db95 d73f 3144 b1e3 b626 dbbf
000002b0: 56fb 31c8 3cbf c93f 7924 6dac 37ea d2bf
000002c0: 1aa0 a612 9c8f d2bf 7a7b 08ef f3aa d0bf
000002d0: ccba 2c43 33e0 c23f 7ada 0e59 5cdf bc3f
000002e0: ddd2 78e5 240e d2bf 71fd 007e 0dfe d93f
000002f0: cfd2 0790 37b8 c43f 60c3 5448 03b9 ab3f
00000300: 948c f60d a8a5 acbf c3c7 e954 7ba1 da3f
00000310: 0b67 3e96 b458 6b3f cc14 0d04 44ab da3f
00000320: d98e ace4 c262 d43f e639 e243 034d ccbf
00000330: 0506 794d 141c c83f 09f6 ab7e a22b a6bf
00000340: 6ba4 6aa2 1098 9f3f 1636 f98d 86f3 d4bf
00000350: e286 35f5 cac8 c53f 9f78 8c4d b960 dabf
00000360: 1b43 462b 3f63 323f b40a a2e8 0018 90bf
00000370: e5f0 fecb 4e36 d13f 8c77 eded 6379 c4bf
00000380: f0f9 5ff8 687b c5bf 4640 280f c496 c83f
00000390: b52c edea 00c4 d7bf f9b5 c0a5 644c d63f
000003a0: 0d0e 3167 3876 d8bf 65d4 4b1b 9e70 d63f
000003b0: ea17 7d95 d9a3 c5bf 23a1 7a2f 69cc bd3f
000003c0: 176d f646 1aa7 dabf df99 34fc 9799 d7bf
000003d0: d8ec 7ad4 24ae c53f 8374 4788 e4d6 d5bf
000003e0: 9401 e6ee 8455 a0bf fffc 6a49 ed9f d53f
000003f0: d808 4ed1 2c4a cabf 9c37 5ed9 e6b5 d5bf
00000400: dec1 7952 3f2b d1bf 1767 9375 8667 ce3f
00000410: 31ad c303 038b 8d3f 8e11 ebfa 5c76 a93f
00000420: 6fe8 0046 685b d4bf 01d9 98d0 540b cd3f
00000430: d1d0 630e 8e38 c23f bdaf 2129 c460 c03f
00000440: 5317 9b86 e2fe d7bf c87f 2e25 0a37 aa3f
00000450: 3d7a 9098 31bc cabf 0e29 8318 1ba3 d6bf
00000460: fc58 509c b06e cd3f 4b36 d5e6 7a40 bb3f
00000470: f791 099f 6295 d9bf 5e08 6e25 a4bb d93f
00000480: 6d0e 5690 15f2 ce3f a272 15b4 fb6b c23f
00000490: df70 a296 e8db ac3f e692 4b9b 2750 c93f
000004a0: b30a ef40 4b53 b9bf 12f0 6fe0 d308 873f
000004b0: 6349 a520 c29a d73f ad00 06fc 41e1 c13f
000004c0: dd57 d431 1c53 c3bf ebf5 0752 d5b3 d43f
000004d0: 67fd 8146 bd3d cf3f 476e 69e0 a609 c1bf
000004e0: 998c 2438 c615 d63f 5cec 2aa9 978c c13f
000004f0: 59ee af88 0aa0 db3f 58ef 4ce9 8f29 ccbf
00000500: 781f 3427 6bca dabf 07ca 977a fbee 423f
00000510: bf64 f01b fb6f d8bf ad57 91af 24f3 c7bf
00000520: 1261 936e 33e2 b23f 79a3 3f3e b04b d83f
00000530: 7777 2ece 863f 8dbf f989 6386 418a b43f
00000540: 260c 2842 3715 c9bf 3139 fc64 c42b c73f
00000550: 6433 8851 4ff7 c13f e682 73d6 e9b2 d0bf
00000560: 0d9b facd 85d9 c7bf 5cee 9114 864c d03f
00000570: 064e c4ac 7538 d3bf f78d 4b6a 65fb d0bf
00000580: 17ce c637 3bd1 c9bf d7de 2550 d07e b9bf
00000590: fa0b c7d1 355e dc3f 35c2 00c7 3c99 d3bf
000005a0: 61bc 629b 527f c6bf 17a3 9a73 2ebe d43f
000005b0: 632f 19fb b827 ae3f 625e 69c3 6045 cd3f
000005c0: 3c16 4737 7420 c4bf 8d95 2f70 ea03 d8bf
000005d0: 9808 f852 b5f3 b73f 9390 641b 55f9 a2bf
000005e0: 3b01 e29c 0cc4 ca3f b1ef 1a99 6337 d73f
000005f0: 6209 6dc7 ce16 d33f 1bd6 daac 189b c33f
00000600: 2353 77d8 fe12 a73f 6d08 2975 30e0 d5bf
00000610: 1ee9 91f8 6d02 bd3f 2886 b04a 9a94 d23f
00000620: 6614 453b 8b9d 983f f4f8 6424 9a32 cb3f
00000630: c5b8 a5ed e393 b6bf 21fb d82c c4eb d2bf
00000640: f930 01b7 188b d73f 4d5d 433b 4799 b7bf
00000650: ed97 2234 2a5e d0bf 4c62 f822 d9fd d0bf
00000660: debf 89c3 c713 dc3f 2ca1 4ac5 3ffc c6bf
00000670: 15cf 4db2 8930 c8bf e5eb 021d 4312 d3bf
00000680: 6904 9abc 192c b9bf c442 4414 bfd6 c3bf
00000690: 098a 7bcb 3800 d53f 81f5 ec3b 4a28 dd3f
000006a0: 20ee 54fd df31 d4bf e970 08e1 fb8f d1bf
000006b0: c69b 1bf7 2692 cebf 1d86 063e aeed b5bf
000006c0: 3865 0bc6 8528 d2bf 96a3 f761 d21e c6bf
000006d0: b1db d1ae 4432 db3f 48ac 818d b901 bebf
000006e0: 47be f3c8 8e44 cfbf ecc7 07ab de3d d23f
000006f0: b190 d309 a8c4 d8bf c112 da67 2b38 d43f
00000700: 5618 aaec 77df c3bf 3500 03c8 bde7 a63f
00000710: 7bf0 4690 9c65 d63f 62a7 b1e7 b41e cc3f
00000720: 53d1 6026 2bbd c6bf c436 a657 2af6 b8bf
00000730: a181 98a6 9c91 b53f 384a 7e96 7fcd d13f
00000740: 64ce 3920 1079 d1bf 70a1 9f71 0b22 c93f
00000750: 5e5f e72d 8ba0 c23f 63c9 1979 e4cc 94bf
00000760: 6b3a 700d 5b36 d5bf 7a4b 087f 0e83 d5bf
00000770: ec2c 0557 3c61 db3f 9cf2 2dbd f1d1 b9bf
00000780: 08c8 7c8d f59d c03f 98d2 e2bb 6370 a33f
00000790: ac09 ed9e 26e0 c6bf b427 0fb1 d6e1 dbbf
000007a0: 3ecf e759 9eb6 b9bf 7376 7e2f d377 cbbf
000007b0: 9f08 7a36 9c1e d23f d7aa 5dfe 9076 d33f
000007c0: 8e06 cb4a af16 d63f e6b1 da94 5c74 dcbf
000007d0: 41e5 dda0 b7cf dabf f6db 3952 d8de c3bf
000007e0: 6774 665a 6641 d0bf 7881 3135 7e63 b6bf
000007f0: 8cf5 108c 88b5 c13f 6724 5180 9a92 c23f

bias f8 [512]
0.4168657109445846 0.05845627111900878 0.058497918068481015 -0.07831665516039552 0.2966058988003061 -0.3044590630225816 0.011258373305126182 -0.21912789373664152
0.12509664029983233 0.1637420753435058 -0.145155950209033 -0.12280662179248936 -0.0979601518593694 0.1064227387606149 -0.3377656156319252 0.380082249536704
0.4114046203503962 0.27777317932433165 -0.17274677980285744 -0.3687204536392346 -0.23312645564818957 0.053878908306361585 -0.042987025615576234 -0.35171701778109044
-0.22105048612301584 -0.23078962069792902 0.1424868835736654 0.41568942355117683 -0.39485907841613466 -0.2890814306692907 -0.18149325863771693 -0.29633818533741346
0.36220902160041524 0.3659588104320039 -0.308392302973989 0.2599387715165293 0.4342651733293412 0.37541369013717313 -0.0723540424045029 0.20636499237951866
-0.02752172505839686 -0.15478458612601548 0.05744493994612799 -0.21932125638138134 -0.19672518890191065 -0.3626390079324716 -0.34000588463328124 0.225699207094253
0.3003494337734762 0.12015173790452922 0.2558231474368596 -0.38640034029129267 -0.10503276937560105 -0.1682847613503958 -0.05063923395132096 0.19802032690851462
-0.3569153938695397 0.15900833047638754 -0.25772130283286826 -0.26115708801565823 0.28445053409934623 0.16948238870468935 -0.01990046757019438 -0.3104354145283709
0.270343170652463 -0.015581834114163256 -0.1511204713309573 0.42115289644375714 0.3649052377264526 0.11467690946045334 0.19032214300025496 -0.04779551009602462
0.17542235595543526 -0.27910978420958904 0.14970994462649367 -0.19044372201117749 0.1220419213436267 -0.43933466258891096 -0.3777510116010839 0.33992184908018014
-0.36403295577130435 -0.3323517487768112 -0.17206232025886853 0.1364149914890681 0.31778258490944883 -0.38804373955060034 0.40920404767520774 0.08831469364137402
-0.3359501634044619 0.3081618016722904 0.21579106757087557 -0.15758160323601497 0.43287874065422843 -0.3912102973258489 -0.4473996537640158 0.2992555402104107
-0.13271751198012743 -0.43354600812993804 0.22253759829618636 0.10465444848939118 0.2825681831341449 0.20037338763963297 0.3958870251748447 0.2184846806509008
-0.23713934888779425 0.27787150039158376 -0.3432195930700071 0.02674132297307378 0.10911698243348002 -0.09912653708369355 -0.44983466004819483 -0.017171452163312322
-0.23106401611499844 0.10824119216463857 0.015729882425625324 0.1778838660520359 -0.3883408652208407 0.42379538189116694 -0.04487388948542755 -0.03682996717511964
-0.1542087364710902 -0.4261102933566557 0.1118457860397199 -0.07820771098791834 0.13900711151070716 -0.2371864726741115 -0.29005873695392803 -0.34476908302838644
-0.11978986095143578 0.0958034269459828 -0.2991082314550898 0.4052851531364808 0.17660627680585672 -0.3808605491806515 -0.22630967645972228 0.11832568984638005
0.2531683118663487 0.3308242496436389 -0.3349479250730917 0.021178339512472204 -0.3938004029764147 -0.28367361961825494 0.3728526724142118 -0.2085244866894424
-0.0035630983465522437 0.3619344244709818 0.11326865726406009 0.2052539289747203 -0.14494134930122982 -0.22447958757643385 -0.12932699182327034 0.3792319586484497
-0.21668932403824778 0.41418817092703036 0.14840549257140137 -0.4288108729934845 -0.3184978020354431 0.4140561802931677 -0.025341812239033024 0.23176695315828408
0.4025001428351419 -0.2969150990587292 -0.11791943087674014 -0.07729448026208588 0.3192085373731846 0.25231178919314495 -0.21314274148563755 0.36499520878212277
-0.11150368824328509 -0.24360233541068474 0.4187763570487364 -0.19553633978230797 -0.0032982763215245476 -0.2429015845065765 -0.2971313943431729 -0.12464077323645087
0.1286376451974393 0.029675460391131173 -0.11503036385011936 0.27150799089050337 0.08201994014891281 0.39859766248035566 -0.254290339323902 -0.029313784756433748
0.13288797703700245 0.02984830478378891 -0.3268046950170456 0.2954451700564222 0.1203056007523253 -0.08928566055134257 0.4365348089232093 -0.1889733790739624
-0.05377665067449949 -0.3013804034033277 -0.4009439880102308 -0.14809222700658944 -0.422871854221456 0.2618622052534159 -0.2567171595332735 -0.17743867527916787
-0.18045751475870467 0.3655837877761275 0.14456267281378596 -0.44043941531573794 0.12839440088578383 0.27683166160137956 -0.08364255043167028 0.034816032320240685
-0.17263555464416924 0.29313067997591447 -0.06785385870230085 0.22380088379702817 -0.45759136184192434 -0.2671822192375135 0.4386148958164855 -0.39445387517721664
-0.10779776840862239 0.41327539866361174 -0.39077686334555445 -0.19726498489559327 -0.294771032155412 0.3433665489273428 0.03657260199965516 0.04863726647693919
0.35858813702580233 -0.2840720746669766 -0.3856464926053003 0.36648766937725513 -0.37874525068169473 -0.08773870341521042 -0.32081095659725384 -0.12107285367944494
0.003646677440556264 -0.16545343372344057 -0.14684100910802295 0.034929632523707024 0.24104202253718063 -0.24834861119557466 0.2652899394870835 0.22112070497518177
-0.3752238860007663 -0.04732458493169784 0.4053767500491846 -0.018281043878439873 -0.11872909561953505 0.031055976365312727 0.1175830959164536 0.17855885886440803
-0.4151161174649731 -0.2347597402183339 0.10819254797803493 0.3842662563891629 0.2951504803001114 0.0841530434052794 -0.4431745847896408 0.4264558583338524
00000000: 802b d584 edad da3f 948d 67f9 faed ad3f
00000010: 1df7 f969 70f3 ad3f ce60 a570 8f0c b4bf
00000020: d678 c94e 97fb d23f 53c7 a9dd 417c d3bf
00000030: 1ba2 3649 a10e 873f 23c0 9e00 620c ccbf
00000040: 4fb0 76ad 2a03 c03f e32d 4a15 80f5 c43f
00000050: 5ada 7b5d 7894 c2bf 48bb 5438 4170 bfbf
00000060: 5414 8ca0 ea13 b9bf 4e10 8746 853e bb3f
00000070: 228e 36ac f39d d5bf 6037 e37f 4453 d83f
00000080: 0302 750b 7454 da3f 48da 3928 09c7 d13f
00000090: 0f0d df04 911c c6bf 85cb 6fac 1d99 d7bf
000000a0: f8b1 6b73 16d7 cdbf 6571 3d2a 0496 ab3f
000000b0: 63a9 573a 6502 a6bf 7440 3418 8882 d6bf
000000c0: 89e5 54e0 614b ccbf 5ab1 93a8 838a cdbf
000000d0: b667 879c 023d c23f 6181 dccf a79a da3f
000000e0: 26dd 1403 5f45 d9bf 6ec0 a666 4f80 d2bf
000000f0: 3890 25cd 2b3b c7bf a121 a56f 34f7 d2bf
00000100: 98c1 85bf 6e2e d73f eb43 9f80 de6b d73f
00000110: 4821 e711 b3bc d3bf e70e a83a d6a2 d03f
00000120: 5471 4f27 00cb db3f 8f07 6724 c706 d83f
00000130: 4559 dc65 cb85 b2bf dc97 a706 2b6a ca3f
00000140: 56a5 38b4 a72e 9cbf 5e06 ab37 fbcf c3bf
00000150: d152 c754 6c69 ad3f 90e2 bc0b b812 ccbf
00000160: 5a0a 517e 4a2e c9bf f6b9 d43d 7a35 d7bf
00000170: b5a3 bc0a a8c2 d5bf 32fa 992c b6e3 cc3f
00000180: fc77 dbd4 ec38 d33f 3586 dba8 43c2 be3f
00000190: 3145 f30c 685f d03f 4ab8 2d7e c8ba d8bf
000001a0: 02fd 7975 6de3 babf 7b22 35e5 5a8a c5bf
000001b0: 0e4b 6ebb 62ed a9bf 52f5 01e6 ba58 c93f
000001c0: d3f3 06aa b3d7 d6bf bd04 988d 625a c43f
000001d0: 6194 c97d 817e d0bf 8955 0938 ccb6 d0bf
000001e0: c954 5203 7034 d23f 6407 5e52 99b1 c53f
000001f0: 836e 8ec5 c960 94bf 03da 3a80 2cde d3bf
00000200: bb8d 2971 4d4d d13f 43cb 745f 5ee9 8fbf
00000210: 48b0 0f65 ea57 c3bf f7dc 3547 2bf4 da3f
00000220: 6926 8b7f 9b5a d73f 1c2f bd47 775b bd3f
00000230: 7403 f2d9 795c c83f e820 8431 a778 a8bf
00000240: 466e e860 3d74 c63f 931f cb48 efdc d1bf
00000250: f443 070a b229 c33f 6a1d e2ba 7560 c8bf
00000260: 0971 e9ac 233e bf3f 6863 f421 0f1e dcbf
00000270: 75e2 3694 122d d8bf b5b1 3f92 47c1 d53f
00000280: ca0d ede1 504c d7bf aef2 f044 4045 d5bf
00000290: 3a5f 315b 2306 c6bf e498 90e3 0b76 c13f
000002a0: cb29 5bc4 8c56 d43f 4664 b268 b5d5 d8bf
000002b0: 51f9 892c 6630 da3f 792a f2b0 ca9b b63f
000002c0: ff1c 3a1d 3580 d5bf 6fc5 0347 ecb8 d33f
000002d0: e62f feac 0a9f cb3f 93ca 2c4c a22b c4bf
000002e0: c396 8f08 49b4 db3f 88de 37ea 9609 d9bf
000002f0: 7a1f 4a28 32a2 dcbf 086f 96b5 0027 d33f
00000300: 4ad3 c72e e3fc c0bf 0caf 8ec1 37bf dbbf
00000310: 3000 68ad 1c7c cc3f ee91 a449 a2ca ba3f
00000320: f4e1 5cdc 9815 d23f 7852 73cd d5a5 c93f
00000330: 1359 8288 3656 d93f b54b 0957 4ef7 cb3f
00000340: 02ae 080a 955a cebf 0507 ab8b a5c8 d13f
00000350: 4541 e54f 4ff7 d5bf 4a08 7cce 1362 9b3f
00000360: d970 fd2e 17ef bb3f 9fb0 f052 5b60 b9bf
00000370: e0e9 6050 17ca dcbf eb71 dda5 6495 91bf
00000380: ea87 3f74 8193 cdbf 485b 6ddc b1b5 bb3f
00000390: fb18 5a8a 7e1b 903f 21fb 9605 e6c4 c63f
000003a0: 09ba f4a4 93da d8bf f2c6 5aaa 761f db3f
000003b0: 8b86 91df b5f9 a6bf 0d4e 0fa1 60db a2bf
000003c0: e74d f3a3 1cbd c3bf dd2b 9d1b 6445 dbbf
000003d0: 2c6b 3ce9 eca1 bc3f 08f6 fca8 6b05 b4bf
000003e0: eec9 ec2a fcca c13f 172e 9857 205c cebf
000003f0: 4cb7 4885 5290 d2bf 53d8 1158 b210 d6bf
00000400: 1bc6 2d5f 8caa bebf 8be5 93c9 9286 b83f
00000410: ba18 04da 9624 d3bf 65a2 9123 31f0 d93f
00000420: 1822 93d3 089b c63f e251 c4ec 0460 d8bf
00000430: 36d8 9429 b7f7 ccbf 21b6 2aa8 974a be3f
00000440: 265e f6dc e833 d03f e05c 3c79 392c d53f
00000450: c253 036c c96f d5bf ebcd 5b4e c6af 953f
00000460: 52dc fb9a 0634 d9bf f3e4 bf65 b527 d2bf
00000470: 08b2 8f74 d1dc d73f 2688 5f2d eeb0 cabf
00000480: 3b32 dedb 5b30 6dbf 9290 1901 ef29 d73f
00000490: 9768 9cba 2cff bc3f 0535 29c0 c245 ca3f
000004a0: 5c1f 8b29 708d c2bf 3153 a143 bfbb ccbf
000004b0: 1c7d 2f70 c98d c0bf 368f ff1e 5645 d83f
000004c0: cb7c 11cc 79bc cbbf c562 211a 0f82 da3f
000004d0: 510a 9280 f3fe c23f 4847 eb28 a371 dbbf
000004e0: 5ec4 e59a 4462 d4bf a436 447e e57f da3f
000004f0: 8dee 263b 34f3 99bf dbdf 0d1e 8aaa cd3f
00000500: 522f 87f5 8fc2 d93f 7b55 0930 a800 d3bf
00000510: 3eb4 2dc3 f72f bebf e210 e330 92c9 b3bf
00000520: edcb 27a5 e96d d43f 1bb5 be58 e025 d03f
00000530: 9ac1 07e8 4248 cbbf 429e 3add 145c d73f
00000540: eb66 6376 818b bcbf f3b7 e87f 5c2e cfbf
00000550: 9c30 7759 3bcd da3f 07b4 45b4 5507 c9bf
00000560: c44d e49d fc04 6bbf 0819 cd2c 6617 cfbf
00000570: 5667 5465 3304 d3bf 2a78 cc2c 75e8 bfbf
00000580: 6e27 94c7 3277 c03f 919e 7e6f 3e63 9e3f
00000590: a282 c842 a172 bdbf 5c8d 5e0d 6360 d13f
000005a0: a238 8f40 42ff b43f 025f 27c5 9f82 d93f
000005b0: 086f c5fc 4a46 d0bf 7d49 67cb 6e04 9ebf
000005c0: 3ae8 b325 7902 c13f 2fb6 8cd3 8d90 9e3f
000005d0: fdc1 513d 5eea d4bf cfd2 c9db 92e8 d23f
000005e0: 3ec2 c10c 59cc be3f b0dc 11d0 6cdb b6bf
000005f0: c002 f9b1 2ff0 db3f c4f8 7799 4730 c8bf
00000600: a8eb def7 9c88 abbf f271 1108 d149 d3bf
00000610: 5008 02f9 10a9 d9bf 797e e4a3 aff4 c2bf
00000620: 10ec 111c 5510 dbbf 91cc e7b1 59c2 d03f
00000630: 7b1d 21cf 0d6e d0bf b74e af7d 4fb6 c6bf
00000640: a160 1a5a 3b19 c7bf b98f 1c8b b965 d73f
00000650: 4b91 fa97 0781 c23f 12a1 29cd 2830 dcbf
00000660: 51a0 654c 3a6f c03f 21d1 4425 9cb7 d13f
00000670: 4376 a822 9969 b5bf 6342 6230 68d3 a13f
00000680: 5c69 a9fe eb18 c6bf d2d9 fc2e a7c2 d23f
00000690: 46a6 08d8 de5e b1bf 5eb0 5ce2 81a5 cc3f
000006a0: 41c3 8247 2d49 ddbf 20a9 6c73 8319 d1bf
000006b0: 047f 4436 4412 dc3f c4a9 6a77 bb3e d9bf
000006c0: ad95 e571 a298 bbbf cc19 60a8 1a73 da3f
000006d0: 4991 06f6 7c02 d9bf 83e1 62a1 fa3f c9bf
000006e0: 289a ba51 87dd d2bf 89bb 8bb0 b7f9 d53f
000006f0: 0e4a 09e3 a4b9 a23f db44 c5d9 fbe6 a83f
00000700: cf99 50a8 1bf3 d63f beb2 99a3 3c2e d2bf
00000710: c5a3 63a0 6eae d8bf 5f34 97b2 8874 d73f
00000720: 665d 4cb8 5c3d d8bf 8203 c32d 0b76 b6bf
00000730: d327 b2ad 2a88 d4bf 6d92 fc6a a1fe bebf
00000740: 2b7b 140b a3df 6d3f c031 6dff 932d c5bf
00000750: fe50 eaa9 afcb c2bf 6a84 b3fa 4be2 a13f
00000760: 2b23 e109 77da ce3f 12c7 8b25 e3c9 cfbf
00000770: 8b82 83a7 82fa d03f 901e 2bea ae4d cc3f
00000780: e248 c30b ab03 d8bf 3926 2891 ed3a a8bf
00000790: ea47 0153 b1f1 d93f 60e9 6016 44b8 92bf
000007a0: e101 c5ae 0765 bebf 5564 564b 23cd 9f3f
000007b0: 9c0a 86ff ec19 be3f 48ea 9d45 04db c63f
000007c0: d07d 2331 4391 dabf 98dd 536f 9b0c cebf
000007d0: ea8f 3cbf 81b2 bb3f a675 097f d197 d83f
000007e0: 3269 12d7 bee3 d23f d8d7 48c9 0d8b b53f
000007f0: b2c0 05ef f85c dcbf fbd0 2e83 0d4b db3f

weight f8 [2, 512]
0.017610131408308104 0.00039443081212726635 -0.018805162625728917 0.024173178958888195 -0.01698392666882975 -0.00627985041665635 -0.008821559228280672 -0.0003167776512491848
-0.045181654381758016 0.014073341685931537 0.024963604036892115 0.0055088639364444855 0.0015936300572700355 -0.008628855332441641 0.024245728525443478 0.032817163569055514
0.0335796733338306 0.006942221509230902 -0.031162178088284958 -0.020747879177328794 -0.03914684136459778 0.02392080050552831 0.02431614776032072 0.013078893511521611
-0.019507980625166385 -0.004851303526311656 -0.029371866018806723 -0.038211981102917805 -0.007216287498766777 -0.026244014406662495 0.022158028419867196 -0.00047470476704977206
-0.029696528503817154 -0.008245881120199626 0.009006974653410374 -0.013617425387231607 0.006281930196377499 0.023644818612004903 -0.030155936733041802 0.022155417057761063
-0.030734296733672454 0.020968838719112568 -0.006584868207261869 0.016975505473185232 -0.03042564273920454 -0.012188935866728524 -0.022241949313148157 -0.001674057097160427
-0.004554568235518315 0.04513201379082448 0.027850365142758154 0.01117596656188863 0.006564906188035056 0.00030987593347674364 -0.0008090691490323601 0.03363107816507549
0.007027178403680747 -0.031043576882953734 -0.04354772156834079 0.031835281740364776 -0.026928527609528796 0.030234617377332143 -0.04307888345869082 -0.00038121312942421476
-0.007246366534748863 -0.045177520962187044 -0.024908591577002617 0.021887727252004406 0.027626248344797218 0.030133296706360727 -0.013648770358522423 -0.01711676593727206
-0.04049795587726245 -0.007634327905989385 0.030085425284154494 0.026789747090142434 0.016616394700978258 -0.004996890434931836 0.01906430601014501 -0.03883200607393697
0.03437939459771149 -0.013630800744561345 -0.0312010468760591 0.008870710313822992 0.001895840355056137 0.011254792902791569 0.025270132792327905 0.013047253298461252
-0.01874622623542866 0.031053822418067343 -0.025219871368606876 -0.03205210105513523 0.034858665304452814 0.02573175316640075 0.02675509845142027 -0.002820987860806679
-0.03751308781231945 -0.00236258251684129 -0.020180700460373003 -0.03016633180876541 0.007130904112840829 -0.0020677345853481275 0.009889708968070178 0.02365413830780697
0.006096509733762679 -0.04236168673527295 -0.03713957288922512 0.015313201433766306 -0.025659769030091227 -0.029224824471985687 -0.040313840353835215 0.010717287127491187
0.030538117378902913 0.025983080612127413 -0.02414195550199083 0.004551298966006914 -0.011346397833058863 0.009455667510679265 -0.028862800868059924 0.004393476381984056
-0.030529916850282415 0.03457583499332553 0.028532943785301655 0.023905490294108458 0.020431188223254383 -0.03350578910246615 0.02871075811122653 -0.007997010778117942
-0.019345828147740815 -0.0014645777303039366 -0.0020972617977525424 -0.04482171689774902 -0.017495141531575067 -0.025113059652070474 -0.028474478170783923 -0.02174642707553704
0.03545052210428282 -0.032674078459053256 -0.033843497917140614 0.015465610200098423 0.027025682513046635 0.017789458056646 -0.014787786782927874 0.006694541165775046
0.033797796478588306 0.03974745634264336 0.0014170009741688045 0.01582222287855652 -0.035609781243097036 -0.013153996406311166 0.01206356081016283 -0.010072936336063267
0.000572838360132939 0.016795110753961145 -0.03834635638345846 -0.023946707568727476 -0.029365661131282292 -0.04339670090945104 -0.02195176690855823 -0.03482206988732799
-0.00441515863616535 -0.0241707574442714 -0.0035187903505981043 0.03572392792142394 0.013824571731712235 0.03777424925141295 -0.03197758718276448 0.005738520326389435
-0.04350361144407322 0.030027207512300376 -0.039406987179031024 0.017871311451146583 0.029131976233587417 0.037264594408666585 0.013708177317995979 -0.03261816123087553
-0.003859888613209858 0.02923524385592953 0.004980580118976219 0.03456701614448622 0.01452384571237884 -0.01058709844118555 -0.019105912074475855 0.003277068210465062
-0.022896353233103742 -0.00864973527699265 -0.009035982905008257 -0.035158412672910935 -0.04235662608413168 0.04487790913063657 0.00669038644089893 -0.031194660823034764
0.03417519438491431 0.02933445645096978 0.04180232286369419 -0.010403393462926236 -0.001876591243894258 0.03788245720401026 -0.02088020549888253 -0.01870225796270304
0.008731868763405135 0.00943680446772459 0.02163927579654837 -0.013666693969581714 -0.007428512056066434 0.033212843813256135 0.00444603433167552 0.0007336130434805845
0.010988539323357088 0.038033208708077866 -0.004986599649495438 -0.03657296013774001 -0.01933345451173194 -0.0015151869609569026 0.03975461497552303 0.06048103453377765
-0.0386685507074072 -0.015411062256109232 0.046126578897032484 0.030197841100267696 -0.03307663082870541 0.00671353592980398 0.0004296324845951968 0.019824540403352568
0.03996969260253236 0.0076907969880602375 0.03803489232974332 0.007789912402380627 0.029031272871744153 -0.018200427900273156 0.007557737404934253 -0.009638449779504418
-0.0018537620860178715 -0.024192505944075987 -0.02010716761011156 -0.012663476022237196 0.022223906699557528 0.017933242490010277 0.03304501672368919 -0.025490503870512514
0.020181633184243954 0.0339336714671786 0.002234227103281013 0.03360233363351595 0.03170807914048031 -0.012789513862998802 0.03220937311877893 0.017841494095654994
0.026553844517004536 -0.02455508623275019 0.005797768644683885 -0.04329358098378665 -0.010107328808229865 0.01888723997949542 -0.018619453692718963 -0.022670413152443388
00000000: 7664 e8e9 6308 923f c87c 4970 73d9 393f
00000010: 95d4 e419 a941 93bf 4c6e 4694 dac0 983f
00000020: 5fb1 6606 3c64 91bf feeb 9c82 e6b8 79bf
00000030: ccdf 14a3 0911 82bf 13d2 f7a6 a5c2 34bf
00000040: 7ecc e5bf 0c22 a7bf 78c5 4af2 7bd2 8c3f
00000050: fc08 b71b 0f90 993f 264e 1f67 7690 763f
00000060: 04df 953e 2b1c 5a3f 0c55 a35b 01ac 81bf
00000070: 5d80 564c dfd3 983f 619b 8d48 69cd a03f
00000080: cfee 8edd 5a31 a13f bcef 7f65 726f 7c3f
00000090: 4b95 0b5f fae8 9fbf 82a8 1c9a ee3e 95bf
000000a0: cf27 ce06 0e0b a4bf 5127 76bf b17e 983f
000000b0: 94c4 940d 55e6 983f 90e5 325f 1bc9 8a3f
000000c0: 8c32 2f6b e6f9 93bf 59ce d0df f5de 73bf
000000d0: 86a0 e48f a813 9ebf a207 4e52 8590 a3bf
000000e0: 6d4c e46c d38e 7dbf c995 5efe b5df 9abf
000000f0: b1f0 a01d 98b0 963f a0c5 2173 391c 3fbf
00000100: 101d ea4a c468 9ebf 3958 e76d 37e3 80bf
00000110: 3b11 94ac 3f72 823f e610 8de5 73e3 8bbf
00000120: 2cb5 fccb 14bb 793f 1037 a2ea 5836 983f
00000130: d4d3 31a8 32e1 9ebf aaf0 c4de e8af 963f
00000140: 61c3 58bd cf78 9fbf d97e 22f2 da78 953f
00000150: 611c 9419 bcf8 7abf b591 5ce3 0662 913f
00000160: 5a41 1952 e627 9fbf ba78 5d47 83f6 88bf
00000170: e0d7 98f3 97c6 96bf 88e2 f81e 816d 5bbf
00000180: c839 e799 cfa7 72bf a7ea 7716 8b1b a73f
00000190: 7814 e15d ce84 9c3f 6175 13d7 6ce3 863f
000001a0: f10c 1096 cde3 7a3f 288f 0600 db4e 343f
000001b0: cf98 84c4 f682 4abf c049 b2b9 1738 a13f
000001c0: 9cda d4d6 87c8 7c3f 7243 da2d e3c9 9fbf
000001d0: b615 e70f e34b a6bf b21c decb b64c a03f
000001e0: 8041 a6e5 2693 9bbf a4f0 5ed3 d2f5 9e3f
000001f0: 20e0 3477 6f0e a6bf 267a 76ec b1fb 38bf
00000200: 0355 81b4 5dae 7dbf 8b09 180e 8221 a7bf
00000210: 37c0 d948 a381 99bf 86ac ec82 bc69 963f
00000220: 62ba 9b24 0e4a 9c3f b178 7f4f 43db 9e3f
00000230: 8751 90f2 e2f3 8bbf 9dcd a7b7 0e87 91bf
00000240: 3f6b 18e8 25bc a4bf f93d ee4a 2c45 7fbf
00000250: 450e bab6 b6ce 9e3f d328 7b7e c56e 9b3f
00000260: b1c3 455f e303 913f 36e2 fe8f 9e77 74bf
00000270: 8b89 56eb 9785 933f ec52 40e8 c9e1 a3bf
00000280: 972a e80e 2d9a a13f fa57 541b 77ea 8bbf
00000290: 490b bccf 2af3 9fbf 6c72 8595 ce2a 823f
000002a0: 12a3 b214 bb0f 5f3f 1ba4 86bb c00c 873f
000002b0: ba6e a2e7 69e0 993f 4993 c1b1 84b8 8a3f
000002c0: e217 6bf2 3532 93bf 6939 cebe 92cc 9f3f
000002d0: 7131 f3ea 3cd3 99bf 908b 990b 2269 a0bf
000002e0: d1fe edb6 fed8 a13f 0014 46b9 6c59 9a3f
000002f0: 5183 6643 b065 9b3f 4eb3 5853 0a1c 67bf
00000300: d2da a65a ea34 a3bf f71c 9bd4 b15a 63bf
00000310: dd60 f3e1 3faa 94bf a958 3c42 ece3 9ebf
00000320: b2fc 497f 4b35 7d3f d4d5 778d 5af0 60bf
00000330: c1b5 ad44 0e41 843f 69d2 c959 ca38 983f
00000340: 34f2 d15e a7f8 783f 1e46 4356 6eb0 a5bf
00000350: b4ac e445 f503 a3bf a437 d71a 875c 8f3f
00000360: f686 3af3 8d46 9abf b9a4 5ac5 1ced 9dbf
00000370: beb1 ca03 04a4 a4bf f61f b7ed f1f2 853f
00000380: e8f7 b15d 6245 9f3f a5e6 e905 4f9b 9a3f
00000390: 40c2 5e35 abb8 98bf 76c0 6903 62a4 723f
000003a0: a690 f6bc c73c 87bf 3901 c335 7e5d 833f
000003b0: e075 32c7 358e 9dbf 789c 05d6 e4fe 713f
000003c0: 07ae af09 3c43 9fbf 9473 0e81 ecb3 a13f
000003d0: f678 aa71 bd37 9d3f f73b 084c ae7a 983f
000003e0: 3afe f2d4 e9eb 943f 9ff1 d7b8 ab27 a1bf
000003f0: 103b 865c 5a66 9d3f e7ec 0f9e bc60 80bf
00000400: cc96 d58c 64cf 93bf be0f 105d e2fe 57bf
00000410: 74d1 a3da 462e 61bf 0beb 7340 dff2 a6bf
00000420: e436 de12 3fea 91bf 68ef a1e7 3cb7 99bf
00000430: f385 0ee2 6928 9dbf 128b 6004 b244 96bf
00000440: 34c7 2022 9226 a23f 5330 d124 a8ba a0bf
00000450: 9404 7959 ef53 a1bf 4d46 2d10 6fac 8f3f
00000460: 8ab5 2eda 9eac 9b3f 8076 4452 6637 923f
00000470: 2936 e724 0f49 8ebf f150 e635 bc6b 7b3f
00000480: 45d4 1add f14d a13f b682 2e52 c759 a43f
00000490: 08c9 ea35 5537 573f 05f2 4067 b333 903f
000004a0: 96b0 b6fb 713b a2bf e8b3 0383 7bf0 8abf
000004b0: 5241 39b9 c7b4 883f a1ca 1aa1 1ea1 84bf
000004c0: d7b1 e602 51c5 423f 6810 afcd bc32 913f
000004d0: f8e8 2c35 22a2 a3bf d311 6b57 7c85 98bf
000004e0: ccb2 bc28 0812 9ebf 121e 52a6 1738 a6bf
000004f0: b5c0 d823 867a 96bf f7b0 b0c6 32d4 a1bf
00000500: e607 2f1f a115 72bf d484 f812 38c0 98bf
00000510: 0a09 462f 70d3 6cbf eadf 361c 684a a23f
00000520: f553 c09b 0e50 8c3f f3df 547a 2557 a33f
00000530: 3557 4fc6 5d5f a0bf 7a81 1152 4681 773f
00000540: e003 d2f8 1a46 a6bf 22ab 05c9 73bf 9e3f
00000550: c1ed 5512 272d a4bf 7591 e068 db4c 923f
00000560: 9cb1 c3d4 c5d4 9d3f f05e 914c 5814 a33f
00000570: b003 266a 0813 8c3f 390a 7cdf 53b3 a0bf
00000580: 139f 84eb c59e 6fbf 74d8 0101 d8ef 9d3f
00000590: 3326 9e4b 8466 743f 42c4 b897 c4b2 a13f
000005a0: f647 c692 adbe 8d3f 00f1 834c b0ae 85bf
000005b0: bb9b 140e 8090 93bf 4e7c 4d99 82d8 6a3f
000005c0: 51db 5541 2472 97bf c4e6 11d1 f3b6 81bf
000005d0: ae88 8318 7581 82bf 7a06 3891 4800 a2bf
000005e0: dcb9 9987 c4af a5bf bbd1 0ec0 3cfa a63f
000005f0: 0a55 61ef 6067 7b3f 18d2 2d40 7ef1 9fbf
00000600: cb6f 6f3c 697f a13f e351 690c da09 9e3f
00000610: 4a5b 3133 1d67 a53f a087 86d5 5f4e 85bf
00000620: aaa3 4f81 febe 5ebf 6c12 9155 5465 a33f
00000630: b07e 01df 9e61 95bf 13a2 3e49 af26 93bf
00000640: b89f 2c96 03e2 813f 597e 8a74 9a53 833f
00000650: a8d3 6b37 9b28 963f 687d 269d 48fd 8bbf
00000660: 0782 6b05 5c6d 7ebf da5d f81b 4601 a13f
00000670: 4eb2 d240 0136 723f 5e2a cc03 fe09 483f
00000680: 8370 32c8 2881 863f 7953 20b7 1679 a33f
00000690: 80f1 9a26 d46c 74bf 3d44 6be7 b0b9 a2bf
000006a0: 1ae9 622b 26cc 93bf 90e8 749c 27d3 58bf
000006b0: e2b0 5e86 b75a a43f e49e b3c2 5ef7 ae3f
000006c0: 8614 5841 5dcc a3bf 87c6 17c3 d58f 8fbf
000006d0: e9a0 ad27 e79d a73f c3e7 bdcf 2eec 9e3f
000006e0: a5a1 578f 6bef a0bf a4fb 2414 a77f 7b3f
000006f0: 0593 7b78 0928 3c3f 7e34 c362 e24c 943f
00000700: c03b 1e55 e876 a43f 38ca b398 6280 7f3f
00000710: 9e85 5335 4f79 a33f 3262 1cb0 50e8 7f3f
00000720: 8a7b 2ebe 5fba 9d3f 7165 6b0a 22a3 92bf
00000730: f671 c6af dcf4 7e3f ab66 b2d4 52bd 83bf
00000740: 8f3e 2de2 3d5f 5ebf c834 5a97 ebc5 98bf
00000750: a2d5 332d f996 94bf 5319 f4fa 4eef 89bf
00000760: fd16 db21 ddc1 963f c2f8 0588 175d 923f
00000770: 4e7f 3fc4 46eb a03f 96fd edc1 2e1a 9abf
00000780: 4758 067a 7eaa 943f 4c96 5e12 c15f a13f
00000790: deca e48a 834d 623f 31eb 0c38 5334 a13f
000007a0: aacc da95 0a3c a03f 99c1 2f7e 6331 8abf
000007b0: 42f2 5638 bf7d a03f 2f47 9c66 0a45 923f
000007c0: ee68 2257 ee30 9b3f 0ace 47f1 f724 99bf
000007d0: b1c2 7fab 66bf 773f 7e78 e784 932a a6bf
000007e0: 8d3b 73b5 26b3 84bf 2d34 1838 2d57 933f
000007f0: d5ec b762 fa10 93bf cf63 4eac e936 97bf

bias f8 [2]
-0.02624716555959999 -0.01232021657234217
00000000: 8fc4 c376 89e0 9abf 0112 107a 573b 89bf

weight f8 [2, 512]
-0.026656854348158107 0.02446887471425759 0.03829538155867535 0.022337996366002397 -0.010213936839185077 -0.00036903825138283986 -0.004903392337954806 -0.013239038555304306
0.009699534658071409 -0.002026242479442334 0.00948651438018005 0.01906068868795324 -0.03030162998064507 -0.021311799561493833 -0.004665878653859776 0.017261561148677416
0.034931521584368345 0.028672627235236912 0.0057226529024991405 0.0274743464597984 -0.008304263463254791 0.0291335773194194 0.010976973908079909 -0.026627199298513177
-0.009289578703723352 -0.02141879718849058 -0.02353263957170015 -0.0007798010059285134 0.022549504801948582 0.008816835625697248 -0.021688635131008042 0.011386990061567582
0.026024659834989073 0.014380300162455631 -0.023982242986458645 0.035537663806783505 -0.002833148535381227 -0.003365196181508325 0.014697177731514065 0.03836031489083426
-0.016473559468521352 0.019769916788192267 0.0397654070148416 0.003650547077776131 0.028301807983526623 0.007734071445524633 0.0801160424584332 0.0524420550415568
0.03318344858857108 -0.02194755451178441 -0.03865548197702375 0.0023167698159305915 -0.035107125308606595 0.011219800684055712 -0.03169570874921771 -0.030402004308013618
-0.04442151055822379 -0.0078021144924023495 0.029372980566961852 0.01210502738149874 -0.030439615031621355 0.0459998591385189 -0.02559569380601313 -0.04886001379426753
0.02190819404515853 0.008764294690243575 -0.05200845121399504 -0.010237073669195454 0.009625142356014117 -0.017877399992624193 -0.01863955288882293 -0.009681332164646209
0.04350908731510125 -0.014888122225078234 -0.03492099541917038 -0.025616850961057955 0.023098386032609296 0.010397924744113054 0.038020518323342876 -0.013236611331819489
-0.03596924289751263 0.031198637660863 -0.0006364376705693933 -0.012305674944148732 -0.015283248868393468 0.016089416337560537 0.05581998584671481 0.030277486002041446
0.013296347653646404 0.015534848702896705 -0.014400525317621458 0.014319322180378308 0.0062856539224929635 -0.047087674153729685 -0.06302133696582435 -0.021444296746934884
-0.01751282640292787 -0.03822090837158937 0.047403297019002186 -0.02424376688397495 -0.02200613901374064 0.015059613752755083 0.02565564865069287 0.03156647092893848
0.01622641002652149 -0.03660835691412074 0.02342392607757901 0.01499399398580521 -0.01371862332850683 -0.023706926941367727 0.012464011171793412 0.02338705068680722
0.008799571794465362 -0.01964503372524285 -0.011168652603921995 -0.02432215442130974 -0.028781737877321724 -0.02841609975125012 -0.033803358295690644 0.04933572992193237
0.03521280478072088 -0.028114163365264302 0.04092789519687538 -0.027486027167350612 0.02658777517722021 0.022461745679658227 -0.030031809269147246 0.0433755571097247
-0.010238562266373126 0.016872254595234226 -0.025468197254564274 -0.017579766213770668 0.0019877497827102187 -0.005126983883726497 -0.02437030581164815 -0.018023369333971938
0.032262590346809984 -0.02870888435124334 0.010933806194924282 0.0385436905504927 0.02394115646336984 0.032623261268014264 0.016288487333519633 -0.04025280674318404
5.925556751043676e-05 0.010397226815739787 0.0055266301963376955 -0.020525279327190987 -0.00954350965640119 -0.01871401360829684 0.008662301858781096 -0.027292133022262122
0.029371834930460746 0.009899239888857207 0.027961096645847235 -0.020051176794212585 0.01877038522777352 0.044980948853393425 0.011978858389867153 -0.02105492009899449
-0.0024439297795041423 0.008829102395330841 -0.02020765803974614 -0.017123619223066856 -0.0344725084641576 -0.039873599833536215 0.031490011516465376 -0.04057584019428532
-0.038423602439076075 0.042751336497127944 0.028679095608903762 -0.02726446535164134 -0.0032858018733919825 0.021621325329358208 0.02463680745428415 -0.03981040764311462
0.004709924720812587 -0.01815693951867713 0.0015976099864275445 -0.022390377414070253 -0.010431014643073007 0.02943744071612998 -0.01269072932317457 -0.017394332079760596
-0.04081938937255395 0.0054735912676319035 0.06056133873658444 -0.03374869754766454 -0.02454855337384924 -0.002842300272841769 0.03919192739270398 -0.03893180888866145
-0.029973640888944345 -0.025463769459320523 0.005594343895822418 0.020011657643414362 0.00016623627745530165 0.024112486474932703 0.05099918554678016 -0.014851662018657622
-0.015865438491769013 -0.001416981469644554 -0.03280879008641132 -0.052629888133054664 0.052170948019764025 0.032428167934102074 0.006454647463451635 -0.03340764106699948
0.01491579784420112 0.005675380959423346 -0.03650704260461289 -0.031181653623990942 -0.04248678427552968 0.009841083695232582 0.045995773899661245 -0.01810516253038762
-0.03897152648511985 0.04032651472916774 -0.0371499593594359 -0.029090679705331458 -0.03178510282181796 -0.018777677041091175 0.01780726380471627 -0.04813436301013835
-0.014147857558066464 -0.006218488249755598 -0.011736039378652587 -0.04748265696343742 0.004210259474186804 0.02141537565912166 -0.0369991116012291 0.02781897294277453
-0.02206097807911873 0.06439309061497661 -0.01961216310186098 -0.010159960777427616 0.041156121553364296 0.018991774489291412 -0.004032764288311161 -0.012979119057791885
0.030428861466434122 0.015093359189168615 -0.02032341852272097 -0.04163880882310894 -0.04858981064562996 0.02939795503728417 0.024485761658623262 0.008929623713081454
0.013475586161948475 0.03680309653567294 0.03771747793539004 -0.02275970850781564 0.046454439518856784 -0.030635201332044167 0.010739787923228971 0.021049723379859896
00000000: 9cec 8e36 ef4b 9bbf 75ae ab62 5e0e 993f
00000010: a9c3 c3c6 739b a33f f98c 668f c5df 963f
00000020: d96d 8065 0beb 84bf 7953 7d38 6f2f 38bf
00000030: 9c10 b25b 9415 74bf 0d0e 01ad 111d 8bbf
00000040: ce86 2481 59dd 833f 88e5 daa5 5699 60bf
00000050: dd93 2068 aa6d 833f cf4a 372a a584 933f
00000060: f223 21f7 6307 9fbf 95c6 8aa8 c2d2 95bf
00000070: d75e 9b43 871c 73bf 2926 72c2 03ad 913f
00000080: b7d7 9b5d 8be2 a13f 861e 1071 5b5c 9d3f
00000090: d161 00f1 a270 773f ff60 182e 3c22 9c3f
000000a0: 5ab6 ef5f d301 81bf b0a6 3547 31d5 9d3f
000000b0: 2bd2 8d7f 187b 863f f84b af18 2944 9bbf
000000c0: b112 cf25 6a06 83bf 9ae2 c625 cfee 95bf
000000d0: 3f62 65b5 f018 98bf 5456 afe8 718d 49bf
000000e0: 3655 a9a6 3717 973f 8526 55a5 8f0e 823f
000000f0: 9e89 54aa 8b35 96bf a781 50ef 0f52 873f
00000100: 2df1 855b 35a6 9a3f 883b 3c37 6b73 8d3f
00000110: f60a 3f15 cd8e 98bf 051b a71f fe31 a23f
00000120: 52c8 bb09 8b35 67bf 041b 6af1 5391 6bbf
00000130: 5952 9acd 8d19 8e3f 023e d793 f6a3 a33f
00000140: 9efe a9dc 71de 90bf 1a20 33a8 903e 943f
00000150: 9820 48a5 215c a43f 1346 f889 c0e7 6d3f
00000160: 75e2 d32e 26fb 9c3f 8879 c6fe c2ad 7f3f
00000170: 6a71 3e26 7c82 b43f 4852 ad5e afd9 aa3f
00000180: 97ae e9c4 6bfd a03f 7bd1 6b73 6b79 96bf
00000190: e30b cebd a6ca a3bf 73e0 ef52 9efa 623f
000001a0: 3f34 1da6 8ff9 a1bf 4596 0b28 68fa 863f
000001b0: 95bb 0081 6b3a a0bf 966d f1f8 b321 9fbf
000001c0: 6748 2c8e 6abe a6bf 2b2d 5a29 1cf5 7fbf
000001d0: 8e40 af5b f313 9e3f b009 c445 85ca 883f
000001e0: d22b 41fc 8f2b 9fbf 21b8 3d25 4b8d a73f
000001f0: 83d2 42ef c135 9abf 912f a802 2e04 a9bf
00000200: 1ee6 c003 1a6f 963f 176d 89b8 03f3 813f
00000210: 16d1 280a daa0 aabf 7b70 edc4 2cf7 84bf
00000220: 947e 1bbd 58b6 833f e82b 3901 744e 92bf
00000230: e639 4738 3f16 93bf 551f 3b68 ced3 83bf
00000240: 0cc0 31b6 d246 a63f 5eca 71f0 a97d 8ebf
00000250: d1c7 892a 2ae1 a1bf 89c0 6ac4 4d3b 9abf
00000260: c6d9 6672 1aa7 973f 0123 c7d5 814b 853f
00000270: 032c 8de5 6c77 a33f 2b7f 3de6 cb1b 8bbf
00000280: 983a d083 8f6a a2bf 6f8e bb21 89f2 9f3f
00000290: eea6 927d d3da 44bf 57c9 85bb b733 89bf
000002a0: b0f1 87f0 d24c 8fbf 9a1b ed73 be79 903f
000002b0: 6682 59eb 6f94 ac3f 5147 bcb0 0f01 9f3f
000002c0: 4217 a192 1d3b 8b3f 519b 0419 bcd0 8f3f
000002d0: b275 46ca 057e 8dbf ea92 b9e3 7253 8d3f
000002e0: 354f 7f60 fcbe 793f 0be8 1129 e01b a8bf
000002f0: d0e9 3795 2a22 b0bf 92ef da64 7ef5 95bf
00000300: 89f7 a4e2 e1ee 91bf 7872 f5de b091 a3bf
00000310: e69f d6b4 3e45 a83f b015 98a7 5bd3 98bf
00000320: 6c40 80fd c688 96bf b2c1 7724 93d7 8e3f
00000330: 324a a66f 7945 9a3f 1e71 9400 7b29 a03f
00000340: c4e2 94f1 a79d 903f 09b3 699f 54be a2bf
00000350: b8da c911 71fc 973f e791 71ce 2bb5 8e3f
00000360: c72d 5674 8218 8cbf d17a 9bef a046 98bf
00000370: 41ef e042 bb86 893f fa1f 6667 c6f2 973f
00000380: 11b7 9b88 8205 823f 22d3 83e5 d31d 94bf
00000390: cfd2 642d 97df 86bf 8d2c 3b27 e8e7 98bf
000003a0: 5add 9ebb f578 9dbf 392b 722c 1c19 9dbf
000003b0: f8fa bf7c ac4e a1bf 42f6 1365 8842 a93f
000003c0: 9204 dea9 6907 a23f 6435 d590 f5c9 9cbf
000003d0: 56b9 ba46 80f4 a43f e379 1f0f 4c25 9cbf
000003e0: de30 7063 d339 9b3f e9b9 6b3c 3600 973f
000003f0: 5650 9a9a a8c0 9ebf face 762e 5235 a63f
00000400: d1af bc90 f4f7 84bf 4007 c9d6 f546 913f
00000410: 7d8b 2fc9 5514 9abf 817f d623 6e00 92bf
00000420: 0d5f e609 9d48 603f 313d b941 0800 75bf
00000430: e974 d189 87f4 98bf 369d 69d7 b774 92bf
00000440: 8dfb d8e4 b884 a03f 8bac 929d dc65 9dbf
00000450: 1c59 39a0 7664 863f 5455 c3a4 ffbb a33f
00000460: ca84 27d0 0784 983f ec4f 7800 ffb3 a03f
00000470: 0459 98e1 edad 903f 8780 1111 049c a4bf
00000480: acd0 e7cb 2511 0f3f 1e3e 2429 244b 853f
00000490: faa8 347f 17a3 763f 2b63 ce2d 9404 95bf
000004a0: 910b e82e 8c8b 83bf 03b9 b231 c429 93bf
000004b0: a648 8879 8abd 813f 6d25 130b 78f2 9bbf
000004c0: afa2 cc79 a613 9e3f 3c8a 9f7c 0d46 843f
000004d0: 02e9 9d6e d5a1 9c3f ef50 4fb2 4b88 94bf
000004e0: 5f16 bf3a 8b38 933f 3f68 8930 be07 a73f
000004f0: d320 3928 5f88 883f caf4 fac4 6b8f 95bf
00000500: 070d 41cf 4a05 64bf f7ed 5310 fe14 823f
00000510: c849 a3f9 50b1 94bf 8a7b 35a2 da88 91bf
00000520: 4ee5 ed70 61a6 a1bf 3f85 84fe 4f6a a4bf
00000530: c34e 3a73 751f a03f 85cb 4845 5bc6 a4bf
00000540: e39c bd27 42ac a3bf 031d 3bd0 80e3 a53f
00000550: 745b e086 0d5e 9d3f efe6 1c4c 37eb 9bbf
00000560: d29a cb72 d3ea 6abf 793a be94 e623 963f
00000570: 300e 2d29 643a 993f d236 bc9d 0762 a4bf
00000580: a7ba 47ca b64a 733f bd71 b695 bb97 92bf
00000590: e499 2ea9 dc2c 5a3f e440 f4ca 80ed 96bf
000005a0: e47b 0c16 db5c 85bf 0368 9d34 d924 9e3f
000005b0: 694e 3edb 98fd 89bf 1f60 acdd d1cf 91bf
000005c0: a5ad cb6c 47e6 a4bf 7145 c7f7 796b 763f
000005d0: 821c 8d52 e501 af3f b3e7 7f60 8247 a1bf
000005e0: 0b82 9e87 4123 99bf 80da f356 bc48 67bf
000005f0: 2676 d6dc f610 a43f 62df e6bb deee a3bf
00000600: b4b4 70fd 68b1 9ebf 081f 3ea4 2c13 9abf
00000610: 40c0 3341 18ea 763f b706 789c ef7d 943f
00000620: f564 0ac0 f6c9 253f c31e 5793 f1b0 983f
00000630: bd94 17b4 901c aa3f 8281 4a55 8c6a 8ebf
00000640: 1ddc d58d 073f 90bf 72e8 8d44 4037 57bf
00000650: db8a e250 50cc a0bf fcaf a500 4ef2 aabf
00000660: d9a7 1787 26b6 aa3f 3f09 7ec1 6c9a a03f
00000670: b328 343c 3070 7a3f 4477 a36b ce1a a1bf
00000680: e80a 7a7f 2c8c 8e3f 971c cf79 113f 773f
00000690: aef8 1e14 0db1 a2bf 5f72 335a 15ee 9fbf
000006a0: c482 f3e9 d3c0 a5bf a999 06e5 8f27 843f
000006b0: 7f77 4e11 c28c a73f fdbd d3e3 288a 92bf
000006c0: a623 756f 13f4 a3bf d5cc d84b ada5 a43f
000006d0: 1336 fec8 5105 a3bf 4dad cf77 f2c9 9dbf
000006e0: 084a 3d12 2346 a0bf 6f35 2593 743a 93bf
000006f0: 14a4 b03e 113c 923f e879 e235 11a5 a8bf
00000700: 7eb3 294c 8df9 8cbf 1eb7 9cba 8e78 79bf
00000710: a1ec 868a 1009 88bf 3bff 9195 a54f a8bf
00000720: ca28 fdeb c63e 713f e094 5988 e9ed 953f
00000730: d9dd 9d2c 8cf1 a2bf 5277 fdab 937c 9c3f
00000740: f368 782d 2797 96bf b499 47ca 107c b03f
00000750: a057 81fc 3515 94bf ef3c 24da bece 84bf
00000760: 492c 3448 6a12 a53f 534d 4c69 9472 933f
00000770: 303f b1eb a884 70bf 6ba6 12df cb94 8abf
00000780: 4a51 6953 be28 9f3f 6a86 d560 44e9 8e3f
00000790: 338f 9787 a9cf 94bf 1880 4794 ae51 a5bf
000007a0: c29b 487f c3e0 a8bf e551 d15d 7f1a 9e3f
000007b0: a06e 2aa6 cb12 993f 3194 81ce b149 823f
000007c0: 1547 e18e 1699 8b3f 2145 0600 dbd7 a23f
000007d0: 30b1 708c b44f a33f e88a d42e 524e 97bf
000007e0: 9599 f954 e0c8 a73f 8f5d 4f8f d55e 9fbf
000007f0: 1382 2bef bdfe 853f 437f 0606 0f8e 953f

bias f8 [2]
0.0006402819206215367 -0.027706908721055228
00000000: bf99 63f4 12fb 443f 2b1d 522b 335f 9cbf

kl f8 []
nan
00000000: 0000 0000 0000 f87f
