CS224WFINALPROJECT/saved_models/untrained_vae.pth (torch, 80344 bytes, 11 tensors)

adj_A f4 [4, 4]
00000000: 851b 90bf 8a80 93bf d64b 80be 5e25 debe
00000010: 1545 593f 8427 313f 6dcc a1be c25f 07c0
00000020: 3801 a53e f4b4 a1bf ff30 b33e bac3 9d3e
00000030: 776f f53d 936b 9e3f 8ef2 8e3f 5a36 7dbe
-1.1258398 -1.1523602 -0.25057858 -0.43387884 0.84871036 0.6920092 -0.31601277 -2.1152196
0.32227492 -1.2633348 0.3499832 0.3081339 0.11984151 1.2376579 1.1167772 -0.24727765

weight f8 [512, 5]
00000000: 9011 cfb1 f99f b23f c097 97e8 813e c8bf
00000010: 2816 90ef 6395 a5bf e05f 2c6e 4680 d2bf
00000020: ac26 6561 ed91 c0bf 584f 95f0 bde9 bb3f
00000030: b074 9575 fb9f 90bf f034 0835 371c abbf
00000040: 803e bc86 e43a b5bf f858 8afb 96dc d0bf
00000050: a020 4e48 09e5 c23f f6a3 d34e a04e d03f
00000060: 3e09 9c09 6094 d0bf 985b a076 f93b c43f
00000070: 40b6 5dfe 0d57 d6bf f020 cc70 1dc1 953f
00000080: 023d 012b f65d cfbf f069 5df7 16ac aa3f
00000090: b00d 2671 b30a b43f 8c28 6650 92d4 c43f
000000a0: dc01 071c a117 cc3f 85a0 bf82 072e cfbf
000000b0: f868 4db2 40bd d13f 8817 4e01 d6e6 bd3f
000000c0: ac5a a47b 8b68 d1bf d9e3 4d5c 0de1 d3bf
000000d0: 10ab 7f93 25f0 90bf 5a29 95dd 40e6 d73f
000000e0: a0be 95c2 c37e b03f 005d 2f90 e68e 91bf
000000f0: ae7f 05bc 87f2 d03f 1860 9ddf 363b bebf
00000100: ff6c 7769 f914 cabf fb8d 9c8e e13f dabf
00000110: c00f d1d9 b378 cc3f 9256 a0b1 e91d c2bf
00000120: a87b 4cd1 4881 a13f 3062 5cda 41ce 9ebf
00000130: f652 c84a a3ce d43f f724 9a8b 7345 dabf
00000140: bc88 3d1a 0077 dc3f 786d 0db2 b5bb d53f
00000150: 54fb 8884 131c ce3f c064 2317 3cf2 cbbf
00000160: 5082 ef27 93c4 d1bf 66cd cfef d8eb db3f
00000170: 3278 3d50 5e01 d03f e0e3 5846 3ea0 bfbf
00000180: d0fc b4ac 2927 ae3f 5856 df0f 399d cb3f
00000190: d28a fe08 bf5d dcbf 4806 daf8 aa24 b33f
000001a0: f0c8 8c9c caec af3f b0f4 c061 8fdb d9bf
000001b0: 9c93 6047 6e4a d3bf 447d 9c67 d18b dc3f
000001c0: 10c0 8574 d00c b73f 4ef8 102e 9c15 d4bf
000001d0: 2c25 bf4d 653d b8bf 7cc5 4481 6ccd d43f
000001e0: 84a3 6ca2 0a42 d6bf c0c4 0a79 e2b7 d13f
000001f0: 1c9a 2cd3 df8a d03f 34f5 bc53 ea09 d13f
00000200: 2017 9db5 295c b5bf 285f c5f5 049a c93f
00000210: 17ac ab4a 03f2 dbbf 30b9 39f2 f1dd cbbf
00000220: 565e d267 90d2 d1bf cf46 db50 e150 d3bf
00000230: 0020 b55b f7d8 71bf b70b 4855 1fc9 d3bf
00000240: 52e7 fd1a d2f6 cebf 086a 87e2 5678 b4bf
00000250: 9ce8 5566 f2d4 bcbf d678 d8e2 dd26 d2bf
00000260: 20ff ee59 62f3 b6bf 20d1 5cbe f130 903f
00000270: b086 8b39 e0a5 b93f 8439 2d3c b426 b9bf
00000280: e0dc 8058 6598 a13f ee7c 1d12 9c40 d1bf
00000290: b8f2 07a5 f034 b0bf 6cba a29c 8967 d43f
000002a0: e4be dd34 6e28 d83f 7ee6 94a5 cb70 dabf
000002b0: a81e 6228 6951 c73f 74fa b2d8 458d d2bf
000002c0: dcb8 5d8b 8b67 d2bf c371 82f7 824d d2bf
000002d0: e840 57c5 5f5e c33f e030 259d f4a3 ba3f
000002e0: 8ec9 6690 3afd d2bf 7e7c dfbb 2244 db3f
000002f0: d858 d5df fe4d c43f b0d1 ee4a f774 ac3f
00000300: 4823 0da2 2d88 a8bf d66d 1978 cdea da3f
00000310: 00af dae9 9957 5b3f b669 aa42 4803 db3f
00000320: 8a33 769f 613f d53f 0278 186b 29ea cebf
00000330: 00a4 99f7 255c c83f 78ec 5386 e835 a9bf
00000340: 0034 0d17 d9bc 9e3f 30ac 5b68 25fc d3bf
00000350: 1029 5020 d914 c23f 2249 15a7 f81d dabf
00000360: 00e8 2126 2be4 42bf 0020 af6f 0257 a8bf
00000370: e80a edf8 9bd4 d03f f83f 2ff6 f95b c6bf
00000380: c687 d07f 0485 c4bf 902d 93c6 4a4f c83f
00000390: d30f 451b 3b3a d9bf 62df 59b0 596f d63f
000003a0: 1182 2e7a 4077 d9bf 40d6 283e a883 d63f
000003b0: 0218 7a7b c504 c6bf 28e9 7ec9 46ac bc3f
000003c0: 8095 ee73 4998 dabf a873 e25a 421a d8bf
000003d0: 5c47 ad9d 9a64 c63f b66f d4a0 9dd9 d5bf
000003e0: 3850 e02f 167d a6bf d282 5007 fbe0 d53f
000003f0: 6cba 2ea0 5841 c8bf d264 3031 0079 d6bf
00000400: 6ea5 e1f3 b122 d0bf 14cf 8d13 9e39 cd3f
00000410: c030 3b96 bb7f 7b3f 300a 3024 2596 a43f
00000420: d8e8 7f8d b353 d5bf f0ed 06d0 fc88 ce3f
00000430: 4c92 c75e 0254 c13f 44fc 1bd3 2b35 c23f
00000440: 306b 11e8 33bd d7bf 20ed fbbf 4c3a ad3f
00000450: e3c1 60b7 5ff1 cabf d7fb 63e5 fadf d6bf
00000460: b8a0 121c 5779 ce3f b8b7 a4a8 fdbf bf3f
00000470: a9c2 0a21 779b d8bf acf4 db64 a22a d83f
00000480: cc4b 89de 2558 d03f cc81 edae 0e01 c33f
00000490: 406e 14b3 3c14 b33f 4cc2 0ccc cc48 c93f
000004a0: 3047 4c8c f85c b9bf a066 bf2a 82c8 903f
000004b0: c877 2c1f af8c d73f 543f 384b 6ba1 c13f
000004c0: 1025 122b 87fd c2bf 949e 9eff 4558 d43f
000004d0: 98fd bea1 c8e5 ce3f 5438 c631 de0e c1bf
000004e0: 5604 b6d9 9c11 d53f 5cba 3be7 5035 c53f
000004f0: 74e3 51d2 0a13 dc3f 6565 94cf db54 cebf
00000500: 5bd9 d861 3b70 dbbf 0001 c310 cfbb 61bf
00000510: 9285 3947 61df d7bf 7278 c154 ecb4 c8bf
00000520: 18f5 1c60 9b44 b53f 3a0e fce2 f3c3 d83f
00000530: c071 65f7 b807 7abf 303f 8a62 dd61 b63f
00000540: e440 1926 e928 c9bf e80f 89b0 1819 c83f
00000550: b01f 37f3 6d1b c03f a6c2 c28a a7d2 d0bf
00000560: e401 1e52 55a0 c7bf b266 072d 2b79 d03f
00000570: 7806 aa99 bf39 d3bf 520f e6d6 8eea d0bf
00000580: f4e0 d90f e54c cabf 1cb9 ef6d 9760 b6bf
00000590: cc3e 9b6c fe3e db3f 2e1d adf4 83db d4bf
000005a0: da0c d5d4 6e0d c8bf 4061 b69b a7cc d43f
000005b0: a882 1ff7 97fc a93f 64ad f818 7bc4 cd3f
000005c0: 1c07 d10f 8e3b c4bf 7a43 f0dd 2c59 d8bf
000005d0: e0f4 24e1 91e7 b63f b077 f084 247d a2bf
000005e0: 6049 7f0a 5211 cc3f f01e 60b5 3c29 d83f
000005f0: 54ff 9c42 0bad d33f 04fb 9260 9935 c53f
00000600: 4835 4e1f 748a aa3f 6a32 2d78 ca3d d6bf
00000610: f866 ff1e 0b16 bf3f 02ab 2355 78cb d23f
00000620: 20fd 2984 2c40 a33f c0f9 3670 3504 ca3f
00000630: 3034 7ccf 72b8 b7bf c16d 2a80 64d3 d2bf
00000640: 5a2d 3ae6 18b6 d73f 3016 be8f c4d5 babf
00000650: 0188 888d c25c d0bf 12ce fd6f c3e2 d0bf
00000660: 7049 9504 0bb7 db3f 9a4e 54e1 e7b3 c8bf
00000670: 72ea 645e 52ab c7bf 02a8 0845 167e d3bf
00000680: f40b ecf1 2e04 b8bf 1608 5734 c6ff c2bf
00000690: 561b 7663 be60 d53f ec94 5053 2ee4 db3f
000006a0: 0663 e4b2 45c2 d3bf 1050 b983 20d4 d1bf
000006b0: 1ca4 126d e45d d0bf c0f3 5fe4 0deb b6bf
000006c0: a297 b641 072e d2bf 3a0d c4d6 33ea c4bf
000006d0: 6253 a49e 313f db3f 660e d58a 470f c0bf
000006e0: 549d ad76 cc50 d0bf f8d6 dbf8 13c1 d03f
000006f0: 7b18 8efd db78 d8bf 9cb9 fd17 69c6 d43f
00000700: a389 00a5 c2c0 c9bf 8034 f144 3336 aa3f
00000710: 3adc 43be fad2 d63f 4cdd 5beb 1a4a cd3f
00000720: 66b8 06b1 4ee2 c6bf 4ce2 6e2f 2c55 b6bf
00000730: f02a 87bc 1824 b33f 0421 0af9 29d4 ca3f
00000740: 7230 e036 0288 d2bf 5823 3971 6c7f c73f
00000750: 1881 1bb2 6229 b53f c03f 0253 1f73 96bf
00000760: ed13 abfc 3d42 d5bf 3cfa 6a8f 142a d5bf
00000770: 583e 289e a8a3 db3f 8c94 c6e5 db5b c0bf
00000780: fc03 9fb1 0df8 c03f e807 ab3a e7fb a13f
00000790: e071 cf81 ba7b c7bf 2795 e1e5 325b dcbf
000007a0: 3894 ed05 7b13 babf 1d59 0195 1d1f cbbf
000007b0: 0e0d aed1 7434 d23f 323f 1fc6 7ffc d33f
000007c0: 0612 1e2f d755 d63f 0ffb 8e9e 9f38 dcbf
000007d0: fa66 a481 3f01 dabf 826e 84b2 f8d1 c4bf
000007e0: c07f 0fc7 3d2e d0bf 7cbe b994 9170 b6bf
000007f0: 000a d4d9 4dee c03f 6c50 e654 9627 c43f
0.0727535304168383 -0.18940757615126635 -0.042155383103857524 -0.28907929190745385 -0.12945334678288611 0.10903536914457612 -0.016235283900972675 -0.052949643348350395
-0.08292988099514709 -0.26346373142713686 0.14761463194395663 0.2547989625732606 -0.25905610025815295 0.15808027546219416 -0.34906339493213423 0.021244487771611753
-0.24505498027654232 0.05209419030753171 0.07828828346651195 0.16273716855750242 0.21947111004375486 -0.24359220394331174 0.27717606937734685 0.11680352718221176
-0.27200591158308884 -0.31061109556281746 -0.016541087272268717 0.373428551091498 0.06443427563294302 -0.01714668517146567 0.26480286942932707 -0.11809103926987097
-0.20376508378726751 -0.4101489918413958 0.22243354926660963 -0.1415378682437916 0.03418948702732588 -0.030083683922472015 0.3251121740625388 -0.4104889739324586
0.44476320803199676 0.33958189380583503 0.23523181888045974 -0.21832991723821316 -0.2776229753490371 0.43626998347391177 0.2500835212321163 -0.12353886811696624
0.05889253838767561 0.21573556208629685 -0.44322181585645837 0.0747782571361536 0.062353450403309085 -0.4040258841158204 -0.3014178940814476 0.44603381269731224
0.09003928036486308 -0.31381897448216456 -0.09468682430373992 0.3250380766285941 -0.3477808557677735 0.27684842892183426 0.258476215576964 0.266230184340958
-0.08343754466940512 0.20001279831444063 -0.43664629261064775 -0.2177107269994365 -0.27847681177943195 -0.30181153198382743 -0.00435730575856752 -0.30915053680672194
-0.24190737073859708 -0.07996123342983463 -0.11262431143214474 -0.2836222377099039 -0.0896512479366689 0.01581170772915741 0.10018731503398715 -0.09824682683140479
0.03436581330645949 -0.26956846016942293 -0.06330780057028107 0.31881943031741034 0.3774676815291811 -0.4131344906814788 0.1821719596084581 -0.2898726097300035
-0.287569891071042 -0.28598093195776303 0.1513175691202442 0.10406426273874869 -0.29670585729322674 0.4260336718270493 0.15863023690571398 0.055579879662590925
-0.04791395762601397 0.4205812142224351 0.001668834978242495 0.4220753336936939 0.33199348995622613 -0.24152105073238778 0.190312143229022 -0.0492394126867674
0.03001727297969481 -0.3122647780534775 0.14126123502530463 -0.408079302947174 -0.0005765162170654481 -0.04753882993060188 0.2629766398351152 -0.17468189736109685
-0.16030937424608122 0.18991980262795183 -0.3941791311556219 0.35054628583701775 -0.397903556173362 0.3517857176806025 -0.17202061204096714 0.11200373095826832
-0.415544856276334 -0.3766027343315792 0.17494518946710513 -0.3414072104076199 -0.04392308554102481 0.3418567248755099 -0.18949420758640956 -0.3511352997171119
-0.25211762253328274 0.22832084612638737 0.006713612328621277 0.0402080160784134 -0.3332337266762244 0.23855552823611914 0.1353762591162585 0.14224765594551247
-0.37092302000899036 0.05708541720920324 -0.21049114660264853 -0.35742065812513374 0.23807801123371575 0.12402329795142364 -0.3844888518024541 0.37760219430476627
0.25538012249051856 0.14846976796526545 0.07452754375520332 0.1975341793381794 -0.09907487321131891 0.01638987909232148 0.36796167415911585 0.13773862049901686
-0.14836206057615486 0.3178877826962687 0.2413874425674123 -0.1332662337339935 0.3291999937137623 0.16568957606019097 0.43866224803019027 -0.23696468005872898
-0.42872509532334896 -0.0021647495505875414 -0.3730090327790886 -0.1930213369223029 0.08307810875426858 0.3869600025793464 -0.006355021023719265 0.0874307981086957
-0.19656099663053006 0.18826588268177535 0.12583708167789842 -0.26285732794625927 -0.1845804835284205 0.25739554784159246 -0.30039968496576064 -0.26431628214071623
-0.20547164224604553 -0.08741136964792812 0.42571983915420897 -0.3258981599251055 -0.18790994064520455 0.3249911327962032 0.05075526134146929 0.23255861968332703
-0.15806747219362982 -0.38044282602009327 0.08947097536743653 -0.03611101267618666 0.21927857887801405 0.3775169154400677 0.30743676667406317 0.16569821563276588
0.05183756715914939 -0.34752141700736294 0.1214301062276738 0.29366882624042046 0.03759898293810182 0.20325344065891038 -0.09265821042591038 -0.2941523791903045
0.37048933489923785 -0.10482433804835334 -0.2556616193925266 -0.26384054123556766 0.43304706046651287 -0.19299028875740448 -0.18491582497684395 -0.30457073918898925
-0.093813833296778 -0.14843061023390253 0.33402976716063415 0.435802060472567 -0.30873243780074267 -0.27857220519695236 -0.25573073054926154 -0.0895241434627243
-0.28405934731778804 -0.16339729296314848 0.42573204510090623 -0.1254662921802378 -0.2549315604178066 0.2617845468770237 -0.3823766685603755 0.3246100172317712
-0.20119507843726323 0.05119476524905853 0.35662716465543876 0.22882400982028128 -0.17878135341510698 -0.08723713071857125 0.07476954081281995 0.2095997301114566
-0.28955130919417293 0.18357615974880548 0.08266274307562005 -0.02192353195329111 -0.33216809916149154 -0.330693378502392 0.43186393208541096 -0.1278033134414368
0.13256999180705964 0.035124994193679815 -0.18346339548487745 -0.4430663342412395 -0.10185974974372491 -0.21188707137725596 0.2844516799597877 0.3122863230500911
0.34898929215731334 -0.4409560249732047 -0.40632617626543743 -0.16265782086053454 -0.25282234611040266 -0.08765516167636095 0.13227246414324156 0.15745810647479475

bias f8 [512]
00000000: c9b9 9439 8d45 db3f c854 bdc1 087d ad3f
00000010: 8c4a 47ea da08 b33f 7c27 0f86 d515 b5bf
00000020: 4759 e0af c3b2 d33f f8e8 2e45 d00a d3bf
00000030: f06a a3a6 8986 a03f 4f2c bc15 461b cbbf
00000040: 4cb9 7cb4 9e78 bf3f c2ae dbf2 9876 c53f
00000050: 98db e3e8 f980 c1bf 78dc b8b9 e8df bfbf
00000060: 401e 2388 bdd2 b9bf 7c37 6772 ae31 bf3f
00000070: fd19 8c73 10eb d4bf 1955 18fb 52e9 d83f
00000080: 7748 9acb d7d8 d93f 3561 64a5 b81d d13f
00000090: 7ef8 4639 4f52 c5bf 2634 79a9 179d d7bf
000000a0: 816c a15e e624 cdbf 80eb 9640 9662 a93f
000000b0: f0fc a92f 7321 a1bf a476 1960 470f d6bf
000000c0: e409 7336 6147 ccbf 3fb1 d4dd 6795 cebf
000000d0: a22e 768a 361a c23f f1b7 dc22 d124 db3f
000000e0: 73e2 ce4a e78f d9bf 2a0f 828c 50be d2bf
000000f0: 46ff fad6 ac2d c7bf b6df c55f 983a d2bf
00000100: f7fe d849 76f8 d63f 3d63 aafd cf20 d73f
00000110: 1483 88c7 72dd d3bf 0dfc 5f84 8d47 d03f
00000120: f93c 62ad 1ef8 db3f ad72 8da8 089e d83f
00000130: 28d4 acb2 5402 b3bf 1684 c91a 90c9 c83f
00000140: e0bf c3c0 f015 97bf da94 8785 808c c4bf
00000150: c8cb 0f27 75aa aa3f 06b1 0269 d3ce cbbf
00000160: 1828 89c7 9a10 c9bf d00f 401d 8bae d6bf
00000170: 54e6 d1e0 4ce8 d9bf ced8 5baa 5ac2 ca3f
00000180: 7910 6109 8846 d23f f2ad 539f d47a c03f
00000190: a157 ad82 95ac d03f 5a9e 4571 d6ef d7bf
000001a0: 542b 43ab 5adc b9bf c403 66d4 f462 c4bf
000001b0: 8084 af1d 8263 a2bf eef8 ef6a b7c5 c93f
000001c0: d2b4 8876 34b5 d6bf ee8f 9694 fea0 c53f
000001d0: 54e0 eb77 744c d0bf 0423 850d fe67 d0bf
000001e0: 6fa9 d995 cb44 d23f 7a69 5c6a 5e7c c53f
000001f0: 80ef 4f3e 2899 91bf 4644 b83e 5f4e d4bf
00000200: cfa7 0750 6713 d13f 0011 796f fdc0 87bf
00000210: c696 cf65 f520 c5bf 9129 21fb 3fd0 da3f
00000220: ebc8 fb2b cde4 d63f 1ca8 c165 c5b1 bf3f
00000230: 7eac 2733 af26 c83f 189c 4067 9f5c adbf
00000240: 96c7 3a86 6980 c53f da9d 9bb3 feba d1bf
00000250: 72e8 88d6 b959 c43f f253 60ca 81e3 c8bf
00000260: 24ae 3dd6 3589 bd3f e880 28f3 6273 dcbf
00000270: c0e2 6cac 681b d9bf b9c1 c647 5040 d63f
00000280: d847 f005 6185 d7bf ce23 3c88 7719 d5bf
00000290: 90b8 7074 ae52 c5bf 96c8 795f 9293 c33f
000002a0: ff3b 7c29 0870 d43f c3e9 9dc7 8773 d8bf
000002b0: b350 bc82 fccf d93f 34bb 5ca9 11d9 b53f
000002c0: 4839 8d29 1b44 d5bf 6901 35d2 deff d23f
000002d0: 0a35 01d1 a9e6 cc3f 80ba 8493 5857 c4bf
000002e0: 27e2 e3f8 cfa8 db3f 3db4 0132 dead d8bf
000002f0: bb4a f3ca 916a dcbf 035c 779d dde9 d23f
00000300: beaa 285d 2e24 c2bf 261b 9ce3 2285 dbbf
00000310: bed1 2560 f803 ca3f f45f c899 5fbb bc3f
00000320: d559 e231 d515 d23f 9e0f 7493 ea33 ca3f
00000330: 63b6 63dc a92c d93f 6a9c d3e2 5a7c ca3f
00000340: 79c1 02ca 1f20 ccbf cde3 aaee 555e d23f
00000350: 31e4 727c 0c99 d5bf 40cf 8ec2 effd 9a3f
00000360: f4e5 1369 0c90 bd3f 3895 cc41 23aa bebf
00000370: cace 3a34 ec5e dcbf 10bd 8604 d616 96bf
00000380: 780e 01eb 2d6d cdbf bca0 c36a d03a ba3f
00000390: 4099 cd9f 2b67 a13f 2a73 24af 70dc c73f
000003a0: b070 38b1 f870 d8bf 135d 0366 3d5c db3f
000003b0: e08b edb1 1578 97bf 404e e7fd aa25 a4bf
000003c0: d09b ae72 5122 c4bf 16c0 27b2 988f dbbf
000003d0: 74d1 c47e 034c ba3f c45e effa 3c17 b4bf
000003e0: d410 617e d4ac bf3f bfbd 0305 74d1 cebf
000003f0: 82d3 2e4a c550 d3bf e221 3ade 3b54 d5bf
00000400: 38dc b52d 9587 bebf e888 c7ce f922 af3f
00000410: b2b4 b162 ff4b d3bf d53e b9ea 717d d93f
00000420: 06f4 7a64 489f c73f 7cc7 3c59 daa1 d7bf
00000430: cdbd 734e 04d4 ccbf 343d dcb8 186d bf3f
00000440: ef60 ea40 a819 d03f 5522 526d a2bb d63f
00000450: 1cbf 4204 595e d5bf 10fa 686c 2e10 963f
00000460: 38ac c31c 9fb8 d9bf 5aa5 125b e322 d2bf
00000470: 0d9b 4505 675e d73f d9a5 0ae9 058f cabf
00000480: a034 1d4f 198b 863f 697a 81aa 055c d73f
00000490: 6cc4 4211 0b37 be3f 9ea2 baf1 8c78 cb3f
000004a0: 76e3 421e 7db5 c0bf 254f 7d69 c5f9 ccbf
000004b0: b4a2 ff28 f813 bebf 8d46 5025 46d5 d83f
000004c0: f6b5 d9e4 bd2b cbbf edb5 dac7 f8f3 da3f
000004d0: deeb 73c3 8467 c23f 6406 564e 850d dbbf
000004e0: a2b2 7733 0109 d5bf 63e3 c83e a7f3 d93f
000004f0: 90b1 c708 7647 9cbf de59 a9dc 1f85 ce3f
00000500: 8d29 7aab 5089 da3f 1848 f55c 846d d3bf
00000510: 0c6b 6d08 352c b8bf 4c8e 2ee5 7cb3 b2bf
00000520: 1f88 89ed 6760 d43f 15d6 0275 6a46 d03f
00000530: 310e 0038 8498 cbbf 6342 d421 19e8 d73f
00000540: c825 2ba6 a375 bbbf aa1e f7ec 33f8 cfbf
00000550: 7570 bd8d 8336 da3f 52e5 44ae 4857 c9bf
00000560: 8017 91b0 1437 823f e2e0 acf5 05de cdbf
00000570: a288 0727 ba3b d3bf f0ce 9454 a5c3 bbbf
00000580: 8a72 5832 9164 c13f 88e3 473b 32d0 a33f
00000590: 74b9 2f63 1c41 babf 1de8 64df 452b d23f
000005a0: 2cb8 874d eba3 ba3f 0381 6f03 4067 d83f
000005b0: 58de d9f3 2180 cfbf 40a7 9c09 1464 9dbf
000005c0: 9ef3 13ad 7190 c43f 18fc 6738 95c1 a13f
000005d0: 5d10 9760 ab62 d7bf 8f46 c00e 6022 d43f
000005e0: feba 7103 fcde c03f 6019 84bd 573f b2bf
000005f0: 5566 38c0 cb84 db3f 8c1e e2fa c1f8 c5bf
00000600: 5042 daed 307a aabf b810 71f6 5c3b d3bf
00000610: 9629 f031 e29b d9bf 36bd 41d3 e9a8 c2bf
00000620: e628 0bf5 2e5b dbbf 99fd 9d4b 19ce d03f
00000630: 6f40 d560 9320 d2bf e07a 6fe7 46d8 c6bf
00000640: 0676 3869 9629 c7bf 6fa4 ee3a 6b55 d93f
00000650: 4237 17e4 daa1 c33f adc7 1c31 4785 dcbf
00000660: 6a77 307b c2f9 c03f a58e 2382 85d3 d13f
00000670: 90f3 86e7 fa51 b4bf 9012 be31 ac34 a03f
00000680: 3627 ef70 4a12 c6bf e777 ffaf f39b d23f
00000690: d876 5d88 6dd2 b0bf 06de 3437 93ff cc3f
000006a0: 5371 dead b298 dcbf 0693 c0ea f729 d1bf
000006b0: 3982 3b52 c98b db3f cff1 0fb4 ea35 dabf
000006c0: e086 f0a4 a0d8 bbbf ff06 81ea c9ef d93f
000006d0: 3578 7ef2 c828 d9bf dccf a246 c385 c7bf
000006e0: a87a 7fd7 497b d3bf c324 5bbe 1fd9 d63f
000006f0: 2022 99d0 f6dc a03f 28b9 cd99 9923 a83f
00000700: 6113 b474 5b17 d83f 0180 51ac 4a4d d2bf
00000710: 6db9 5eff 24f3 d8bf 3b8c 9f9f f468 d73f
00000720: 948d 8d6b c74e d7bf 600e 9b1d 79e0 b9bf
00000730: ce75 64bf 8b99 d4bf 78ae 9f70 d984 bebf
00000740: c076 3adc d7fb 7b3f 46db 5353 ee63 c6bf
00000750: 0c41 8e0f ad9a c1bf 90b1 769e 53b7 a63f
00000760: 4a15 31aa 88f6 cd3f 49bb 77c1 b210 d1bf
00000770: e37b 15f1 4242 d13f da27 b573 777f cd3f
00000780: 6485 134c a84d d8bf 0876 2474 91ae a4bf
00000790: 0bff d673 0ec3 d93f 00a0 7d92 1c99 3ebf
000007a0: 005a 75ae 67ea bfbf 7093 c652 eba7 a13f
000007b0: b4dd 34d8 b9bc bc3f 42e5 168f 070e c73f
000007c0: e284 bfd6 f86a dbbf 2948 60b6 a178 cebf
000007d0: 0410 2ce1 4865 ba3f 3bda cb1e 2917 d93f
000007e0: 979b 5730 1f78 d23f 7488 b498 d3d1 b63f
000007f0: e1ce 5098 5ab0 dbbf bf21 c11d 22ff da3f
0.4261200964273511 0.057594560289240315 0.07435386867227062 -0.0823644115727386 0.3077859132330513 -0.2975350070588685 0.032276441184611815 -0.21176982938081543
0.12293426424432602 0.16768180712039366 -0.1367485415609877 -0.12451033148032475 -0.10087189267789487 0.12185182850882187 -0.32684718402779805 0.38924097558022336
0.403860043364268 0.2674390425832088 -0.1665743856119128 -0.36896316099302096 -0.22768859501488595 0.049580283531631686 -0.03345832783542757 -0.34468254456246883
-0.220928336702925 -0.2389345009954784 0.1414249588091155 0.42412212757596907 -0.39940817170603465 -0.2928658840321413 -0.1810813951215044 -0.284826367882029
0.3589149209183086 0.36137771389035206 -0.3103911350790878 0.254367236397173 0.43701903278356685 0.38464561901291 -0.07425431596932752 0.19365121181456918
-0.02254463364164383 -0.16053778190613494 0.05208173848941261 -0.2172493231531762 -0.19581923239667343 -0.35440328461140513 -0.40480348544187916 0.20905621832179694
0.285554894599279 0.12874849109299152 0.26053369294583645 -0.3740135294123995 -0.10101858788690993 -0.15926990862865698 -0.03591543781636464 0.20134632798721647
-0.3548098714407618 0.1689756608512875 -0.2546664401156751 -0.25634719200438405 0.28544892915547043 0.1678579348889107 -0.017185810855138595 -0.3172834503648726
0.266809299616054 -0.01159856792867986 -0.16506831618533208 0.4189605667530936 0.3577149323965744 0.12380632147110798 0.18868055341531326 -0.0573472798862939
0.16798132948093486 -0.2770382646544626 0.15898821807224156 -0.19444296247152654 0.11537491302959119 -0.4445426344482386 -0.3922979053345834 0.3476753903333037
-0.3675158079141716 -0.3296793775958208 -0.16658573804437937 0.15294103299999467 0.31933788348482034 -0.3820514153846057 0.4033194805827051 0.08534345993824105
-0.33228186662463033 0.29686708953888413 0.22578928666408898 -0.15891558840799647 0.43217849069290754 -0.3856120575281386 -0.44400448626872063 0.2955240285641027
-0.14172915982029183 -0.4300009939910744 0.2032461614104601 0.11223409180126948 0.2825825678968646 0.20470936012145285 0.39335104486858635 0.20692001414792865
-0.2197303520565688 0.28700779254319003 -0.33746635583117085 0.02635931611048581 0.11547925534605225 -0.11978359562325103 -0.44329362011488327 -0.02157148745180587
-0.2298943898659791 0.10245993238970902 0.033990252740113025 0.18641480018495687 -0.3818952303570411 0.4275048729154644 -0.022919024453027848 -0.03934988355072422
-0.15729730701170164 -0.4306394328878026 0.10272237629835052 -0.07847958685249085 0.12373092732838425 -0.24076700444082452 -0.30180485004830626 -0.33326622678626283
-0.11925632825828891 0.06081371926463125 -0.3015135253725233 0.3982815544340899 0.18454842478050199 -0.36925371851531685 -0.225220239931771 0.12275843156043181
0.2515659936848484 0.35520229984152724 -0.33388352790915277 0.021546101919961258 -0.4018934040929625 -0.28337940114814375 0.3651368667109843 -0.207489718236771
0.011007497526998755 0.364991585263772 0.11802739306837545 0.21461641123939484 -0.13053859689332697 -0.2263724103055377 -0.11749220848981673 0.38801721233276326
-0.21227239298188721 0.42114085690522424 0.14378413718790645 -0.4227002396583883 -0.3286746027577384 0.4054964173442867 -0.027616352353946605 0.23843763613213204
0.41463104959316227 -0.3035593898576976 -0.09442454772708347 -0.07305126757869934 0.31838415333743514 0.25429784228194424 -0.21559193357835363 0.3735411482203174
-0.10726378256654023 -0.24976204939433916 0.40957726327702143 -0.19797619351610735 0.008894120825185814 -0.2333381127916772 -0.3005204564234508 -0.10845406832668991
0.13588156660343415 0.03869778607981461 -0.10255601331275505 0.28389117065273856 0.10406370776010537 0.38130188308242924 -0.24609779745854854 -0.028702080809274166
0.16065808249541375 0.034680045257111825 -0.36539730484606087 0.3145980972341044 0.13180494468857512 -0.07127903344016806 0.429980218615673 -0.17165398359451378
-0.0517134943339711 -0.3004982382447099 -0.400139378326139 -0.1457798272635757 -0.4274403946880184 0.26257927307593715 -0.28323826271390024 -0.17847524929580683
-0.1809566510936948 0.3958385539540989 0.15337692391624996 -0.44563464923987334 0.13262206091979617 0.27853524884106157 -0.07937591698187263 0.03165186030586142
-0.17243319048275801 0.29076854884431075 -0.06571087435937828 0.2265495318949748 -0.4468199441851272 -0.2681865494253518 0.43040688543809186 -0.4095408209248292
-0.10877422358364752 0.40526054287703056 -0.39311431580597694 -0.18376961659453073 -0.3043999294731443 0.3570021971650698 0.032935822452206276 0.04714660646901542
0.3764256133729785 -0.2859675104900817 -0.38984036386945925 0.36578097904402157 -0.36418328765122365 -0.10108143780512924 -0.32187169733682885 -0.11921462058642784
0.006831973270576774 -0.17492465084770908 -0.13753283748202028 0.04436742123957338 0.2340861159338295 -0.26664418118791794 0.2696692804656193 0.23045247220789983
-0.3797398322040719 -0.04039434950594162 0.40253030121310535 -0.0004668898350161932 -0.12467048653829949 0.034484247068838125 0.11225472954253385 0.18011564718998768
-0.4284040543698905 -0.23805638699610768 0.10310798165670582 0.39203861243678134 0.28858165474815095 0.08913919904856177 -0.4326387870271287 0.4218220987864036

weight f8 [2, 512]
00000000: 7e15 6831 7b90 943f 403b 3971 bcdb 663f
00000010: 4035 bfe4 b56f 8ebf 66ea f1ee b613 973f
00000020: 31ea c3f8 51cf 93bf 422f fa61 97d2 8fbf
00000030: 501e 5864 b694 87bf ccea 09bc 69d3 81bf
00000040: 9ae0 d283 4283 a6bf 7480 cfd6 dcf7 913f
00000050: 8a7b 2055 fd74 923f 0457 b3cc 8990 823f
00000060: 4780 bd85 f389 95bf 40b4 e965 978c 7fbf
00000070: 07dc ab09 673c a13f 35a7 fed1 b141 a13f
00000080: ad22 da99 aa27 a23f 00f1 2328 bfb9 793f
00000090: b1ba 2c0c ff88 99bf b74b 6c12 8ccd 93bf
000000a0: 28a0 3463 3f40 a6bf 5e58 cf3f 1503 963f
000000b0: 1bc3 ce85 4a01 a23f f093 3ec4 c17b 843f
000000c0: a8a0 7c66 e236 93bf ec70 346d 10db 8abf
000000d0: 046a 86b4 1a3c 96bf cd56 4fb4 6894 a3bf
000000e0: 409e bf02 ee48 82bf df78 ec60 fefd 96bf
000000f0: d59e fdd4 2297 a03f 1daa 366b 454f 97bf
00000100: 3ab9 399e da83 98bf 0043 1eac 1533 7ebf
00000110: 1c34 047c 2048 923f e09d 6200 7081 89bf
00000120: 5038 f040 3dc8 633f cabe ce94 8c38 993f
00000130: b21b 32d3 cc26 9dbf d6dd e55c 8fa9 943f
00000140: dc12 cb32 4c28 a1bf 5a5e 4adc 0cc1 9e3f
00000150: 30d2 7634 25b6 6f3f e65f 68d5 bcd7 963f
00000160: 9086 81e7 693d a1bf 40e9 fe58 7a11 6ebf
00000170: 5f1a 774b c0f5 9fbf c8d4 845d 7bf9 733f
00000180: f0c7 0111 9e86 6abf b237 a7fd 50e9 953f
00000190: 1fbb 1eb3 ce3d a13f 38f1 b846 baa5 8f3f
000001a0: 1077 0573 8de3 7f3f 007d ccf7 f5a6 4c3f
000001b0: 6012 1dfe 0b7c 553f 73d8 24d4 3e43 a23f
000001c0: 9c60 ddd3 ada2 843f 8157 1018 24d8 a0bf
000001d0: 6083 08fc bbcd a2bf 0f73 acb8 0ae4 a13f
000001e0: 5f16 de7f 2456 99bf fea5 61f6 ed6e 9f3f
000001f0: 2d18 5303 6ded a0bf 604a 143c bc7b 50bf
00000200: 28bb 1859 c45e 80bf bab5 71bb 5b9f a6bf
00000210: 9363 5e76 d884 98bf 6675 5a37 d68e 973f
00000220: d395 ca55 57dd a33f 1e99 694d 28bf 9e3f
00000230: 08df 6e8f 224f 8bbf 9460 c522 188f 90bf
00000240: 9788 30f9 1bce a4bf 606b a28b e7d5 75bf
00000250: 76fa 8226 25e5 9f3f 7a77 7519 e054 9a3f
00000260: 26f8 78ce ee23 943f c80e 0b9d 2856 76bf
00000270: 6240 aa33 1ba5 903f 2668 33eb 2413 a3bf
00000280: ff3b bce0 2cfd a33f e4cf 63eb 1814 80bf
00000290: 1e1c d7f0 7e6c 9dbf ec3c faf0 2360 823f
000002a0: 50a9 507b 3249 613f 44b7 1c64 2bba 823f
000002b0: 7add e4d2 541f 9c3f e47a d590 2684 893f
000002c0: 3680 80ff 7404 93bf 7560 0ef6 2fa2 a53f
000002d0: f2eb 97b8 a176 97bf 0602 96ab 5f2d a1bf
000002e0: d35f a6fd 0977 a33f e021 de19 5164 5e3f
000002f0: a7d0 9922 c392 a43f 6050 731a 3262 71bf
00000300: b4b3 0683 0d66 a4bf 44c4 211e c2e6 903f
00000310: 4883 55a6 4b6e 8fbf 9e02 011d c913 a1bf
00000320: f83b 8b4c 2423 853f a0c2 ef9c f1a9 763f
00000330: 6c6d a59d b0f2 8c3f 52cb 8ec8 d8a5 9e3f
00000340: b403 eae4 f971 88bf efb3 0607 69ab a5bf
00000350: edf2 b989 9c4a a4bf aac7 6a2d 3c7d 923f
00000360: 77e8 ea12 2225 94bf c9dc 8eec ea7d 99bf
00000370: fbd0 5b7e f856 a1bf 8466 d473 0e9e 883f
00000380: a260 ae5c f7a1 9e3f b7d9 99b4 6e48 a03f
00000390: 1ce2 ac6d 6fff 95bf 6077 3276 5aed 733f
000003a0: e888 2ecc 9bac 79bf 9cc4 f6da 6d75 853f
000003b0: 806b 48dd dac9 9bbf 007b 480f 16bd 863f
000003c0: 24ce c8c1 b7f1 9dbf 66b6 e499 9494 9d3f
000003d0: da7b c6b8 318d 9f3f 6e04 a0cc 4f29 9d3f
000003e0: 9a0f 4bb4 00c3 973f fb28 6d41 5218 a5bf
000003f0: 0d2b e416 15d5 a23f 5820 a392 cbdf 7b3f
00000400: 4744 2e6d cca1 9abf c0a9 e852 ad8a 87bf
00000410: 5090 b23e 7493 71bf f9fd 7e5a fd25 a5bf
00000420: 3416 cb91 ed98 94bf 726a 4980 0c53 91bf
00000430: 272b 5bb6 23f4 96bf c997 4abf 90e8 96bf
00000440: a12f e950 4729 a13f 5855 3edb dce8 a1bf
00000450: 32d2 6196 7613 a3bf 181c 16af 72c0 903f
00000460: 524f 2113 8498 993f b4ba 79ea 704c 913f
00000470: e88f 213a ad68 79bf 10f6 0b80 1b7f 6bbf
00000480: 2529 6c98 8ea0 a13f 459a 430c 394e a53f
00000490: 002f 1244 76c1 5e3f 9011 0ffe c764 8f3f
000004a0: 6ccb 038a 5e8d a5bf 942f 4fff 3f1a 87bf
000004b0: 3ad7 3e2e 90fb 943f 3063 4627 9a0f 7cbf
000004c0: a018 5d21 10c2 603f ea2d 1567 a58c 913f
000004d0: a1f7 b1d9 abaf a2bf 7990 d5c8 f139 a0bf
000004e0: 84b0 7e44 4ec1 99bf 3875 6d23 faf8 a4bf
000004f0: ad05 2ac0 dc2a 93bf 02ff e3ff 2d68 a0bf
00000500: 40cc a1a6 cc3c 61bf be81 f881 a991 8dbf
00000510: 8028 a05e c021 7abf 9938 a156 e4ad a23f
00000520: 6c29 8c72 90f5 883f 9187 f350 95fa a03f
00000530: 3a30 5702 c5c9 a2bf 8825 9564 4ef0 7b3f
00000540: 4787 0003 e115 a6bf f1a4 0c01 16d3 a33f
00000550: 3a57 c5a9 1efe a1bf faf0 7941 ade2 983f
00000560: 52f9 10de 3bac 9f3f fde5 d4cf b74f a43f
00000570: da5f 49df c01c 983f a8fd 5251 5f0b a0bf
00000580: c0b3 a371 38fa 72bf ae6c 0721 d611 983f
00000590: 785a eaf7 3c13 79bf e194 5066 5775 a33f
000005a0: 34c0 ed94 ca51 803f 8067 95ae ada1 44bf
000005b0: e89c 0b28 ad1f 86bf 2811 a435 4e10 723f
000005c0: 0615 9caa 4561 96bf 9065 a68e fb20 75bf
000005d0: b9a6 b069 771f 91bf f8e0 fbbc b4b0 a3bf
000005e0: 0112 c3bf 030f a5bf c3f0 70ae 831b a63f
000005f0: e0f1 26eb 08e5 763f 26da af21 9891 a3bf
00000600: 3fd9 ece8 6a2b a23f ef54 afa8 1c1c a03f
00000610: bdb6 a7e1 3e79 a53f ed48 253f 2103 91bf
00000620: c074 09de 7960 5fbf fd4a cd0f e26b a43f
00000630: b4c8 6f7c 3b45 a1bf 5378 1859 4fe2 9cbf
00000640: b8ac 2ea3 b563 753f dc1d 564f 8439 843f
00000650: 76cc acf1 c008 993f 344f 5589 d357 8ebf
00000660: 5428 2a1f 51d1 88bf f620 d3d4 c321 9e3f
00000670: 000e 3c6d 4708 893f dc06 5f04 c1c5 88bf
00000680: a810 8c72 9b72 833f d3eb fa0e 99da a53f
00000690: 8010 daf6 f5bc 5bbf 0b1e d458 9cca a5bf
000006a0: d85e 7be9 fbdc 87bf 583f 5dc7 43a4 82bf
000006b0: cb66 0d4a 364d a53f 29ad 176f 10b9 a13f
000006c0: 6c65 87f1 7d5e a2bf a428 f742 4d84 84bf
000006d0: b7c2 f11f 2195 a63f 36b2 0658 42fc 9a3f
000006e0: b2e3 5da3 394f a3bf c03e 2993 124b 6b3f
000006f0: 8080 3071 0c24 673f d228 6665 003c 993f
00000700: ad78 8328 948d a53f a2c5 c2b8 9803 903f
00000710: b079 799c b4f4 843f 8864 1e9c 9ac2 823f
00000720: c9a7 f3d3 3be6 a23f c185 186b 37a5 95bf
00000730: e08d bafe 3558 893f 1810 f714 db83 81bf
00000740: c068 bf88 97ce 5ebf 2041 633c b468 9ebf
00000750: e88a bc50 63ab 8abf 97b2 68ba dadf 96bf
00000760: d217 07f1 df46 983f 5062 e952 6276 8e3f
00000770: 4277 2d3e 27b5 9f3f 3728 69f4 4a04 9ebf
00000780: 0e86 06fa 299b 943f 3540 5422 0ea0 a43f
00000790: c877 15d5 3fa5 763f 85a2 4979 3f9c a03f
000007a0: ce82 9f94 c167 953f f05b ace9 e638 7dbf
000007b0: 5345 3593 5886 a33f 9255 eea5 c965 9c3f
000007c0: 6e11 9964 b293 9b3f 308b ad00 26bf 9bbf
000007d0: b080 e724 7cca 873f f1e8 5e36 c122 a4bf
000007e0: 12ed 0949 b71d 8ebf c0e4 e7ac 6ad7 8e3f
000007f0: ed99 0713 46bd 91bf 1801 30c2 f4c6 8abf
0.02008240212491818 0.0027903252137443657 -0.014861508410741409 0.022536142667812696 -0.019345551308086854 -0.015538389852075011 -0.011514115273725839 -0.008704019595133693
-0.04397018298317441 0.017547083483691897 0.018024404831631403 0.009064747390236778 -0.02103405479226719 -0.007702437781159921 0.03366395943697147 0.03370433510219898
0.03545888069226542 0.006280657488101804 -0.02493666183289162 -0.019338787674381765 -0.04345892034535864 0.02149613573040942 0.035166100343650274 0.010001672555356195
-0.018764054780292 -0.013113144238154871 -0.021713654774069738 -0.03824164582299048 -0.008928164919736692 -0.022453283944849352 0.03240307664856138 -0.022763333004755738
-0.023940483004872372 -0.007372936875882585 0.017853267258988934 -0.012453913699871089 0.0024148174629834776 0.024629780371184386 -0.02846832312618703 0.02017807011131175
-0.03351057167086477 0.030033303208794805 0.0038710333498903834 0.02230734875237763 -0.03367167426109774 -0.0036704434969269395 -0.031210903745682802 0.0048765963513705615
-0.003238018725874696 0.021397843820345215 0.03367467819713554 0.015452819140698723 0.007785370384537207 0.0008743954673241794 0.0013113133540666663 0.03566929187438541
0.010075910595034814 -0.03289902490375508 -0.0367258782537252 0.03494294647518902 -0.02474267034951649 0.030696600115708954 -0.03306141534407945 -0.001006063292440594
-0.007993253678333881 -0.044184557563180474 -0.023944265579845924 0.023005816582203485 0.03879807398088144 0.03002608273018225 -0.013334531786184836 -0.01617086136079189
-0.04063498894562761 -0.005330948328402169 0.031147556758464444 0.02571439891232028 0.0196683228989444 -0.0054532610381021265 0.016254830387481774 -0.037255433760677456
0.039040949281222474 -0.007850832637338052 -0.028734191369746857 0.008972435752438966 0.0021100984545416104 0.009144152634316456 0.02746326958842136 0.01245908860681539
-0.018571689695932224 0.042253016267921696 -0.022913481609048554 -0.03354929894976881 0.03801757069885494 0.0018549720766448605 0.04018220708249603 -0.0042440373574273715
-0.0398411009258334 0.016505272950272834 -0.015347090734111682 -0.033354077139397406 0.010320933900770143 0.005533164788162154 0.014134769259433987 0.029929530373645825
-0.011936142252354155 -0.04232338152664982 -0.039631740391063854 0.018055858871498444 -0.019672901539458523 -0.02489440029941362 -0.03386665861572343 0.01202021876320037
0.029914727241334156 0.03180261568643366 -0.02148222071557103 0.004865029684109817 -0.00626812799865404 0.010477884526013441 -0.02713720298389033 0.011102840749172227
-0.02924239273325048 0.02888710202494451 0.03081205072669122 0.028477904190371488 0.023204813961242722 -0.04120118187582197 0.03678193954882234 0.006805224615341464
-0.02600783745180404 -0.01149497422473622 -0.004291013795555257 -0.041305463120348614 -0.02011462404586535 -0.01691836865425462 -0.022415693287977902 -0.022371541667460613
0.03351805555993726 -0.03497972656547671 -0.03725786767691765 0.01635913079874393 0.024995864551171927 0.016893162070511905 -0.006203343075046754 -0.003356507979673358
0.03442807779909377 0.04161241793353957 0.0018771796169713695 0.015328943672906076 -0.0420941871142507 -0.011280536631509887 0.02049088747272452 -0.006850816880977814
0.002045661453766348 0.017138084808989186 -0.03649651558315204 -0.03169208122815887 -0.025151465349765548 -0.04096204454865887 -0.018718194226044527 -0.032044827925345146
-0.002104186734010166 -0.014437984732524774 -0.006379844135162682 0.03648294026844318 0.012187126632416244 0.03316179860281843 -0.03669562963077096 0.006820970747250306
-0.04313567315717975 0.038719833019351564 -0.03514190504453869 0.02430220329414199 0.03093045752415808 0.039670700187752296 0.023547185543378514 -0.031336764027851516
-0.004633160099030087 0.02350554062455206 -0.006121862562074136 0.038004618873211056 0.007968504590934435 -0.0006296251350861176 -0.01080260542353391 0.004410081392283417
-0.02185543874567932 -0.005158407826820435 -0.016721597505386685 -0.0384575348561515 -0.0411301776489701 0.04317866806420192 0.005589518392693255 -0.038220171081708096
0.03548750012707779 0.03146447714940758 0.041940655751984114 -0.016613502005676507 -0.0019150915251409523 0.03988558237928961 -0.03373132604601051 -0.028207053959811223
0.005222043534483571 0.00987532965770204 0.02444745516841037 -0.014815952900483965 -0.012117990268297664 0.02942567812422766 0.012222822209429829 -0.012095935769937886
0.009495939667893374 0.04268339450705807 -0.0016930009836935433 -0.04256142219861311 -0.011651962340166674 -0.009102372666944511 0.04160470632514331 0.03461505275830696
-0.035877166493899576 -0.01001797066318872 0.044106516980610015 0.02635291731137298 -0.03771381491873828 0.0033316958227159466 0.002824806500498822 0.024642950238139623
0.04209578508901877 0.015638719822793974 0.010232363724921395 0.009160240067830352 0.03691279375364293 -0.02113806334648927 0.01237528022404083 -0.008552276208213569
-0.0018803100419888946 -0.029696289239667384 -0.013022209073431282 -0.022338311793805046 0.02370786579719903 0.014874237208617164 0.0309644824695774 -0.02931325070157006
0.020123153577179358 0.0402836243539472 0.005528687806274087 0.032442077212924615 0.020903610893472195 -0.007134344103881127 0.03813435360883468 0.027732039215683076
0.026930606260309124 -0.02709636096131901 0.011616678119878848 -0.03932765759187074 -0.014705116192308885 0.015059312249820045 -0.01732358447216058 -0.013074791122563087

bias f8 [2]
00000000: ec5a aa6c 9387 96bf 82ea 46a1 e886 8fbf
-0.02200155592671653 -0.015394036695274286

weight f8 [2, 512]
00000000: a726 1c3e 8768 a2bf 1a09 02e9 bb86 993f
00000010: bf9f 6168 be99 a33f 96a2 37b9 a370 9c3f
00000020: 502c 9526 d9af 95bf a835 1868 7dee 7d3f
00000030: 0088 4bea 3fd5 73bf e0e3 e1f9 b492 683f
00000040: 4469 9785 01ae 883f 00f7 0c66 d80d 2a3f
00000050: 8800 b6ed b8ea 72bf 3add efcf 6115 963f
00000060: 5874 c23c 3039 96bf facc 9f0a 6fca 99bf
00000070: b8be 599f 2517 71bf 348b a672 eb44 893f
00000080: e790 c158 ef4e a23f eaae c49c 3c52 923f
00000090: d052 c3ca ed47 733f f3db 6831 02e8 a23f
000000a0: a48d 1683 2cc1 82bf b464 1052 9feb 8c3f
000000b0: dec6 1998 933b 943f 5c71 b0a8 6c62 9bbf
000000c0: d86d 1fb1 89f0 78bf dcbd 5ef7 1fb5 91bf
000000d0: 370e 1800 d7c4 9dbf e857 2571 4000 8abf
000000e0: da07 1111 5e7b 973f a42a 8f08 b65a 8d3f
000000f0: ade5 cdd2 7f44 90bf b003 9431 b24e 7abf
00000100: 5aab ccc1 6f47 993f fc93 690b 2985 893f
00000110: 0e45 8e17 fe3c 94bf ef8c 71ad 2142 a23f
00000120: a070 e3db 02ab 51bf 28e3 8e98 ce95 703f
00000130: 8c2d 76e4 ae36 913f d1cd 2b3a c042 a23f
00000140: 794d 4456 758a 90bf 48bb f974 5433 903f
00000150: e5a3 364d 2611 a33f 588d 4a7a 365e 803f
00000160: a6b9 aeb4 742f 933f 1673 af74 ff45 903f
00000170: 9e94 4bc7 827c 9e3f 3f71 6a73 ba7e a63f
00000180: 9e75 7456 9fc1 9f3f a613 97f6 5dc3 a0bf
00000190: b19d 2906 3328 a4bf 98a8 0128 49a6 8f3f
000001a0: 435b 4658 8790 a1bf 6c24 fd05 4f83 923f
000001b0: ece5 0448 13c8 a5bf 30ba b27d a0f5 98bf
000001c0: 429b bf11 07a2 a2bf 2451 f683 2032 86bf
000001d0: d226 2ce7 6d79 953f 5c5f 2141 fd24 873f
000001e0: 2ec6 11d6 9790 98bf 194f d121 1045 a53f
000001f0: 581f fb8e 1381 92bf 257b 3253 9a97 a4bf
00000200: 0007 f11f 6486 903f 23ac f6a5 92e9 91bf
00000210: b461 fdae e5e7 a2bf c88c ad27 cb3e 85bf
00000220: 78d0 1738 ed04 853f a87c 92df c0fa 8fbf
00000230: 02fa 2641 d7bb 8abf 5488 ca86 c694 86bf
00000240: 5bb5 ace0 97eb a53f 49a8 0278 a666 9cbf
00000250: 9459 c2b6 c3bc a3bf 49d0 ea2b e272 98bf
00000260: 9235 1bf1 e997 9c3f 68f1 9f00 1b68 843f
00000270: 6680 3e2f a7d7 993f 4a48 6198 44b0 8cbf
00000280: a9ac 013a 333e 9fbf ed80 bb46 60c3 a33f
00000290: 504a e89a 5bfc 813f 7487 3d69 21f9 8bbf
000002a0: 38a1 6a2c 15b8 7cbf b6a3 39bd 55ae 963f
000002b0: e186 acd3 4725 a53f 50c0 60ad dd65 743f
000002c0: 226f e6f3 43cb 953f 305c a744 8125 7b3f
000002d0: b047 f1bf b09c 88bf 382e 3758 8145 8b3f
000002e0: 30b9 d557 39ec 7b3f 0217 c22a b80f a0bf
000002f0: c2e3 4ab9 0724 a5bf 2c64 e196 813a 8dbf
00000300: 6079 028b a5ed 7cbf b7be 3305 07ef a0bf
00000310: 3d5b 6ef3 6be5 a53f 4367 e474 f367 98bf
00000320: dd54 109c 8022 90bf b040 8af8 7866 8c3f
00000330: 56b1 fd10 b44e 993f 5a27 2bf6 47b3 9c3f
00000340: 9788 bce7 4316 a13f c596 4c5b d39e a0bf
00000350: 8fe8 99b6 1778 a03f 1e45 4899 6062 933f
00000360: 6c32 5faa 2a22 87bf 4aa9 0800 fd77 96bf
00000370: 2eff 0ee4 0d53 943f 0b53 503c cd74 a03f
00000380: bc48 b1d5 e460 8e3f f727 a72b 5f2a 90bf
00000390: 5a6f 708f 74b9 96bf e393 8a7e 17c5 9abf
000003a0: bc6e 3737 a771 a1bf 20b2 6cb8 136d 99bf
000003b0: 462c 8814 443d a5bf 0d4a d737 a912 a43f
000003c0: e7f2 737b 33ee a23f afae 191c 0cae 94bf
000003d0: 1de0 b8f5 b785 a53f c048 8082 4ce1 92bf
000003e0: a2eb 71df 7939 953f baeb ee45 7716 953f
000003f0: 606b 6eba 4b4f 75bf 2139 9964 984a a33f
00000400: a8a8 423c dcd3 7fbf 5aaf 8d76 47e7 953f
00000410: ba12 4003 7cb7 98bf b0f3 36d5 b04d 85bf
00000420: c026 090c b975 4abf 48eb 6b72 90ae 7dbf
00000430: 1c1b 1369 34aa 96bf 6ea4 d35f d0ff 93bf
00000440: 7baf 5cac b08e a23f ed12 9709 e4ce a0bf
00000450: e61d 30e3 15e1 933f 8fa2 22e6 b708 a53f
00000460: a543 c97c f392 a13f 2d55 a183 381f a03f
00000470: 006c e0bd d6ad 573f 792d 2f97 e2b6 a4bf
00000480: b05e e232 8c71 7fbf a22c f8e5 a6ea 923f
00000490: bc8a 50e5 75c0 813f 12f7 0000 e01b 98bf
000004a0: c555 9bde 36da 96bf 2027 d629 7a07 87bf
000004b0: c4de ea62 b5ee 8e3f 12b6 ac93 12c4 9fbf
000004c0: f16b 09f2 00c7 a13f f831 719f f56e 8e3f
000004d0: 1623 fb0f 9070 9e3f cb52 d8a0 0d7e 9cbf
000004e0: 70eb d353 79d6 8e3f 2547 2f2d 6691 a63f
000004f0: c484 6814 cce3 8c3f a7c1 91a5 39a5 96bf
00000500: 6071 1cb9 6ad4 553f 10f1 7752 032a 823f
00000510: 4a63 9d21 cb02 a2bf f8f0 a236 3f6b 83bf
00000520: af0d dfc9 525a 99bf 07e9 cb9c d9f2 a5bf
00000530: c966 a7f1 10de a53f a69c 0266 183a a3bf
00000540: c368 72a7 2d54 a6bf 896c 0d55 ff25 a43f
00000550: 0a40 308e 6424 933f 2141 0424 f52c 90bf
00000560: d0cb 4531 c54c 6d3f ca11 6d08 0d97 9f3f
00000570: 054b 83e2 ad49 a33f b075 7309 dbe8 9fbf
00000580: c08b 4477 feff 463f c413 c00f d89e 91bf
00000590: 409c 8442 97c1 7cbf be06 e52e 7ffe 9dbf
000005a0: e05d f873 1e5f 92bf 4e71 5836 3eaf 973f
000005b0: 9848 ce74 8468 84bf a83e 59b6 ef99 72bf
000005c0: 3ada 00ea be77 a3bf fc62 ab99 2c2f 853f
000005d0: 4077 e360 7bfa 7f3f 7acc 1271 67a2 a3bf
000005e0: 40e5 9979 9156 99bf 08e9 7a40 d463 85bf
000005f0: c534 f1c0 b592 a23f 8b4f 2819 359d a2bf
00000600: e0d6 151f 2cc0 9dbf d1e3 378f 60ac 96bf
00000610: 1c66 5a68 186f 803f fb74 050d 037a a13f
00000620: 4034 b1a4 318b 64bf be5f 482a 9d69 9b3f
00000630: c60d 24d7 fdb0 953f b450 9cb6 6ba6 84bf
00000640: 8010 12c8 c096 8cbf 00e1 d1b1 915b 7dbf
00000650: 1243 2a1b 7dc9 9bbf 7231 152a ef56 a4bf
00000660: e3bb 8f83 0ff1 a23f 92fb cddf f378 9c3f
00000670: 3855 664d f065 8b3f ef26 fc15 e84e 9abf
00000680: 020e 2d6c bf14 953f 4817 bb8e 4e45 803f
00000690: 8b80 b90e 4fca 99bf 81a3 e255 66ed 9abf
000006a0: 969b ee3a 9684 94bf b4d9 10b3 ebeb 8c3f
000006b0: f188 62bd bcb4 a53f 8544 a3a4 1879 95bf
000006c0: 2fce 8794 d8fe 9dbf 4580 8e2b dbb8 a13f
000006d0: 4be3 248d 5f12 a6bf e0b2 4cda c618 9bbf
000006e0: 42d8 159e df81 95bf 4608 ff25 1aed 9ebf
000006f0: 064f 470e d879 973f d690 5500 3051 a4bf
00000700: 7e0c 31c8 5131 96bf c804 2ce2 a475 81bf
00000710: 149c 15cc f5c7 913f ae96 f9bd ce6a a5bf
00000720: 9f9c a882 9246 a13f 605d 708e 519e 56bf
00000730: 60aa 4b44 9d88 a0bf 93af ad90 2a10 a03f
00000740: b932 2661 3777 98bf cd46 7527 be9b a43f
00000750: 5981 af71 1379 9abf 0071 dd5a 9fd1 73bf
00000760: e100 1c5c bcbb a53f 20b2 8b2a 5722 873f
00000770: d0f1 9b77 97fb 77bf 4c99 b80d e2c5 86bf
00000780: 4121 3ea9 b99d a13f 2ccd dfa2 3058 923f
00000790: 178c 0498 9a1a 96bf c531 ae28 f7cc a5bf
000007a0: c544 c8b8 e77d a2bf f3ad f1d7 cb00 a03f
000007b0: 4669 53dd af87 973f 044b 4810 3ace 873f
000007c0: a83d cd7f 5435 803f fb58 7763 cec2 a33f
000007d0: a5ed 2c89 d778 a33f e06a 07ba d341 94bf
000007e0: 355a ab4d fb33 a43f 03e5 c585 ca54 9ebf
000007f0: fa31 52b6 1684 973f c8e3 1276 4fc1 8b3f
-0.03595373757532388 0.024928032013584824 0.03828234695612264 0.027773435764091824 -0.02117862031927259 0.007307519788367335 -0.004842042607124952 0.0029996428193581476
0.012050640000712882 0.00019877688012031464 -0.004618379952603509 0.021565941158738534 -0.02170253153655141 -0.025186285994959846 -0.0041724652888743205 0.012338485180242033
0.03575847586106012 0.01789183337056858 0.00470726859585531 0.03692633488792998 -0.009157512426844878 0.014121288959403656 0.0197585164627928 -0.02674264697644567
-0.006088769778183921 -0.017292499039909134 -0.02907119691918877 -0.012695792630136496 0.02293154696622666 0.014333173881728563 -0.015886304131958507 -0.006422706669810305
0.02468657131536687 0.012461014424113508 -0.019763918102005333 0.03566079370718877 -0.0010783698958709911 0.004049117102959333 0.016810162252608715 0.03566551885696934
-0.016153176679904988 0.01582080806695821 0.037240216184109255 0.00799219666197952 0.018735717323289734 0.015892020699413832 0.029771846212402246 0.043935610379068006
0.031012048389234097 -0.03274053225644673 -0.03936919641710846 0.015453883679772226 -0.03430579140256509 0.018079027882127383 -0.04254207853450595 -0.024374492332464637
-0.03639242259651222 -0.010837797190824512 0.020971028551719346 0.011301020193215265 -0.023989078942071078 0.041542533996702775 -0.01807051239191479 -0.04021913781729428
0.016137661408953896 -0.01749257219277579 -0.036925485240036166 -0.01037367548787528 0.010263303064654603 -0.015614992926485563 -0.013053590465344381 -0.011025954235553005
0.04281305902109508 -0.027735329699375453 -0.03854953390070928 -0.023875745707030913 0.02792325529190049 0.00996419044167203 0.02523671365600002 -0.014008079433697546
-0.030510712066114696 0.03859997619088227 0.008782115616701308 -0.01365877249162726 -0.007011492451660488 0.022149409937273844 0.04130005320463482 0.004979959418093996
0.021283208619578116 0.006627564386199089 -0.01201761327516579 0.013316164497971447 0.00681707763338428 -0.03136992952299346 -0.041290513390272135 -0.01427174798679872
-0.007062575008744382 -0.033073634514832966 0.04276597353525922 -0.02383404160455106 -0.015756616139772518 0.01386732586368597 0.024714292084739263 0.028027653121888242
0.03337299541296195 -0.03246174325458421 0.03216623405474294 0.018929967265710272 -0.011295636486374515 -0.021942093970360767 0.01984807686289896 0.03214112626316109
0.014833247920396857 -0.015786635436405985 -0.022191830878099374 -0.026142470453709776 -0.034070229997920504 -0.02483015835893998 -0.041483047014559335 0.03920487219479094
0.036973580188691284 -0.020195187773807074 0.042035816903478664 -0.01843757196918072 0.020727066290855974 0.020593513148678723 -0.005202575505701329 0.03767849185952544
-0.007770405096531409 0.021390072451523558 -0.024137437532788943 -0.010402089602274817 -0.0008074906873584906 -0.007246555562910491 -0.022133654511686904 -0.01953054032211237
0.03624488929776156 -0.03282845131938026 0.019413320533230215 0.04108214077252114 0.034324273092926995 0.031488195484295246 0.0014452550017327592 -0.040457802729714616
-0.00767664685385909 0.01847325113889709 0.008667870579363572 -0.02354383468649874 -0.02231679662403054 -0.01124473037886592 0.01510373790857445 -0.031021394980760127
0.0347214026885111 0.014860075882233467 0.029726267791178783 -0.027824604932976265 0.015057514067384509 0.04407805730410378 0.01410636365204921 -0.022114659052421406
0.0013323824136427173 0.0088691958944698 -0.03517756257378453 -0.009481901030419668 -0.024758618899580472 -0.04286842383403849 0.042709855555313654 -0.03755260701410039
-0.043610979738518484 0.03935239709127198 0.01869351499414055 -0.015796499560623126 0.0035766459861234848 0.030849650992665713 0.03767150297212222 -0.0311617111700479
0.0007019035824992123 -0.017207504235574836 -0.007020560129865905 -0.02929114078256733 -0.017940975025423245 0.0231294365568016 -0.009964976133947354 -0.004541336418313037
-0.03802296263204537 0.01034388393365892 0.00780723757472207 -0.038348419716748475 -0.024744294211335616 -0.010444315164353415 0.03627555828334431 -0.036355647393207034
-0.029053391835495712 -0.022141941777565514 0.008024397549252042 0.03413400205566038 -0.002507779082896039 0.026770072656375758 0.021182981735376825 -0.010083047399838875
-0.013959413629216266 -0.007167405242505476 -0.027135805876755965 -0.0397257555838192 0.03699539643263685 0.02780514768118853 0.013378026353886172 -0.025691629735809348
0.02058695886377216 0.007944692354964325 -0.025185809396476116 -0.026296233169577746 -0.020037028643539033 0.014121858026652535 0.04239454089953821 -0.020969758080188434
-0.02929247290189901 0.03461346537301372 -0.04310892675352437 -0.026461703371000733 -0.0210032406079892 -0.030201347893815254 0.022925735351079467 -0.039681911507416665
-0.021672513812756915 -0.008525169517726985 0.017364349919628166 -0.04183050221471994 0.03374154896692371 -0.0013805195283163804 -0.03229228457151545 0.0313733388528298
-0.023892274193303396 0.04025072318712617 -0.02585249310857427 -0.004838583450546219 0.04244793533689673 0.01129596804227001 -0.005855170887795372 -0.011119619411215219
0.03440647307349077 0.01791454309563993 -0.02158586075632848 -0.04257938739383208 -0.03611683016436865 0.031256075010642 0.022978542216926877 0.01162381517591405
0.007914219045828855 0.03859562839686422 0.03803132581239347 -0.019782360295588997 0.03945908854591488 -0.029620327391488576 0.02296481597709208 0.013552304068399482

bias f8 [2]
00000000: 6013 0a8c 2306 82bf 0e1d 1c35 4d29 9bbf
-0.008800771437799504 -0.02652474056870085
