CS224WFINALPROJECT/saved_models/untrained_vae.pth (torch, 8847 bytes, 9 tensors)

adj_A f4 [10, 10]
00000000: 0000 0000 0000 0000 0000 0000 0000 0000
00000010: 0000 0000 0000 0000 0000 0000 0000 0000
00000020: 0000 0000 0000 0000 0000 0000 0000 0000
00000030: 0000 0000 0000 0000 0000 0000 0000 0000
00000040: 0000 0000 0000 0000 0000 0000 0000 0000
00000050: 0000 0000 0000 0000 0000 0000 0000 0000
00000060: 0000 0000 0000 0000 0000 0000 0000 0000
00000070: 0000 0000 0000 0000 0000 0000 0000 0000
00000080: 0000 0000 0000 0000 0000 0000 0000 0000
00000090: 0000 0000 0000 0000 0000 0000 0000 0000
000000a0: 0000 0000 0000 0000 0000 0000 0000 0000
000000b0: 0000 0000 0000 0000 0000 0000 0000 0000
000000c0: 0000 0000 0000 0000 0000 0000 0000 0000
000000d0: 0000 0000 0000 0000 0000 0000 0000 0000
000000e0: 0000 0000 0000 0000 0000 0000 0000 0000
000000f0: 0000 0000 0000 0000 0000 0000 0000 0000
00000100: 0000 0000 0000 0000 0000 0000 0000 0000
00000110: 0000 0000 0000 0000 0000 0000 0000 0000
00000120: 0000 0000 0000 0000 0000 0000 0000 0000
00000130: 0000 0000 0000 0000 0000 0000 0000 0000
00000140: 0000 0000 0000 0000 0000 0000 0000 0000
00000150: 0000 0000 0000 0000 0000 0000 0000 0000
00000160: 0000 0000 0000 0000 0000 0000 0000 0000
00000170: 0000 0000 0000 0000 0000 0000 0000 0000
00000180: 0000 0000 0000 0000 0000 0000 0000 0000
0.0 0.0 0.0 0.0 0.0 0.0 0.0 0.0
0.0 0.0 0.0 0.0 0.0 0.0 0.0 0.0
0.0 0.0 0.0 0.0 0.0 0.0 0.0 0.0
0.0 0.0 0.0 0.0 0.0 0.0 0.0 0.0
0.0 0.0 0.0 0.0 0.0 0.0 0.0 0.0
0.0 0.0 0.0 0.0 0.0 0.0 0.0 0.0
0.0 0.0 0.0 0.0 0.0 0.0 0.0 0.0
0.0 0.0 0.0 0.0 0.0 0.0 0.0 0.0
0.0 0.0 0.0 0.0 0.0 0.0 0.0 0.0
0.0 0.0 0.0 0.0 0.0 0.0 0.0 0.0
0.0 0.0 0.0 0.0 0.0 0.0 0.0 0.0
0.0 0.0 0.0 0.0 0.0 0.0 0.0 0.0
0.0 0.0 0.0 0.0

weight f8 [64, 1]
00000000: 5d54 892f 5915 ee3f fe32 8760 d799 da3f
00000010: 50d0 da45 c2cb b4bf cdfa cab1 87ed ea3f
00000020: 4a7b 877e 2690 d23f e3ad cdc4 2aa2 e23f
00000030: 528b a967 b791 e4bf a008 edc5 e70e d3bf
00000040: 5c6c 662e c2d2 c43f fcf4 de16 161b dbbf
00000050: 905d 5b01 9321 b8bf a46e 400a 51af e4bf
00000060: bcd2 c96d 9e86 d2bf c410 4ab0 2e35 cf3f
00000070: 00f7 0c34 5596 a2bf c086 16a1 654f bebf
00000080: 8061 d70d 65bc c7bf 76c2 ef15 18da e2bf
00000090: 3a1d b88f f81f d53f 7f13 7cbd 5f3b e23f
000000a0: 3a3f 830d 5b89 e2bf c2f2 2134 639f d63f
000000b0: c5f9 83f5 18fa e8bf 5092 61b9 7552 a83f
000000c0: b23c 098f e288 e1bf 08fc f34f 09d2 bd3f
000000d0: c455 8a4c 4c68 c63f 7e88 d208 ff49 d73f
000000e0: 260b 736c 7c68 df3f d23e 840d 176e e1bf
000000f0: fbf3 665f 46d5 e33f c6ad 9af2 2eb7 d03f
00000100: c84f 2091 9176 e3bf 00af c4ba bb39 e6bf
00000110: 800b a3a0 f5ef a2bf 092f a24c 6ab8 ea3f
00000120: 3c6f 50c7 3171 c23f e0dd e1a1 73a1 a3bf
00000130: 0763 21ce 9ff2 e23f 584f 4033 5ae6 d0bf
00000140: 8417 398c 1529 ddbf fd5d ff31 0e59 edbf
00000150: 9abf a965 04d5 df3f 1c5f ea1e 5841 d4bf
00000160: 58f6 4273 3a92 b33f 504f f443 8d38 b1bf
00000170: a3b8 5fb7 5c43 e73f ff10 a67f 485f edbf
00000180: c594 3537 1dd3 ef3f 1797 6ca6 6a4c e83f
00000190: 537f ac13 f2d4 e03f d4dc 8076 ad3e dfbf
000001a0: f499 0415 76dd e3bf 5d88 3a4e 8937 ef3f
000001b0: e76f 2645 ffe4 e13f d030 d004 f0ad d1bf
000001c0: 9c25 a1a7 24db c03f 363d 50a8 a1df de3f
000001d0: d772 f40c e1b6 efbf ccdd f2fc 1c67 c53f
000001e0: 7456 3db4 bad8 c13f 15dd 86a6 e4e8 ecbf
000001f0: a0bb 975d 5591 e5bf 894c 838e 63ea ef3f
0.940106003613106 0.4156397287995758 -0.08123411374509826 0.8414953682439205 0.29004824024552944 0.5822957843606072 -0.6427876495984981 -0.2977847512121432
0.16268183961514893 -0.4235282157276996 -0.09426230223777154 -0.6464009475925718 -0.28946648332138714 0.24381049735905524 -0.03630319843658292 -0.11839900191128105
-0.18543685127111686 -0.5891228130768258 0.3300763515002988 0.5697478009102354 -0.5792670501632309 0.35347824183535803 -0.7805294795251078 0.047504118804486795
-0.5479595941232189 0.11648615076045143 0.17505792367289363 0.3638913713604167 0.49075232115517264 -0.5446887268062375 0.6197845328639454 0.26118062679116993
-0.6082237085815843 -0.6945475242441432 -0.036986995562549474 0.8350116249798428 0.14407942039621868 -0.03834115363218493 0.5921172166809762 -0.26405959134102863
-0.45563257878927055 -0.9171210266603677 0.4973765366366877 -0.3164882947835268 0.07645001710894783 -0.06726916226426494 0.7269729215165807 -0.9178812497271166
0.9945207670504251 0.759328198477962 0.5259943374876265 -0.4882005364665478 -0.6207838449961955 0.9755293395903767 0.5592037535275239 -0.27624130697291793
0.13168771920235833 0.48239938198908605 -0.9910741093659351 0.16720926619539822 0.1394265537334608 -0.9034293415524269 -0.6739909008009484 0.997361925454599

bias f8 [64]
00000000: 18b5 b898 4fc5 c93f 4247 c9ac 7e74 e6bf
00000010: 108d 34e4 d719 cbbf e2ae e53e 0142 e73f
00000020: b815 16a7 9ae2 e8bf 60c6 a2f1 45cf e33f
00000030: 0693 a2c1 bb7e e23f 547c ed04 c50c e33f
00000040: 8074 e58d 97e1 c7bf 54ae fccd 9d9f dc3f
00000050: 022d c4f5 6d3e efbf d821 b03b fe27 dfbf
00000060: aa9b 730a 1aed e3bf 02e5 f647 8b98 e5bf
00000070: 80a2 1472 42f4 83bf 0ecd 679f fa1e e6bf
00000080: 8443 323d 3a4f e1bf 1029 74a7 e0e2 c6bf
00000090: f460 f921 131e d0bf a490 9fde 5a4b e4bf
000000a0: 601b 4514 e1a8 c9bf 4046 7949 301a a23f
000000b0: 70d8 7255 dfac cc3f 301e 78a1 b01e ccbf
000000c0: 40c2 6d54 11ac b33f 54df ce71 eb49 e3bf
000000d0: c064 d6ec a71e c2bf 0476 47af 17d0 e63f
000000e0: a068 5a4b 6702 eb3f 94d6 3551 be8f edbf
000000f0: 986c 150f 0112 da3f a4d6 5034 d9bd e4bf
00000100: 1a95 f4e4 aa93 e4bf 88ec 8cab 8f76 e4bf
00000110: 34f9 ae7a a1a7 d53f c0a8 e92b f1c8 cd3f
00000120: fcf9 5adc 043b e5bf bc40 5068 077c ee3f
00000130: ac5d 6627 89b3 d63f 0077 bfee d6d0 bf3f
00000140: 80ab fce6 736d bbbf be64 cdca 2618 ee3f
00000150: 0034 8bc5 ca91 6e3f f0a9 2047 8533 ee3f
00000160: 86d2 79c8 69c1 e73f 86c1 cfa3 2648 e1bf
00000170: 807d facb 393c db3f d003 c657 b02f bcbf
00000180: b088 f6db d12e b13f 54ab 4877 0658 e6bf
00000190: e42d b4a5 3537 d43f 6ad9 2ca6 2433 edbf
000001a0: 00c0 6735 001f 55bf 30c6 0efd 7a36 bbbf
000001b0: dc08 4bee 2bd1 e23f c068 69a5 99ff d8bf
000001c0: 1ce2 7f5c 0df1 d6bf d4d1 0022 da2d db3f
000001d0: 5a93 f789 8534 ecbf d04e 2cca 4215 e93f
000001e0: 3886 2bc3 be78 ecbf f6d5 21f3 f62b e93f
000001f0: e8aa 951e 1a9e d8bf 7ca4 42dd 5607 d03f
0.20133395154099598 -0.701720559571392 -0.21172617571674168 0.7268072346173222 -0.7776616347697916 0.6190519065332403 0.5779703885969816 0.5953087898486822
-0.18657202175646503 0.44724221340104475 -0.9763707924006726 -0.4868159850016389 -0.6226930812962241 -0.6748711019091902 -0.00974323187490822 -0.6912816155803811
-0.5409213252297467 -0.1787987535138389 -0.2518356162813824 -0.6341986034499496 -0.20046628465407945 0.03535605332275482 0.22402564689918192 -0.21968658336867142
0.07684429465531029 -0.6027734015287742 -0.1415605455811484 0.712901918737487 0.8440433952084909 -0.9237968050135401 0.4073488852788585 -0.6481748601715549
-0.6430258247170599 -0.6394728041263003 0.33835637074288916 0.23269476551224066 -0.6634544662300068 0.9526402509091194 0.3547079930080723 0.12428038910681138
-0.10713886632281167 0.9404481850607664 0.0037316284545796385 0.9437891377650072 0.7423600116295155 -0.5400574874347945 0.4255508892037696 -0.11010267393977746
0.06712066288176533 -0.6982452707064604 0.3158697241021555 -0.9124930616006115 -0.0012891294514894014 -0.10630005529562747 0.5880336431657969 -0.3906005969380537
-0.3584626582446917 0.4246735889494435 -0.881411332575776 0.7838453243916437 -0.8897394000925436 0.786616778247377 -0.38464978205472145 0.2504479561562858

weight f8 [1, 64]
00000000: 7171 8c6c e5bb bdbf cfd6 aa3b 8ff2 babf
00000010: a260 26ff 3e09 a93f af83 3b3e da6d b8bf
00000020: 10f3 ab5a 9e24 89bf 4ba1 4b2f 1676 b83f
00000030: 8cca 7495 421e abbf fd56 78e5 0c20 b9bf
00000040: 14b1 c8ee 410a b2bf afc1 1bf0 5956 b03f
00000050: c00b 7016 a9be 5e3f 18bd 4a8a 3304 873f
00000060: fa41 acb7 21d8 b7bf 970d cc31 d411 b13f
00000070: 8ac4 a8ef 9b5f a33f f6cf 960a 595b a43f
00000080: 7562 0bed 848a babf 5451 5a95 bb56 903f
00000090: d48f 0a9a 7f1f aebf 57ce 9d4b 2f93 b9bf
000000a0: 6b6d 41f0 1409 b13f 92d6 535d afbf a13f
000000b0: c702 d230 0483 bbbf cffb 3a13 de04 bb3f
000000c0: 35ec 4104 0546 b23f 6213 daaa 4c3f a53f
000000d0: a419 7f3b be54 953f b612 b175 cf44 ac3f
000000e0: 58a2 75b5 5c5b 9cbf 50c8 a77a a4c3 723f
000000f0: 4d86 0211 4654 ba3f 2221 28ee 27b6 a33f
00000100: a411 c081 5a3b a5bf 5b1e 14d7 06bf b63f
00000110: 63af e619 b445 b13f f463 bb89 4e12 a3bf
00000120: 1176 8308 3e8e b73f 6ab8 47ec 28b6 a73f
00000130: 8d81 a287 5b63 bf3f 86d7 9b1c b0f4 b0bf
00000140: 3d19 0080 54ad bebf 00de d41c a9d3 43bf
00000150: 4fd7 5905 bbb0 babf ec15 e1a4 7a9f abbf
00000160: f497 986f 41c7 973f ff8d 8b57 48b0 bb3f
00000170: 006f a3ad 441a 5dbf ec1b 20ff 2e06 993f
00000180: 08ac 3839 2821 acbf f6d6 d96e 42f1 aa3f
00000190: f2a2 f962 2202 a23f 5e2e c66e fcce b2bf
000001a0: 741b f9ff 3d6a aabf b51a ca19 f06a b23f
000001b0: 18d1 0f9a ae7e b5bf a09e e403 b6e9 b2bf
000001c0: f4ba 52ee 9a67 adbf 20f0 3891 c204 99bf
000001d0: e318 83ba 4776 be3f c657 917f c251 b7bf
000001e0: 7ccb 5c24 38e4 aabf 21aa c51b 2541 b73f
000001f0: 3895 f365 d30d 8d3f 0314 e471 faa3 b03f
-0.11614831829178286 -0.10526366430971311 0.04889866699812841 -0.09542621631000146 -0.012276875631408696 0.09555185942338544 -0.05296524118820853 -0.09814529993340311
-0.07046901778875664 0.06381761657735895 0.0018765116926722086 0.011238482148967097 -0.09314165815545286 0.06667829719304162 0.03783881474044744 0.03975942854177099
-0.10367613589495213 0.01595585917546434 -0.05883406405817451 -0.09990211101631395 0.06654482713331837 0.03466556562663671 -0.10746790115264125 0.10554302186481766
0.07138091424887778 0.04149856172174428 0.020831081754090555 0.055212481609975425 -0.027692268920335245 0.004581110474179154 0.10284841456680134 0.038499114820355965
-0.041468456591277986 0.08885233641569228 0.06746984131194504 -0.03724904471682314 0.09201419551705949 0.046311644404213606 0.12260982571979735 -0.06623364160972586
-0.11983230710038568 -0.0006050658936719855 -0.10425919418943617 -0.05395110380826992 0.023221037327083097 0.10815860879261406 -0.0017762823759345792 0.024437650987262957
-0.05494046877387154 0.05262191394005626 0.03517253359024676 -0.07347085670897388 -0.05159181356116607 0.07194424275995 -0.08396426450037031 -0.0738786468033319
-0.05743106993883443 -0.02443222056739114 0.118992312464886 -0.09109130491682924 -0.052522425116328514 0.09083778312712144 0.014186526821911558 0.06500211029567997

bias f8 [1]
00000000: 6c2a 0020 eb9e a6bf
-0.04418120160706426

weight f8 [64, 1]
00000000: a7db 60dc e638 ebbf e457 eb9d ab9b c93f
00000010: 1019 e979 d0ab b4bf 52b5 e0b8 6e61 df3f
00000020: 4ddc ab2b 4e03 eb3f 2bdd e21c 96ff e53f
00000030: 42ba 8bf3 79b6 d73f 683c 9818 6eac bd3f
00000040: 47b9 140c dadd e8bf 4a51 7b78 ae60 d13f
00000050: 5166 c215 6303 e53f d84a 7fac dd85 b53f
00000060: 22c3 aff9 5616 dd3f 70b0 d52b 3485 cabf
00000070: 4a90 55a5 3e0c e5bf 379c ce36 9382 ea3f
00000080: 78f9 4c48 a200 cebf 8c10 9e0f 2d4b e2bf
00000090: 5440 8516 ffe0 e2bf 1f08 16d0 7ffc ee3f
000000a0: 707d 7c73 579e dbbf a087 4715 8776 dabf
000000b0: 82d6 a03c 16cb e5bf 68d6 bcc3 e0d9 cabf
000000c0: 2071 b76a dd3d d5bf b9d8 3ca6 b6e6 e73f
000000d0: db95 170a f72e ef3f c0be f8ff 5117 e6bf
000000e0: 70db 5360 d9ee e3bf 5237 2b26 714c e2bf
000000f0: 3016 d4ea 909f c9bf 10d7 e6a3 5c53 e4bf
00000100: 2451 ec2c 2e62 d7bf 9555 81f7 8076 ee3f
00000110: 70b1 54d8 8cf4 d1bf c099 868a cd3d e2bf
00000120: 1b5e b6c2 55bb e23f c7b5 635f 535c ebbf
00000130: a3ff 36ea 293a e73f a827 ed1c eeca dcbf
00000140: 98b7 a562 3b4e bd3f 0d05 b14e a684 e93f
00000150: 7984 fc75 915f e03f eca7 396a c995 d9bf
00000160: c09b ec47 fef7 c8bf 74ce dd7d 7966 c53f
00000170: 2a52 f63a d7fe dd3f b2cc 7e81 f6b7 e4bf
00000180: b22e 0bb3 7245 da3f 4c12 1437 d2a8 c73f
00000190: 4082 2567 7a19 a9bf 4a26 4f97 9cc4 e7bf
000001a0: 3afa dd12 99a9 e7bf 23a6 4cae d3e6 ee3f
000001b0: 78ab 372e 2b4a d2bf 76fa eaa8 ccf8 d23f
000001c0: 98f3 50ff 511b b43f 24e3 961c 5141 dabf
000001d0: 0778 68f0 07b4 efbf 98e2 2706 6a27 cdbf
000001e0: fc78 2ea1 a352 debf d3ab 556f 8c5a e43f
000001f0: 5f46 9e7f 6b58 e63f 7590 a076 bdf8 e83f
-0.8506960205330544 0.2000631829347973 -0.08074667908030997 0.49032180838078887 0.8441534855800313 0.687449509065947 0.37051247390528286 0.11591232395606854
-0.7770815120655151 0.2715259720400992 0.656663458346154 0.0840738817344503 0.4544885099740431 -0.2071900571858154 -0.6577447156128156 0.8284393377733811
-0.2343943455725357 -0.571676760199368 -0.5899653854230658 0.9683226646595847 -0.43153940465886986 -0.4134843547636766 -0.6810408767839393 -0.20977410848142886
-0.3319009344247821 0.7469132658796048 0.9744830319511338 -0.6903467177816864 -0.6229063874624057 -0.5718312974438311 -0.20018207041009495 -0.6351760102467967
-0.36536745440504803 0.9519657930456328 -0.2805511581998621 -0.5700442987043104 0.5853680422760051 -0.8550202239109063 0.7258500647076186 -0.4498858721241228
0.11447497518903871 0.7974425827925714 0.5116660408422283 -0.39976725934559343 -0.19506815444876047 0.16718977590391015 0.46867924459482657 -0.6474564103322307
0.4104887722466898 0.18483951272368626 -0.04902250775444772 -0.7427504496819861 -0.7394528740404163 0.9656771091733315 -0.28577689660476535 0.29643551345717556
0.07854187472635343 -0.410236623687114 -0.9907264419050542 -0.22776532459808574 -0.4737938951528944 0.6360532927040999 0.6982934467834631 0.7803637806832869

bias f8 [64]
00000000: cc32 a5e8 5f8d efbf ba5e e994 0713 edbf
00000010: 3cf1 32da 1647 d7bf 6ebe 3da5 2a17 e2bf
00000020: 98c7 e57e 9f16 c9bf 181d fc38 e6ed d23f
00000030: 9c3a 7609 9888 d63f 1af8 83aa 114d ef3f
00000040: 0e07 faf7 f18f ef3f f077 3068 a1ed ee3f
00000050: f0c3 fe5c 2cf4 ed3f b26f 5806 9fbe ee3f
00000060: 1877 c1a4 44b8 c03f a2b9 3893 0d3e ea3f
00000070: 580c 7cc9 70b4 eabf 20fc 937e 935d b93f
00000080: c039 e82d 0e27 dabf 406e b31f 1c87 a93f
00000090: d26a f503 25e2 e2bf 0808 5e6e 3142 ec3f
000000a0: d8e7 e9f8 c814 e13f 522d 3995 9ced e5bf
000000b0: 60e3 61f8 e761 b53f d821 974f cc3e e9bf
000000c0: 94a5 01c7 8475 d13f 4873 3ad0 31aa c6bf
000000d0: c6f7 2d0d c804 e9bf 1a55 7f46 bc68 e7bf
000000e0: 48ac afc1 5186 cbbf ac26 56f8 6757 e23f
000000f0: 1cc0 a703 dbe7 d93f c42f 2504 a429 d43f
00000100: d86a f213 25e2 d13f a606 2cd2 001f e73f
00000110: 70b1 7f49 1e6a d0bf 5072 fd30 453b d93f
00000120: e037 61cd eabe e33f 043f 39c2 f965 e4bf
00000130: f8ed 8627 a846 c9bf e0e6 43c0 5c4f cdbf
00000140: a097 6f23 892a e13f f07a 687f 0507 b43f
00000150: da21 e793 1585 e23f 78cf 3ea5 a115 d03f
00000160: aa93 0d48 4911 e0bf 84c1 e966 02ff dbbf
00000170: 746c 7665 d7e0 e9bf 8864 1673 ec15 eebf
00000180: 7853 e268 df92 cd3f b4da e1b2 7229 d5bf
00000190: 7057 8560 98c5 c4bf 6cc1 dbf8 1de5 eebf
000001a0: f858 76bb ebb8 c8bf fad2 0d64 a970 e6bf
000001b0: c839 06c4 1997 ec3f 029f 5180 741e e73f
000001c0: 0040 6eb5 d6b8 8c3f a02f 20c2 60b3 d2bf
000001d0: 0049 50a8 9bae 983f ec72 d0fd 701a debf
000001e0: 40ff cbe7 4ade 91bf 3824 bdf7 ec58 c7bf
000001f0: 78f3 6e31 5025 ef3f 7074 4906 85d6 d03f
-0.9860076469281807 -0.9085729511670799 -0.3637139445161386 -0.5653279521338399 -0.19600290008707755 0.29577022137569164 0.352087029686041 0.9781578379040667
0.9863214343351687 0.966507628912721 0.9360563103019768 0.960769188302484 0.13062341732705174 0.8200748324796232 -0.8345264373059633 0.09908410873684703
-0.40863375170820504 0.0498589314172162 -0.5901055409734346 0.8830802112208866 0.5337872373195252 -0.6852553286093246 0.08352517904303403 -0.7889157824038717
0.27279776987287474 -0.17706892650030626 -0.7818336732304878 -0.731535089197368 -0.21503660161337934 0.5731696939776234 0.40477633816681347 0.31504154591379696
0.2794277853769649 0.7225345711633124 -0.25647694757096584 0.3942425707262247 0.6170553218196311 -0.6374481957845721 -0.19746877603562019 -0.2289844454569936
0.5364423458201948 0.07823213921117733 0.5787456406333675 0.25132027756921316 -0.5021101386342839 -0.4374395375262099 -0.8086964589778192 -0.9401762244989564
0.2310446989182784 -0.33065478772133905 -0.16228012764866717 -0.965468393375017 -0.19314333585197807 -0.701252646844835 0.8934449032402023 0.7224676614978025
0.014024426853012528 -0.29219836194601534 0.02410357680134556 -0.4703638533263035 -0.01744954147125033 -0.1824012956297183 0.9733048406120437 0.2630932389636831

weight f8 [1, 64]
00000000: 98bf dba1 ed92 acbf 40b8 2c30 fce8 97bf
00000010: ca1e a5f3 b545 a63f 696b c2ea 9259 b43f
00000020: be98 68f3 74be b4bf 0c56 603b e2e5 a1bf
00000030: 1e21 1969 7b09 a23f 4e6d d7bb d9c3 a23f
00000040: 7972 a458 f036 babf b57b c804 abd1 bf3f
00000050: 859a 392c d83c bc3f 6005 3db8 ca3c 93bf
00000060: d0da c9b1 8c6b 89bf ff11 ceb1 bf29 b13f
00000070: 4ae5 24a3 f4a2 b7bf 8811 5a49 53ee a9bf
00000080: 943e 128f 48be 913f 589b 28ec c78f 98bf
00000090: 6e77 7591 979f ae3f 4055 6315 11c4 5a3f
000000a0: fcff c83b 7631 913f 6505 afd9 d13a b23f
000000b0: 9c2e a823 6527 a1bf e593 4cfb 94d8 be3f
000000c0: d453 88c1 1357 9b3f fce2 c90f bf0a 933f
000000d0: 983b de0b b292 a3bf 3f30 42d4 9cb5 b33f
000000e0: 8b33 2559 e6d8 ba3f a8dc a60c 3dd1 b7bf
000000f0: 38c6 16bb 21e6 93bf 3075 dd18 d754 82bf
00000100: e020 433b 4aba 6d3f 45ff 5bb6 8d24 babf
00000110: c09b 326f 16a9 60bf 30d8 5141 7134 713f
00000120: 5927 c0a6 2803 ba3f 6298 bab4 8d36 b3bf
00000130: 8efa b4a3 dc05 ac3f 84aa bdbd 2d61 b0bf
00000140: 3cf8 2eaf ed07 a2bf 3273 795e c877 ab3f
00000150: d9ea 32d2 3d4b b03f f0e8 1256 4745 94bf
00000160: 6ecb 3466 b8dc b1bf 91b0 e83e 4ae6 b9bf
00000170: 1415 26d0 cbf3 b2bf 80c6 b35b 327d 71bf
00000180: 3c05 b60d 610a b5bf 6598 0f29 b5dc b43f
00000190: a471 4891 3208 b5bf 79fc db0d a07d b83f
000001a0: ba6c f3ec f296 a33f 7886 7b45 ac7f 8f3f
000001b0: 131b 0005 0025 b23f e550 2862 6960 bfbf
000001c0: 88b6 8b11 e33a a0bf 4c85 7dfc e5a7 adbf
000001d0: 88a9 632f 280c a5bf 44c5 6576 7cb0 9d3f
000001e0: 5856 6238 cf3a 9bbf e0da 9a0d 4645 8fbf
000001f0: 48e6 2146 f024 b7bf 512d b550 8296 bb3f
-0.05580847359476521 -0.023349705162381662 0.04350060080701963 0.07949178916389389 -0.08103114073364545 -0.03495699858482845 0.03522859247147124 0.036650470905181906
-0.10240080036278155 0.1242930304219801 0.11030341224395997 -0.018786590094582833 -0.012412165809320724 0.06704328623715837 -0.09233025534640152 -0.050646403030472575
0.017327436191918524 -0.023985980786302846 0.05981134081478855 0.0016336600142968366 0.016790244482990588 0.07121001781981347 -0.03350368557229652 0.12049227843506534
0.02669936054924789 0.0185956815134629 -0.03822857279657582 0.07698993856519197 0.10487212826156005 -0.09303647574312157 -0.019432570499424012 -0.008950882383653352
0.003628869040856228 -0.10212026312001139 -0.0020337522669992836 0.004200403597783661 0.10161069937762814 -0.07505117094351157 0.0547322225415786 -0.06398282892556933
-0.035216739306165284 0.0536482444119656 0.06364809400376305 -0.019795527103931343 -0.06977417464513078 -0.10117019687521835 -0.07403253394848647 -0.004269787513509038
-0.08218962273351321 0.08149273159469457 -0.08215633437106945 0.09566688860285123 0.03826102392641802 0.015380235548437357 0.0708770763595619 -0.12256487509177168
-0.0316992720525891 -0.057921588012286834 -0.04110837534411177 0.028993553854381973 -0.026591527763761696 -0.015268847742260616 -0.0904073878499726 0.10776533575442683

bias f8 [1]
00000000: 388e c007 f412 a8bf
-0.04701960177069647
