CS224WFINALPROJECT/saved_models/untrained_vae.pth (torch, 90328 bytes, 11 tensors)

adj_A f4 [50, 50]
-1.1258398 -1.1523602 -0.25057858 -0.43387884 0.84871036 0.6920092 -0.31601277 -2.1152196
0.32227492 -1.2633348 0.3499832 0.3081339 0.11984151 1.2376579 1.1167772 -0.24727765
-1.3526537 -1.6959313 0.5666505 0.7935084 0.59883946 -1.5550951 -0.3413603 1.8530061
0.7501894 -0.58549714 -0.17339702 0.18347792 1.3893661 1.5863343 0.94629836 -0.8436768
-0.6135831 0.03159274 -0.49267703 0.24841475 0.43969586 0.112411186 0.64079237 0.44115627
-0.10230965 0.792444 -0.28966758 0.052507486 0.5228604 2.3022053 -1.4688939 -1.5866888
-0.6730899 0.8728312 1.0553576 0.17784412 -0.23033547 -0.3917544 0.54329467 -0.39515752
-0.4462172 0.7440207 1.5209795 3.4105027 -1.5311843 -1.234135 1.8197253 -0.5515287
-0.569248 0.9199713 1.1108161 1.2898738 -1.4781743 2.5672328 -0.4731198 0.33555073
-1.629326 -0.54974365 -0.47983426 -0.49968216 -1.06698 1.1149396 -0.14067143 0.80575365
-0.09334823 0.6870502 -0.83831537 0.00089182175 0.8418941 -0.40003455 1.039462 0.3581531
-0.24600095 2.3025165 -1.8816892 -0.049727023 -1.0449786 -0.95650053 0.03353186 0.7100866
1.645867 -1.3601689 0.34456542 0.5198677 -2.6133225 -1.6964747 -0.22824168 0.279955
0.2469264 0.076887004 0.3380058 0.45440176 0.45694077 -0.865371 0.78130794 -0.9267894
-0.21883368 -2.4350653 -0.072914526 -0.033986602 0.9625183 0.34916824 -0.921462 -0.056194782
-0.6226985 -0.46372217 1.9217824 -0.4025455 0.12390248 1.1647835 0.9233735 1.3872952
-0.88337576 -0.41891345 -0.8048267 0.5656091 0.6103646 0.46688354 1.9506571 -1.0630985
-0.077325754 0.116398655 -0.5939906 -1.2439286 -0.10209263 -1.0335484 -0.31263885 0.24578549
-0.2596415 0.11833705 0.24395832 1.1646006 0.28857586 0.38659775 -0.20106392 -0.117926985
0.1921991 -0.7721569 -1.9003456 0.13067743 -0.70429415 0.31472096 0.15739289 0.3853627
0.9671457 -0.99108285 0.30160546 -0.10731688 0.99845636 -0.49871477 0.7611109 0.61830086
0.31404856 0.21333301 -0.12005083 0.36045974 -0.3140355 -1.078708 0.24081051 -1.3962274
-0.06614456 -0.35835508 -1.5615617 -0.3546433 1.0810726 0.13147806 1.5735376 0.78142935
-1.078658 -0.72090983 1.4707925 0.275635 0.66678107 -0.99438965 -1.1893647 -1.1959498
-0.5596301 0.5334718 0.40688664 0.39458653 0.17151096 0.87604475 -0.2870874 1.0216401
-0.07439491 -1.0922236 0.3920264 0.5945261 0.66227406 -1.2063024 0.6074397 -0.5471568
1.1710892 0.097496286 0.96337426 0.8403232 -1.2536547 0.98683614 -0.49465504 -1.283043
0.95522183 1.2835777 -0.6658616 0.5651337 0.28770372 -0.033375256 -1.0618885 -0.11442617
-0.34333584 1.5712649 0.19161488 0.37994194 -0.14475746 0.6376179 -0.28129008 -1.329876
-0.1420107 -0.5341458 -0.523379 0.86150426 -0.8869631 0.8387747 1.1528952 -1.7610976
-1.4777428 -1.7556711 0.0761662 -1.0786035 1.4403417 -0.11059419 0.57686025 -0.1691741
-0.06402487 1.0384256 0.9068235 -0.47551355 -0.87074417 0.1447429 1.9028565 0.3903958
00000000: 851b 90bf 8a80 93bf d64b 80be 5e25 debe
00000010: 1545 593f 8427 313f 6dcc a1be c25f 07c0
00000020: 3801 a53e f4b4 a1bf ff30 b33e bac3 9d3e
00000030: 776f f53d 936b 9e3f 8ef2 8e3f 5a36 7dbe
00000040: c223 adbf 4714 d9bf 0210 113f 5e23 4b3f
00000050: 8b4d 193f 5b0d c7bf c7c6 aebe 4e2f ed3f
00000060: 6a0c 403f 24e3 15bf fd8e 31be a3e1 3b3e
00000070: c0d6 b13f 010d cb3f 9c40 723f 34fb 57bf
00000080: c813 1dbf 6467 013d 2a40 fcbe 7060 7e3e
00000090: d11f e13e d637 e63d f80a 243f 3cdf e13e
000000a0: b987 d1bd 9cdd 4a3f 4f4f 94be 1712 573d
000000b0: 2eda 053f 5557 1340 b704 bcbf 9e18 cbbf
000000c0: 9f4f 2cbf de71 5f3f f515 873f c51c 363e
000000d0: 10dd 6bbe 0894 c8be 5c15 0b3f 1652 cabe
000000e0: 9576 e4be 2478 3e3f 75af c23f ad45 5a40
000000f0: d9fd c3bf 23f8 9dbf c2ec e83f fc30 0dbf
00000100: 3dba 11bf 3d83 6b3f 392f 8e3f 961a a53f
00000110: d134 bdbf 8b4d 2440 c23c f2be 4ecd ab3e
00000120: c18d d0bf 00bc 0cbf d6ac f5be 57d6 ffbe
00000130: cd92 88bf 57b6 8e3f 2c0c 10be df45 4e3f
00000140: 5b2d bfbd 86e2 2f3f d69b 56bf 25c9 693a
00000150: 5f86 573f 54d1 ccbe 170d 853f d85f b73e
00000160: ace7 7bbe 6e5c 1340 31db f0bf 90ae 4bbd
00000170: dcc1 85bf 38dd 74bf b458 093d 3cc8 353f
00000180: c5ab d23f 041a aebf e16a b03e 0d16 053f
00000190: ad40 27c0 1526 d9bf 30b8 69be 4356 8f3e
000001a0: 46da 7c3e ef76 9d3d 190f ad3e 59a7 e83e
000001b0: 24f4 e93e f488 5dbf cc03 483f 1242 6dbf
000001c0: f015 60be 1cd8 1bc0 3654 95bd 8935 0bbd
000001d0: 9967 763f 2ec6 b23e efe4 6bbf 802c 66bd
000001e0: 2b69 1fbf fe6c edbe f7fc f53f 721a cebe
000001f0: 95c0 fd3d a017 953f 3562 6c3f e492 b13f
00000200: ea24 62bf d37b d6be 1f09 4ebf c2cb 103f
00000210: db40 1c3f 5c0b ef3e 22af f93f 9d13 88bf
00000220: f75c 9ebd 6b62 ee3d c50f 18bf 0d39 9fbf
00000230: f115 d1bd 504b 84bf 3312 a0be 31af 7b3e
00000240: bbef 84be b25a f23d 36d0 793e a211 953f
00000250: 37c0 933e 24f0 c53e b3e3 4dbe b483 f1bd
00000260: d7cf 443e 13ac 45bf 863e f3bf 4ed0 053e
00000270: 9f4c 34bf 1b23 a13e 9a2b 213e 434e c53e
00000280: dc96 773f 9bb7 7dbf 086c 9a3e f4c8 dbbd
00000290: d69a 7f3f 8b57 ffbe 2ad8 423f f748 1e3f
000002a0: f9ca a03e f873 5a3e 36dd f5bd 2e8e b83e
000002b0: 43c9 a0be 1b13 8abf 0897 763e 94b7 b2bf
000002c0: cd76 87bd 517a b7be 41e1 c7bf ce93 b5be
000002d0: 9660 8a3f 2fa2 063e ae69 c93f c10b 483f
000002e0: 7711 8abf 8c8d 38bf ee42 bc3f 0820 8d3e
000002f0: 2ab2 2a3f 5290 7ebf 1a3d 98bf e214 99bf
00000300: eb43 0fbf 9c91 083f 7253 d03e 3f07 ca3e
00000310: 92a0 2f3e 7844 603f 1ffd 92be 1ac5 823f
00000320: 5c5c 98bd fccd 8bbf afb7 c83e dd32 183f
00000330: cb8a 293f 1e68 9abf 2b81 1b3f 7812 0cbf
00000340: 40e6 953f 22ac c73d b29f 763f 6c1f 573f
00000350: c277 a0bf 4ba1 7c3f 6d43 fdbe c13a a4bf
00000360: 6b89 743f 464c a43f e875 2abf 9aac 103f
00000370: e74d 933e 7eb4 08bd f6eb 87bf 4558 eabd
00000380: b7c9 afbe 351f c93f b136 443e c087 c23e
00000390: 4d3b 14be ed3a 233f 4105 90be 6039 aabf
000003a0: 416b 11be c7bd 08bf 2bfc 05bf 8b8b 5c3f
000003b0: 0410 63bf f0b9 563f 1292 933f a56b e1bf
000003c0: ad26 bdbf d5b9 e0bf 06fd 9b3d ae0f 8abf
000003d0: 1e5d b83f 357f e2bd 1dad 133f fa3b 2dbe
000003e0: 791f 83bd 21eb 843f 9625 683f 8376 f3be
000003f0: 17e9 5ebf 7c37 143e cd90 f33f f5e1 c73e

weight f8 [512, 5]
0.26287995338405035 0.14757966143077883 -0.26395324793468733 0.2510850867339941 0.29016770147510307 0.22606981136753102 0.38960619247463957 0.0700963136305115
0.034249192338189405 -0.061860171565523536 -0.4370956936900629 0.3323598549957574 0.11931438881723244 -0.26742686956050216 -0.24829107193356517 -0.16794126588540148
-0.345202045157178 0.4031090431914458 -0.2450974448928833 0.20892059187835232 -0.41543172201791917 -0.41386320771634033 -0.11443648903831738 0.14120274326852655
0.2169734596914077 0.04010580345325804 -0.10800198529967353 -0.3007517549907859 -0.26891478699888527 -0.3924543200396644 0.05069390475517227 -0.05486042195814361
-0.4219640040970573 -0.39257503329413124 0.3359170303177723 0.3587706116495546 0.2030576579961365 0.40403726837245857 0.24872015093183641 -0.4092418681921371
0.40603749392909927 -0.1984933240615307 0.3135610940253668 0.14051340177635863 0.09293611772164634 -0.36227828073163204 0.033203679371008155 0.22024494635784553
-0.36189336551603835 -0.16528488251828538 -0.29514653716446765 -0.24102189564143014 0.3673272680109354 -0.40580140092074574 -0.032041130722063715 0.3654232718062109
-0.21537703443822323 0.16335106492599394 0.038387533857549005 0.04098277675592071 0.1637837012062091 -0.2778445087886354 -0.40363193546969645 -0.41015488878935275
-0.2798727316849462 0.11514366097734918 -0.026759984907195 0.307578520521696 0.21828781643647588 -0.11737959994235386 -0.1953082465575775 -0.08514725316943245
0.21076362974216933 0.23094004132145252 -0.4050689201143843 -0.3411395266294349 0.1830193888887447 -0.44600011495654124 -0.2122775570136491 0.23234037142135155
-0.04706728953379047 0.12065212859529617 0.004718410328106493 -0.2754503750571433 -0.3299424804652509 -0.33519207804000245 -0.008094675806883334 0.3425133387327781
0.41204449991847536 -0.37543017932349265 -0.06985878465792844 0.18489033927480614 0.43537611155669464 -0.32033287054612103 0.3228681210480283 -0.0011914687716436667
0.36180245932108923 -0.2970675688438853 -0.22539137466751977 -0.09331475042256732 0.4279650227229099 -0.06829021189387235 0.40057927519438774 -0.22699361857470698
-0.3678329807198172 0.29415161195622164 0.2559927320501304 0.2391358896852508 0.15287445295298352 -0.1579571894481196 0.12598899312806477 0.10704991609915337
-0.15459216510467927 0.40588503695846223 -0.10869006155336619 -0.3183960962937037 0.335773514293066 0.33651820261934495 0.09365002384077692 -0.428122997775838
-0.20136207495475542 0.23041204231692847 -0.11689318684262273 0.29945377169358756 0.05204251997570031 -0.1852419657171202 0.35907965252454754 -0.4309160280717786
-0.38039080532920777 -0.209036605993258 -0.38626360342256405 -0.41137533023713313 -0.12962963070307848 0.41210861936738596 -0.15863041819643092 -0.33847034823150396
0.2896184351255662 -0.43129216955420663 0.12021318265339964 -0.39774467046475287 -0.3077751026829494 0.32491213839552324 -0.23829940558939106 0.11084371834757478
-0.27339125381433255 0.16042429532054014 -0.2014921532261161 -0.3710573794110502 -0.10765225064745759 0.0802471199504341 -0.0805437287202656 -0.3359227926109911
0.4372685435833874 0.12691684479045173 -0.11711145584614802 -0.41920782541015006 0.14424974302471183 -0.41173727591325954 0.26318051966797307 0.4132568616608786
0.22175799809227537 0.3011659458935281 -0.11137254767451732 0.08788039767567501 0.25724448717744997 -0.20014692079557678 0.3046640750613435 -0.11571745600803973
-0.3586109865709942 0.40309387914958006 0.07762131784809312 0.20318128860416984 -0.2168825953570436 -0.012834706676024432 -0.2962396596378013 -0.027127735485799442
-0.0022755880312639865 0.11220750927491074 -0.24074643633150877 -0.2605169463714276 0.44574229620231 0.13425966927260025 0.33514081035164844 0.1749029759313081
-0.3720878650089288 0.10227940705055838 -0.04869847475706829 0.4182137815449827 -0.11086288034168446 -0.3255215727400883 -0.3701802608523084 -0.41344510271793367
-0.08668978190058657 -0.3362788345889366 0.15522498781510763 0.2917069312131596 -0.3249874572237254 -0.22101504562943794 -0.050006265164608765 0.19048223660341523
-0.14846027065517092 -0.4235433650499485 -0.38210674643614406 0.05790538200666284 -0.03178509619686448 -0.31816278351728444 -0.43983081848680267 -0.1530452986604715
-0.4295118866602478 -0.1505992833924325 -0.18896987542039972 -0.08111034645159015 -0.19165909511266654 -0.0345992483864494 -0.443665933694084 -0.19344028458171625
-0.11040517708627495 -0.330492204129742 -0.2298344289498502 0.10744993112798751 -0.44413933600487493 0.2822509524865736 0.08783584171522607 0.23639633183522302
0.3716336713617545 -0.44513721489886543 -0.12365474199182519 0.1632011439845623 0.00025738299921906904 0.12193864310934222 0.26819195481183755 0.10855933079989422
0.17216794832546045 -0.17741474054339856 -0.30405068219650605 0.40475664010325363 0.2208620335789655 -0.1668108385254335 0.03622450156383583 0.3470125855982601
0.23395493686950253 -0.07732515418677582 -0.4179502698595783 -0.30743580989162994 -0.18280715922296326 0.08933301208299582 0.3212684872266369 -0.03960526857887475
-0.030564078401101258 -0.05756553757265498 0.44302347831082267 0.07163299216047614 -0.2630156245091679 -0.027928419862239207 0.4260994073354387 -0.0754394862175477
00000000: 7abe a370 06d3 d03f 7c31 b3ed e3e3 c23f
00000010: 885b e329 9ce4 d0bf 024b 022f c711 d03f
00000020: 4e3a 0c8d 1b92 d23f 18dd 3707 dbef cc3f
00000030: a2d9 bfcf 4eef d83f 10fb 9cfe d4f1 b13f
00000040: 488d 0332 1c89 a13f d805 99eb 22ac afbf
00000050: 9fc2 6737 60f9 dbbf f471 ed44 6245 d53f
00000060: a888 e945 638b be3f 7f60 b596 851d d1bf
00000070: 09f6 eb78 00c8 cfbf bc35 5072 197f c5bf
00000080: e097 9d51 ca17 d6bf c2a9 4edf 89cc d93f
00000090: cff4 1263 5a5f cfbf d80b caf2 e8bd ca3f
000000a0: 616d f2ee 6e96 dabf 9232 8a1b bc7c dabf
000000b0: a07d e3b1 b54b bdbf a0ce 3876 ee12 c23f
000000c0: b8be bc4c c9c5 cb3f e84f 6c74 bf88 a43f
000000d0: 38e2 c3a2 04a6 bbbf 189a f949 843f d3bf
000000e0: 908b e45d e635 d1bf 38a2 6fb9 f81d d9bf
000000f0: a85c 0f2e 8df4 a93f 785a 4f4c aa16 acbf
00000100: 97e8 6b4f 7501 dbbf a65c 4e08 f31f d9bf
00000110: ec97 d824 aa7f d53f 8c3f f302 19f6 d63f
00000120: 70db 2518 cbfd c93f b697 8121 bfdb d93f
00000130: c0e0 0dd9 0fd6 cf3f c981 02ce 0431 dabf
00000140: 9604 58af 84fc d93f 06c8 a8af 3a68 c9bf
00000150: 7cc3 088d 6211 d43f ccbb a3d8 57fc c13f
00000160: 304f 3b52 a9ca b73f 28c8 f23d 912f d7bf
00000170: 38bd 029a 1200 a13f 20ad db84 fc30 cc3f
00000180: f4f7 61ca 4229 d7bf f238 7816 0e28 c5bf
00000190: d389 294d aee3 d2bf db2e b333 ced9 cebf
000001a0: bc4d c23a 4a82 d73f 9f09 6870 a6f8 d9bf
000001b0: f0ff 27f1 b167 a0bf 3cb8 664a 1863 d73f
000001c0: 855e 9c83 7991 cbbf 80dc cf0c b0e8 c43f
000001d0: 400a fce4 87a7 a33f 985d bbcb b1fb a43f
000001e0: 6035 2644 ddf6 c43f 34b4 a755 34c8 d1bf
000001f0: 74aa 9d0a 1bd5 d9bf 3144 694a fa3f dabf
00000200: fa41 6851 6fe9 d1bf 084b 3d12 0e7a bd3f
00000210: e048 1230 f866 9bbf 9aef a5d1 5daf d33f
00000220: 80de 5aec daf0 cb3f 2c50 f8e6 960c bebf
00000230: 984c cd51 dcff c8bf 54fa b4db 35cc b5bf
00000240: 38e5 7678 4dfa ca3f e400 687a 718f cd3f
00000250: b91b 2131 a6ec d9bf 1ac4 8fe1 3ad5 d5bf
00000260: f4d0 e7e8 2d6d c73f 9609 f010 448b dcbf
00000270: ea31 8636 e92b cbbf 0cc9 654c 54bd cd3f
00000280: c09a 842a 3419 a8bf 1074 82d2 0ee3 be3f
00000290: 80f1 c5a0 9c53 733f b8a5 229c faa0 d1bf
000002a0: 2433 ca10 c71d d5bf 85d8 4379 c973 d5bf
000002b0: 60f6 e5fe f093 80bf 7044 1311 bdeb d53f
000002c0: b060 e9e4 ef5e da3f 600d 884d 0c07 d8bf
000002d0: 24b1 71eb 43e2 b1bf ac0c 4494 7caa c73f
000002e0: 261f 26c4 33dd db3f c014 b570 5580 d4bf
000002f0: c29f 340d dfa9 d43f 0078 23da 6185 53bf
00000300: 6a5f 9980 c527 d73f f4bf 38b1 2703 d3bf
00000310: 6fad 7fe3 9fd9 ccbf d0a0 4cb9 79e3 b7bf
00000320: 9c50 1b68 c763 db3f 7c99 b8a2 777b b1bf
00000330: f093 9a41 17a3 d93f 97eb 167c 200e cdbf
00000340: 6e3c a557 938a d7bf daba 5a48 61d3 d23f
00000350: ead0 0a57 2f62 d03f fcbe bf3c 019c ce3f
00000360: a8d9 e9db 6391 c33f 1283 6cf1 f037 c4bf
00000370: 840c 9246 6820 c03f e076 af90 9f67 bb3f
00000380: bed4 ab12 adc9 c3bf ba07 eb3b 05fa d93f
00000390: 849d c5a3 1cd3 bbbf 825a 3005 9a60 d4bf
000003a0: f81b b031 507d d53f fc8f b0a4 8389 d53f
000003b0: 106f aaad 72f9 b73f 8f36 8700 5e66 dbbf
000003c0: 93ed 4a83 3bc6 c9bf 108a 2d4d 247e cd3f
000003d0: 9841 9d3e b6ec bdbf aa9e 0527 402a d33f
000003e0: 3018 9832 51a5 aa3f 4607 4d3c 02b6 c7bf
000003f0: 5e20 1039 29fb d63f 11fe f8d1 2094 dbbf
00000400: 9ca2 25ad 5258 d8bf 6f35 3425 b6c1 cabf
00000410: 1271 15fa 8ab8 d8bf defa 6f31 f953 dabf
00000420: fa2b 3b28 b497 c0bf e449 a5d4 fc5f da3f
00000430: 02f9 2665 004e c4bf 8d7b 1489 7fa9 d5bf
00000440: 58b6 cbc2 1b89 d23f a765 d078 4a9a dbbf
00000450: 805f 0b88 4ac6 be3f 777b f30f a674 d9bf
00000460: bcf6 2258 96b2 d3bf 56dc 1e48 5ccb d43f
00000470: 82d2 d44c 9880 cebf 2016 4501 4160 bc3f
00000480: 9347 8907 3e7f d1bf 385a f186 c888 c43f
00000490: 7bde 40b0 7eca c9bf 9aa2 6073 67bf d7bf
000004a0: d422 df0f 198f bbbf a809 c943 138b b43f
000004b0: 285e c088 839e b4bf 50b1 0f50 c27f d5bf
000004c0: 1ca7 9033 35fc db3f 2cdf d7a8 cf3e c03f
000004d0: 889d d830 04fb bdbf af49 170f 4dd4 dabf
000004e0: 70af 5f8c c676 c23f 6bdc a54d e759 dabf
000004f0: 44c4 3a1b f3d7 d03f a696 6be8 cc72 da3f
00000500: 7464 b7ea 9062 cc3f e005 1288 4d46 d33f
00000510: 302b ef49 e982 bcbf d0fb f969 547f b63f
00000520: 5838 e094 b176 d03f 3e26 9b0f 6a9e c9bf
00000530: 4ee4 a9bf 9d7f d33f 587f 21c1 a89f bdbf
00000540: fec1 d37e 7bf3 d6bf 0293 0a45 4acc d93f
00000550: 7046 a19d fdde b33f e465 db2e d801 ca3f
00000560: 3da7 1013 cfc2 cbbf a010 6b2b 1549 8abf
00000570: b20a 7b30 97f5 d2bf f078 e782 5fc7 9bbf
00000580: 80e2 8c05 41a4 62bf 388c b39e a1b9 bc3f
00000590: 6e10 567b c7d0 cebf 3305 2e45 4fac d0bf
000005a0: e280 28b2 0a87 dc3f c44a 59bc 6b2f c13f
000005b0: 28fa 0071 f272 d53f b08c cc80 3863 c63f
000005c0: 7dea dc9e 49d0 d7bf a01f 56b4 fb2e ba3f
000005d0: 88b4 e4a8 01ef a8bf 5838 9ebc 03c4 da3f
000005e0: e06b 687d 8261 bcbf 1eea 436f 58d5 d4bf
000005f0: 0411 7f8c 08b1 d7bf 4a5a b772 e275 dabf
00000600: 740f 2932 4d31 b6bf de5f 39a9 9785 d5bf
00000610: a40c 1893 69de c33f 42ee 648c 53ab d23f
00000620: dbb5 1831 98cc d4bf 4f81 7394 384a ccbf
00000630: 4846 f4d2 6b9a a9bf fc1d 57d0 b861 c83f
00000640: f610 9c03 bf00 c3bf c8f2 54a1 551b dbbf
00000650: 8c8c e1da 6f74 d8bf 2046 f633 c6a5 ad3f
00000660: c8dc 54d9 2246 a0bf 48b5 806f c75c d4bf
00000670: 631e 4b29 3026 dcbf ced1 4604 fd96 c3bf
00000680: cbbc 9c6c 1f7d dbbf 365b 7c5a d646 c3bf
00000690: 4a0e 6e35 2a30 c8bf 9476 60cd a5c3 b4bf
000006a0: 9cb3 be04 4988 c8bf 186c 9220 feb6 a1bf
000006b0: 702f e4cc 0565 dcbf a0f2 00b8 a6c2 c8bf
000006c0: 1807 e580 8343 bcbf 207e 14c6 c826 d5bf
000006d0: 01cf eaed 366b cdbf e0f3 26b4 d681 bb3f
000006e0: 9984 c064 c76c dcbf b275 8c4c 6610 d23f
000006f0: 2062 95e3 687c b63f f435 1029 3c42 ce3f
00000700: 5cd5 2598 d8c8 d73f 1b48 0ecd 207d dcbf
00000710: 2ca7 d950 d6a7 bfbf 8caf 0a6c c6e3 c43f
00000720: 00e8 6e90 2bde 303f 18f3 45f4 5e37 bf3f
00000730: d2e5 bd96 0e2a d13f a010 7657 8bca bb3f
00000740: 3417 bd6d 9909 c63f 182a 3bb6 86b5 c6bf
00000750: 2712 17fe 9075 d3bf ac44 0565 88e7 d93f
00000760: b829 9305 3545 cc3f b2e3 0abc 0e5a c5bf
00000770: a0a7 0f93 048c a23f b279 9c46 7435 d63f
00000780: 1ccf 4b41 3cf2 cd3f 9cee 63d0 94cb b3bf
00000790: 4cae 197d b2bf dabf 0da5 463f 07ad d3bf
000007a0: 622c 2b99 3966 c7bf 0082 593d 87de b63f
000007b0: 54ec 77b3 a98f d43f 1854 974a 2447 a4bf
000007c0: 9012 a994 304c 9fbf e89e 80ea 3a79 adbf
000007d0: 2821 ad25 7f5a dc3f a0d4 a42e 8a56 b23f
000007e0: 2ba6 667c 3fd5 d0bf d0c4 bf87 4499 9cbf
000007f0: bc71 d672 3645 db3f 18a4 218e 0050 b3bf

bias f8 [512]
0.23919128510079096 -0.4061327979343792 0.051033312583906865 0.41767641151302354 -0.3830591642329095 0.21008712272057956 0.2843142466843837 -0.1255006342842806
0.04178527148095457 0.008970182641999058 -0.13380353635476017 0.19961171821896767 0.23285536352786834 0.024256027147661507 0.19683888507941688 -0.2989674625756027
-0.40413781944837396 0.14433688902550762 -0.16157891504159022 0.04115586714136593 -0.06885670556316792 0.4066719198320567 0.3242652741063528 0.1659738039677479
-0.4273928044773782 0.1879592976070123 -0.34178872154702244 -0.1520536242239947 -0.3028354315158023 -0.17193579243082024 -0.3441008315904975 0.21790475004814208
-0.162201825217837 0.14522077501937464 -0.04890648433670264 0.2697221195205603 -0.31226923093033015 -0.29055916132878956 -0.31449438937055263 0.35715321472324374
-0.33480995602022723 -0.09324495003493549 -0.05592378664552283 0.3665204535042856 -0.4221065337035464 -0.17983183033015593 -0.21945562655053613 -0.3156401621049538
-0.2804563960357752 0.09897875604951661 0.3648936958300078 -0.37990047168341423 -0.022016792177290634 0.06386090897942492 -0.10510149686755255 -0.20930525379290213
0.25918999399460746 -0.3646637064979341 0.4462074102384928 -0.3980561681370196 0.3253344596824153 0.43661145955867803 0.4243690378890275 0.16878883305230402
-0.055563074836748494 -0.10737708152585457 -0.341559666108647 -0.08643688195628385 0.06461574767071393 0.33706293809120597 0.0479071899733845 0.1977561509358084
-0.04209642266625302 0.0753006425325608 0.2198438599983718 -0.22313258432419616 -0.008258444962166489 -0.4111495877954583 -0.01784263767430233 -0.3625656584736533
0.2921085069162372 -0.3747196053051579 0.12904436920775847 -0.41912806035261624 0.3839683037088381 0.313696554733133 0.05658806494916152 -0.0076710071435441285
0.18814635554338682 -0.31498281774228265 -0.11532763615730834 0.17328217912389748 -0.3028323279999615 0.0067387669681260864 0.2727749792341852 0.23969498106529835
-0.4099114921743962 -0.1917990600861773 -0.38403296540032994 0.4242497047703871 -0.16188144004134003 0.383725178157537 0.42457246401886356 0.2372911973686393
0.3035453275920827 0.2533938110763074 -0.04566156299371421 0.39634538189499907 -0.12107788964989186 -0.23829911768831136 -0.4169448785808579 0.2017275949600354
0.07907760482485154 -0.23222194936209967 -0.10169251578608834 0.005081235926108152 -0.41889028104522424 0.35732498822779885 0.021654259000966403 0.23242594253766907
-0.37084785263512043 0.060340471921345784 0.0865796918941471 0.3233589012973686 -0.21350199884327917 0.4213369431903709 -0.42379159370666863 -0.08726445586262527
0.018069651764384187 -0.35827147954246696 0.3196678358334554 0.2768781285179112 0.43959599804559063 0.08916802721623046 0.22410266212199265 0.43661169541520145
-0.002541180502652507 0.06443374850344213 0.2740097871997456 -0.08265544870931946 -0.3078599987254824 -0.32511596467280374 0.17489133617887836 0.17529166447563133
-0.24458366381095462 0.3362543805773423 -0.38937681391410406 -0.15336521829487598 0.02513364161216397 0.17145155151561703 -0.26099014232784334 -0.05533558629089619
0.3633659641880757 -0.26369378836458923 0.23326989675073023 -0.2902370158176152 0.009645503825575052 -0.4064904661297134 0.4210300606199993 -0.13004767111274557
-0.1908574477441648 0.2554681987315545 -0.37815625662431573 0.36319678845891684 -0.38760172412102245 -0.13196564537168853 0.11506568763609898 0.21388356877409248
-0.1155311484781435 0.41357412569360813 0.22120326629416814 0.021053289082992588 -0.05206600766799063 -0.35325949077797075 0.04791498973528774 0.2542819125504972
0.05652642760763843 -0.3922789870580104 0.10840486484130935 0.3095055790272279 -0.10102052048108595 -0.020461096280430968 -0.1512235679967709 -0.24200684554725138
-0.06730914600334603 -0.2588870310085299 0.4357171808297223 -0.15065164429571726 0.2521928158137941 0.083046293712493 0.43288218696255604 0.05676636947165842
0.1287791784830315 -0.1341715640899403 -0.16530381939790306 0.25440616118297793 0.15982850001223986 -0.2665158731953239 -0.045160290605609166 -0.4373488207482584
-0.22737556233104025 -0.32746701348235163 -0.31434418173694256 -0.2882788557838577 0.35704483363395284 0.2174633841800116 -0.09131840528706903 0.05996314855096657
0.26357298338644014 -0.00022864734447131108 0.3128764211475456 -0.3279932081242338 0.07107443985588197 0.36688339888439575 -0.29946804204787447 -0.1702193256407294
0.2148718237327198 -0.03940173407822778 0.1436205108605148 0.4199857060321653 0.35332413439790905 0.1872882814467906 -0.05396633813654417 0.0380448771881462
-0.3701756951111598 0.35935351237065477 0.007848674876649864 0.3263166470502223 0.2151968388638404 0.18461140765203138 0.07363039850391856 0.1605240002859471
-0.38458454589448315 0.1734060570510086 0.01222368212934788 0.3422017888372895 0.3718670813619059 0.41090484863223403 0.016142703252011392 0.18991578989889207
0.06367190862630595 -0.02052344950822199 0.23128940064704367 0.06981221564138979 -0.24711953953642876 -0.21754316813509159 0.005595693511736444 0.02561448898502433
0.04437292256438008 0.3913951321931633 -0.3527858270756571 -0.3788644238513797 -0.03314810439639004 0.11457899003574984 -0.2931982398389814 0.23285843944769408
00000000: 8280 7fed d19d ce3f 3c83 3d6b 14fe d9bf
00000010: a0dd 1bd1 0921 aa3f ab94 f0d7 35bb da3f
00000020: 630f b495 0a84 d8bf eea3 b284 22e4 ca3f
00000030: a7f6 d261 3432 d23f 386a f09f 6710 c0bf
00000040: 402c ee0c e164 a53f 2038 b188 f55e 823f
00000050: c4cd 5d6a 7920 c1bf fa0c d374 e08c c93f
00000060: 0a73 865d 34ce cd3f 4004 526d 92d6 983f
00000070: 2ea4 ff3e 0432 c93f ec23 956c 4822 d3bf
00000080: 97e1 66df 64dd d9bf a647 fc94 a179 c23f
00000090: 56d4 e92d 9eae c4bf a845 d2be 6112 a53f
000000a0: 300d 81d2 97a0 b1bf 7b55 f8a8 e906 da3f
000000b0: 09fa e022 c3c0 d43f 6a60 042e a13e c53f
000000c0: ffaa 7159 675a dbbf 86c2 19de 0c0f c83f
000000d0: 42e9 4bcd dddf d5bf e0e1 a33f 7e76 c3bf
000000e0: fa8b 9bdc a761 d3bf a848 c0f6 fd01 c6bf
000000f0: 2949 8d7e bf05 d6bf 0ec7 8c87 4de4 cb3f
00000100: 48c0 5487 07c3 c4bf f238 b427 9896 c23f
00000110: e0b2 934d 450a a9bf 9f4f 9690 2043 d13f
00000120: 4924 9915 38fc d3bf 3276 dd73 8598 d2bf
00000130: 12cf 4713 ad20 d4bf 3d72 3928 99db d63f
00000140: 4eda debc 866d d5bf c0cd eaaa e6de b7bf
00000150: 7808 6ce5 0aa2 acbf 776c 4734 1275 d73f
00000160: 5dd1 6b1f cb03 dbbf a41f 06bb ba04 c7bf
00000170: 4a97 7a39 1f17 ccbf e4df 62cb 7233 d4bf
00000180: 165f 3b62 fff2 d1bf 643f 3bf8 ab56 b93f
00000190: 29d0 8616 6b5a d73f 1060 6711 4a50 d8bf
000001a0: f008 75e9 918b 96bf f438 8f43 3059 b03f
000001b0: 7089 ce83 eee7 babf 89f3 f5b9 83ca cabf
000001c0: cd10 eaa0 9196 d03f e097 5c71 a656 d7bf
000001d0: 7942 8d86 a98e dc3f 24a7 0794 c079 d9bf
000001e0: 6d42 26a0 47d2 d43f 1b41 f730 71f1 db3f
000001f0: 61c6 cac0 dc28 db3f 0ae0 f15a df9a c53f
00000200: 70fc 936a c372 acbf 2054 7e7d 107d bbbf
00000210: b76f e412 1ddc d5bf b8a2 2b3d ba20 b6bf
00000220: d463 0d5b a88a b03f dfe7 f26d 7092 d53f
00000230: c09e 5b8c 4a87 a83f d212 6dd4 1250 c93f
00000240: 00a3 428d a98d a5bf fc8d 0b25 e746 b33f
00000250: 36af 75f6 d723 cc3f cd14 2cc8 9b8f ccbf
00000260: 6000 3ab8 cde9 80bf 9c1a 565c 4650 dabf
00000270: b05b 2425 5745 92bf ce02 7397 4634 d7bf
00000280: 17ac 05e1 e7b1 d23f e229 7df0 67fb d7bf
00000290: 8e79 bda0 8684 c03f c539 0380 fed2 dabf
000002a0: d352 c8ca ef92 d83f 6996 dcb6 9a13 d43f
000002b0: a8e4 9960 1cf9 ac3f c045 f14c a26b 7fbf
000002c0: ced0 f505 2e15 c83f 7452 40b1 ad28 d4bf
000002d0: 60e1 9ea9 1c86 bdbf 628b 2846 1c2e c63f
000002e0: ba9b 3bd8 9a61 d3bf 403d e5fb 1b9a 7b3f
000002f0: fd95 be2f 2575 d13f fe6b 583c 53ae ce3f
00000300: 9b30 4969 fd3b dabf 3ca1 3c21 df8c c8bf
00000310: 82bd be00 ff93 d8bf d9e4 d43b e826 db3f
00000320: d249 67f1 87b8 c4bf 43a8 b50c f48e d83f
00000330: dd8f effb 312c db3f b6da 29d6 8e5f ce3f
00000340: 7b24 b761 496d d33f ff37 e5ac 9a37 d03f
00000350: b807 7ccf f360 a7bf bb37 4a05 b95d d93f
00000360: b0a2 50e8 f5fe bebf a887 91e2 9580 cebf
00000370: 9153 6f92 39af dabf 4eec 86b7 35d2 c93f
00000380: 8c99 910e 6e3e b43f 1238 f6e6 72b9 cdbf
00000390: 3c99 8c4d 8508 babf 40aa 03e2 0fd0 743f
000003a0: 29e5 6c2e 19cf dabf c7d8 9ea0 69de d63f
000003b0: 20be e9b8 882c 963f 567b f81e 22c0 cd3f
000003c0: d404 b7a1 f8bb d7bf 9805 0e43 f2e4 ae3f
000003d0: d4e0 2e31 162a b63f 0955 7c88 e9b1 d43f
000003e0: 41cd 5493 0854 cbbf 295a e639 2ff7 da3f
000003f0: 168d d2c6 661f dbbf 8480 08a0 f656 b6bf
00000400: d036 83cd d980 923f 0a5d ee7f ebed d6bf
00000410: eb37 1f15 7075 d43f 4593 bd0a 5fb8 d13f
00000420: 0dbb c340 5722 dc3f 9c17 be40 b7d3 b63f
00000430: f257 6162 65af cc3f 7700 372e 72f1 db3f
00000440: 0036 dee4 3dd1 64bf a4ba 94ea ba7e b03f
00000450: 0da3 b358 6089 d13f 84f0 0a51 e828 b5bf
00000460: 7071 916c fab3 d3bf f956 eb30 b3ce d4bf
00000470: a6fa 9edc d662 c63f 3a95 170f f56f c63f
00000480: af19 9a7a 844e cfbf dfd9 ed17 3185 d53f
00000490: 783b 65ba 8ceb d8bf 72cf 75b2 78a1 c3bf
000004a0: 50b7 0323 a2bc 993f 12d4 4ddb 1ff2 c53f
000004b0: 2018 78ff 0fb4 d0bf 0049 d92a f254 acbf
000004c0: ebb4 2a51 6341 d73f daca 4be9 5be0 d0bf
000004d0: 76c4 d7b8 c9db cd3f 629e c146 3e93 d2bf
000004e0: 40d2 df9b 05c1 833f 326d 8a96 f003 dabf
000004f0: 19bb 3f11 28f2 da3f 8ed3 2cef 66a5 c0bf
00000500: 042e 2150 046e c8bf 6315 ae49 9759 d03f
00000510: 88ab be4c b633 d8bf ab5e 1cbe 9d3e d73f
00000520: ba45 3e76 77ce d8bf 5c91 8811 40e4 c0bf
00000530: 94ee 49e5 f174 bd3f d6ab 846a 8960 cb3f
00000540: c808 6208 7393 bdbf 91da 149c ff77 da3f
00000550: 023c 407d 6350 cc3f 30b8 5650 fe8e 953f
00000560: 00a9 5550 65a8 aabf e126 f9b1 cd9b d6bf
00000570: e06e cd43 5088 a83f 1199 97a4 2746 d03f
00000580: 3879 de2b 08f1 ac3f 4d9e 1453 191b d9bf
00000590: 5c81 38d5 6bc0 bb3f c57e f67c f0ce d33f
000005a0: 04f0 b017 7bdc b9bf 3083 75ed c0f3 94bf
000005b0: b21c 773b 4b5b c3bf f44b 848f 14fa cebf
000005c0: f859 ce14 2c3b b1bf 3592 e2e8 9a91 d0bf
000005d0: b103 7e50 cae2 db3f 865b ab96 8d48 c3bf
000005e0: 9d35 0d56 ed23 d03f 4496 8c9b 8542 b53f
000005f0: d39b 017d 57b4 db3f 186f c948 7b10 ad3f
00000600: 5ac4 fe0b d67b c03f 1ee4 e8a7 882c c1bf
00000610: a0e3 1bf1 ac28 c5bf 87a2 8bc7 3048 d03f
00000620: 26ba 42a2 4275 c43f 7c48 cf97 980e d1bf
00000630: 9838 75e6 3f1f a7bf 3ab5 83e8 85fd dbbf
00000640: ef8a 0f76 a41a cdbf 403b 5b34 38f5 d4bf
00000650: 08e0 0f0f 371e d4bf fa13 6e28 2973 d2bf
00000660: 3b78 ea92 d2d9 d63f 9ab8 9015 d7d5 cb3f
00000670: 0018 3b9c a460 b7bf d8b1 fb63 7db3 ae3f
00000680: 1740 f037 61de d03f 0008 d0bb 21f8 2dbf
00000690: b32a 21d3 2a06 d43f 8409 8d39 d7fd d4bf
000006a0: 4c35 c33a ef31 b23f e7d7 e981 047b d73f
000006b0: cebc b201 7c2a d3bf f015 6332 bfc9 c5bf
000006c0: bec7 e17f eb80 cb3f 4019 8bce 762c a4bf
000006d0: f621 972a 2862 c23f 0985 0cba 0be1 da3f
000006e0: 0919 88d4 dc9c d63f 1677 def9 0ff9 c73f
000006f0: 503e c3d2 79a1 abbf 705a 9b3e 9e7a a33f
00000700: 26b2 1166 f5b0 d7bf 9f6b d5df a5ff d63f
00000710: 4014 4c4f f712 803f 2b26 ce37 5fe2 d43f
00000720: 22b7 8fec 918b cb3f 7ac0 2abb 58a1 c73f
00000730: ccd6 9019 71d9 b23f 26c2 b9e9 0c8c c43f
00000740: f77b ca7f 089d d8bf aa2f fb6f 2b32 c63f
00000750: 40a5 dbd7 ba08 893f 3916 ec54 a2e6 d53f
00000760: 8522 3a96 abcc d73f 6d2b a9d9 434c da3f
00000770: c04b 257a b687 903f 3e0c 4e1d 294f c83f
00000780: 7c50 395d cd4c b03f 7074 c161 1904 95bf
00000790: 1a62 d81d e49a cd3f 7c83 0a9f 36df b13f
000007a0: 297a 41f2 9ca1 cfbf 9de1 4d5c 74d8 cbbf
000007b0: c0ff 198a 82eb 763f 504c fa41 af3a 9a3f
000007c0: 40e1 7b36 0cb8 a63f b153 252b 9e0c d93f
000007d0: 8610 7201 0b94 d6bf cdcf 8391 503f d8bf
000007e0: 9020 9dd0 c9f8 a0bf 2c23 0377 0c55 bd3f
000007f0: a89a d68c c2c3 d2bf b241 032b 4ece cd3f

weight f8 [2, 512]
-0.021672513812756915 -0.008525169517726985 0.017364349919628166 -0.04183050221471994 0.03374154896692371 -0.0013805195283163804 -0.03229228457151545 0.0313733388528298
-0.023892274193303396 0.04025072318712617 -0.02585249310857427 -0.004838583450546219 0.04244793533689673 0.01129596804227001 -0.005855170887795372 -0.011119619411215219
0.03440647307349077 0.01791454309563993 -0.02158586075632848 -0.04257938739383208 -0.03611683016436865 0.031256075010642 0.022978542216926877 0.01162381517591405
0.007914219045828855 0.03859562839686422 0.03803132581239347 -0.019782360295588997 0.03945908854591488 -0.029620327391488576 0.02296481597709208 0.013552304068399482
-0.008728843076867457 -0.029274151866004405 0.018639506460052267 -0.03762861746788695 -0.0004978052431446264 0.04383446607570513 0.020776468148070125 0.0026038129244282046
-0.008297487783471572 0.03207299530971782 -0.0343880934099165 -0.02391698621004355 0.02102847899551368 -0.0007539961987927807 -0.020810892990392862 0.018934830572919246
0.02020742342852428 -0.034005913283391004 -0.03210688164253102 0.02681572249863772 0.031143566642644595 0.01921121215245853 -0.0431376355519547 0.04088652443328184
0.035234702649888074 -0.011681546787042293 0.006826824218896042 -0.018306393718168897 0.001343236058949475 -0.007970309297717422 0.02511249981296724 -0.001864128400976578
0.04205707512013072 0.008909477834344967 -0.015521348571760372 -0.027235214670084835 -0.02969467882731779 -0.02878759954226056 -0.03178363352599265 -0.0034236331517170163
-0.03502791409278559 -0.01935348650982302 -0.018235131351535788 -0.031574336801590344 0.018391487735493463 -0.04102818235640442 -0.029468089712858355 -0.036698966120136595
0.03855672095616459 -0.043882418043093695 0.021665896020987514 -0.015453726468620591 -0.027067655566952113 -0.03465144917565732 0.012754767724240237 0.005822988711577444
-0.021319805081161703 0.03123073596031268 -0.03028459308527349 -0.00590823998406826 0.015990404198148324 -0.010933955421365833 -0.007250241049160715 -0.0010701485339178612
0.03459509081954187 0.019885876728940897 0.03566428044429278 0.0008563436111519926 -0.03877387098860459 -0.0047469715491431225 -0.043767653898023895 0.017672688127571112
0.02052193056678365 -0.03680027264205098 0.0022517838425251263 -0.019756253254673672 0.026834992913336624 -0.023768309492907237 -0.014153936109018397 0.031114250491792027
-0.01407152355428544 -0.03169385361510093 -0.023794841127776797 -0.04416003357509997 -0.02787741140735597 -0.011104973415333536 0.04324198426387956 0.02197026658461807
-0.007526314312016273 -0.0424641027586731 0.008079927228373272 0.03203421447033159 -0.04256973680317832 -0.002314872362930119 -0.028598774076289586 -0.020815182680460807
0.031114462295760613 -0.03153206844598181 -0.015226988632533776 -0.02487951545261837 0.03640219636557209 -0.04178458008894433 0.02162140350055152 0.0011751334983502448
-0.011479812719327534 0.04213664552369132 0.035367055728356765 0.03234855236651344 -0.018923732134650147 -0.04328392447998893 -0.0010758018816104456 -0.01661362522573744
-0.03180825889819174 0.028721693537469555 -0.020577505063525483 -0.01888049634504353 -0.02225133579713938 -0.035153044423488156 -0.0018911228181497375 0.030626970948255526
-0.03936577769050663 0.012328460872267029 -0.0034603572523699694 -0.017274668301102532 -0.044099625610947185 0.04315257010796449 -0.02469882541537664 -0.03438965902191446
0.01994702849556488 -0.0198166451849385 -0.008911078694475418 -0.012491461247940185 -0.02516547039689422 0.010113749246954178 0.033995153154610984 0.011042395335524882
-0.02192059648328509 -0.036159932751048535 -0.03314086011041402 -0.019903908270447062 -0.02928428040859178 0.04210825365157112 -0.03688709892656608 0.022051218372765198
-0.022123491449969945 -0.006509385882256982 -0.027408826969546697 -0.00241931509114416 0.03861482470800224 -0.008330975804035842 -0.04362540872087457 -0.02029172162069745
-0.003005155006910898 -0.039853058559100894 0.018949149271556047 0.032739628713243756 -0.03168004837445209 -0.04104130030296411 -0.018746654944925046 -0.024578448120773522
0.011554277261219242 0.038388656015815405 -0.034382648170682394 0.0193657711275926 -0.04343280107218436 -0.0007027323712258324 -0.004383473181485437 0.04415405490833046
-0.015958885472607303 -0.017976508943141553 -0.01244554954919079 -0.02292976862969164 0.031656504594737685 0.009872002439773021 0.011773058022448483 0.001930101655914819
0.029460958970625097 -0.015447562223543057 -0.03118293154868082 -0.03477270939924471 -0.039342441620434127 0.017293610944237037 0.017407059009929095 -0.004861062301248921
-0.032963032415703836 0.022592756644985286 -0.0337541705039895 0.010826542694779007 0.000829101053987473 0.032900811194938435 0.002721542102434825 0.03446290987937863
-0.0016371587288316544 0.0181497366556164 0.0068331630860108475 0.022743525245001485 -0.023022060736125637 -0.026210854460047856 -0.009815689489814546 0.012179578726201519
0.0400662854273821 0.04322790653843763 0.016988518289062546 0.042274944218661493 0.04381715079058302 0.043995421944050685 0.0037001438517732174 0.0323167086300755
0.019781669158727665 0.005834546586184139 -0.03127931651607939 -0.027911036302547765 -0.0007458543432605907 0.014439667902854315 0.010986325669208652 0.018831026834346308
0.03657871205490872 -0.009722049637702054 -0.0007667468853416043 -0.014615294329653201 -0.020501395532214764 -0.03598895603220179 0.0029581602517854896 0.006775718109715188
00000000: 7e0c 31c8 5131 96bf c804 2ce2 a475 81bf
00000010: 149c 15cc f5c7 913f ae96 f9bd ce6a a5bf
00000020: 9f9c a882 9246 a13f 605d 708e 519e 56bf
00000030: 60aa 4b44 9d88 a0bf 93af ad90 2a10 a03f
00000040: b932 2661 3777 98bf cd46 7527 be9b a43f
00000050: 5981 af71 1379 9abf 0071 dd5a 9fd1 73bf
00000060: e100 1c5c bcbb a53f 20b2 8b2a 5722 873f
00000070: d0f1 9b77 97fb 77bf 4c99 b80d e2c5 86bf
00000080: 4121 3ea9 b99d a13f 2ccd dfa2 3058 923f
00000090: 178c 0498 9a1a 96bf c531 ae28 f7cc a5bf
000000a0: c544 c8b8 e77d a2bf f3ad f1d7 cb00 a03f
000000b0: 4669 53dd af87 973f 044b 4810 3ace 873f
000000c0: a83d cd7f 5435 803f fb58 7763 cec2 a33f
000000d0: a5ed 2c89 d778 a33f e06a 07ba d341 94bf
000000e0: 355a ab4d fb33 a43f 03e5 c585 ca54 9ebf
000000f0: fa31 52b6 1684 973f c8e3 1276 4fc1 8b3f
00000100: e861 607c 6de0 81bf 30cf 8713 0bfa 9dbf
00000110: 5655 a31a 3c16 933f 5327 d6e2 0e44 a3bf
00000120: c049 9a9e e44f 40bf 492e 779c 7871 a63f
00000130: e6ae e32c 6d46 953f b0ca 5e6b 9754 653f
00000140: e80c 5af5 45fe 80bf 9b47 e123 df6b a03f
00000150: 3880 22f1 509b a1bf 5b34 5dc6 b17d 98bf
00000160: ee0a 4856 7d88 953f 808f ef81 fab4 48bf
00000170: 245b 2d63 734f 95bf a692 43f8 a663 933f
00000180: f238 0c3b 41b1 943f 2476 d81a 3969 a1bf
00000190: 6a2e 432d 5070 a0bf dedd 99ac 9475 9b3f
000001a0: 9a04 d860 19e4 9f3f f232 a59f 1aac 933f
000001b0: 6e46 d8db 2216 a6bf 597b 931a 14ef a43f
000001c0: 4590 216f 480a a23f 5819 56ab 7eec 87bf
000001d0: 1858 17ac 71f6 7b3f c216 4f49 e9be 92bf
000001e0: e06d 6abc f001 563f e47d 2ece bc52 80bf
000001f0: 3a85 ab55 17b7 993f 80a3 22a1 b88a 5ebf
00000200: 35aa 6944 8188 a53f d832 62df 213f 823f
00000210: cc51 0b24 a8c9 8fbf 62ef 3a51 8ce3 9bbf
00000220: bdd6 b629 4868 9ebf eee5 411a 7f7a 9dbf
00000230: 9d99 15c5 f145 a0bf 10ac 710d e10b 6cbf
00000240: 5e83 f3c2 2def a1bf b839 7e7e 66d1 93bf
00000250: 2825 2cf3 3aac 92bf 1a54 e9ef 822a a0bf
00000260: 5a19 65d9 37d5 923f f7c2 de5a a501 a5bf
00000270: 4f89 5e06 e22c 9ebf 34e5 90f6 34ca a2bf
00000280: 616f 18df b4bd a33f 239e ba9c c177 a6bf
00000290: d20b 65ab 952f 963f a2be 450e 34a6 8fbf
000002a0: 9eff c19d 9fb7 9bbf 40d9 efb1 d5bd a1bf
000002b0: c812 f3f1 2b1f 8a3f c89a 4ca1 d8d9 773f
000002c0: dd9e 52e6 dbd4 95bf a276 5136 f3fa 9f3f
000002d0: 33e4 7ea3 ec02 9fbf 48c9 2218 3d33 78bf
000002e0: 1acf 52dc c95f 903f 6402 9ba7 8a64 86bf
000002f0: 78b2 1bc3 6db2 7dbf 405e 1f3d 8788 51bf
00000300: 271b 589f 72b6 a13f 76f6 cf98 f65c 943f
00000310: 3b87 49ac 9642 a23f c0a9 eae6 870f 4c3f
00000320: eab6 ab37 2bda a3bf 5013 f078 8f71 73bf
00000330: a8b4 3ac4 b668 a6bf 104b 2906 ca18 923f
00000340: 825c 8a72 b303 953f 2e86 f63e 7cd7 a2bf
00000350: 2006 c33e 5572 623f 6034 7bb6 fb3a 94bf
00000360: 2e00 cee3 a17a 9b3f ea1e d03f b856 98bf
00000370: 8850 9525 bdfc 8cbf b60a 3501 6adc 9f3f
00000380: 88af c3eb 87d1 8cbf f3aa 8541 2d3a a0bf
00000390: ef4a d4c1 ac5d 98bf 1a9a fdd7 249c a6bf
000003a0: 97bb 2a69 e58b 9cbf b06b 224d 34be 86bf
000003b0: 1b7c 7438 d023 a63f 1a81 dca1 5f7f 963f
000003c0: b8bd 459d e9d3 7ebf d478 34d9 dabd a5bf
000003d0: 4c71 9979 358c 803f 7d99 01df c966 a03f
000003e0: bfea bc56 b3cb a5bf b07c fba2 a3f6 62bf
000003f0: b213 743d ff48 9dbf 06cb 7d43 9350 95bf
00000400: 36bf f837 78dc 9f3f 155f 80a5 f824 a0bf
00000410: f2de 8bd1 532f 8fbf a658 d604 047a 99bf
00000420: 4310 c905 4fa3 a23f 4b10 ebd9 c964 a5bf
00000430: bec5 b6d3 eb23 963f 0003 68fc dd40 533f
00000440: 48bb 8c61 ba82 87bf 5d8c f934 ef92 a53f
00000450: 630f 6b77 a11b a23f 9d67 f94c fd8f a03f
00000460: 5fdd 8b2a be60 93bf 5b0d 2b80 4f29 a6bf
00000470: 20e5 8079 3da0 51bf 0dd8 0c84 2903 91bf
00000480: 13be 6b0f 2c49 a0bf 5e77 b739 3869 9d3f
00000490: f7dc 1ffd 4412 95bf 033b 56a9 6855 93bf
000004a0: 2c03 2ade 0dc9 96bf f8b3 4e70 94ff a1bf
000004b0: 00ec 06aa f1fb 5ebf a6a8 643a ad5c 9f3f
000004c0: 6e50 864f c027 a4bf c41c 0d02 aa3f 893f
000004d0: 60ac 6727 e558 6cbf 9224 9c5d 73b0 91bf
000004e0: 049c 87e3 3994 a6bf 8340 b4fa 1718 a63f
000004f0: cb76 a21d a64a 99bf 8cb1 a379 859b a1bf
00000500: aacf 296c fe6c 943f 9767 f18b d04a 94bf
00000510: 54d2 84bc f83f 82bf 3430 508c 1f95 89bf
00000520: 045a 5f21 fac4 99bf bc7e 0b72 84b6 843f
00000530: 9f0a 0b0e d067 a13f c845 af36 659d 863f
00000540: 6fa1 0454 5a72 96bf 8cc0 2e01 8e83 a2bf
00000550: cacb abbc d6f7 a0bf 7b2c 56ac b061 94bf
00000560: c432 91ca b2fc 9dbf c17c a688 368f a53f
00000570: b45d 11a7 dde2 a2bf b2ee fd36 9894 963f
00000580: c0fa 0061 8aa7 96bf 508f b3f7 95a9 7abf
00000590: 3ade d23d 0f11 9cbf 50f1 3ee6 abd1 63bf
000005a0: fdf5 8582 52c5 a33f 3810 faa4 d40f 81bf
000005b0: 0a2a 76cf 1156 a6bf b833 f662 5ac7 94bf
000005c0: 00c5 2b4f 449e 68bf ab56 50be 9e67 a4bf
000005d0: ee27 a2e1 6767 933f 9f8f 36a5 3fc3 a03f
000005e0: b76e 6807 5e38 a0bf b94f 2c85 5d03 a5bf
000005f0: ed65 97b7 5232 93bf 2deb 75bb 172b 99bf
00000600: 3011 bad7 c4a9 873f 0d2a 408c ada7 a33f
00000610: 03cb e23a 9a9a a1bf 168c 9ee6 9ed4 933f
00000620: 4c7f 5bf8 d23c a6bf c04e b046 f206 47bf
00000630: 6066 519f 67f4 71bf af56 a23b 5c9b a63f
00000640: abe8 bdac 8657 90bf ac36 0718 6f68 92bf
00000650: 582e 5b62 0d7d 89bf bd3c 7ab9 e67a 97bf
00000660: 2151 e107 4835 a03f 34b5 ffbc c537 843f
00000670: 1c4f 7119 791c 883f a0f4 5ddf 6e9f 5f3f
00000680: 2a89 267d 032b 9e3f 88a1 6cb4 f8a2 8fbf
00000690: a8ab c71c 6bee 9fbf a17d 5383 bacd a1bf
000006a0: 1488 3548 b124 a4bf 10b1 bd95 6ab5 913f
000006b0: 3a33 abf4 27d3 913f 6811 b979 31e9 73bf
000006c0: aca5 67d4 87e0 a0bf 02b3 aa3b 8e22 973f
000006d0: ea23 d604 3a48 a1bf c02e 6cf6 392c 863f
000006e0: c0f3 baf4 002b 4b3f f931 3008 60d8 a03f
000006f0: 307d 63ca 7c4b 663f 13bf b65d 1fa5 a13f
00000700: 6062 b7cc bdd2 5abf aab0 7735 d895 923f
00000710: 48f0 b83f 17fd 7b3f 0afc 7d24 144a 973f
00000720: 16f1 ca57 1893 97bf 7511 d3aa 04d7 9abf
00000730: a484 c58a 3f1a 84bf 64f9 7662 9bf1 883f
00000740: bf65 2a73 9183 a43f 4bda b6d9 f721 a63f
00000750: bc09 d629 7065 913f 0d00 b8bd 0fa5 a53f
00000760: 5185 4c9b 336f a63f 4dca d864 9186 a63f
00000770: 30fe ae9a c34f 6e3f 1d6f 5ccd d08b a03f
00000780: 165b 6358 a541 943f b0f6 642c f7e5 773f
00000790: 5ea1 f4b2 d703 a0bf a0b7 77f0 b594 9cbf
000007a0: 8068 8501 ae70 48bf 344c 436b 8b92 8d3f
000007b0: 80a1 9eab ff7f 863f 764d 9dd1 7048 933f
000007c0: 73e2 02e8 71ba a23f 38c0 f369 27e9 83bf
000007d0: 803f ff65 f01f 49bf 2494 5699 9fee 8dbf
000007e0: 6438 555d 51fe 94bf a5d9 59fa 246d a2bf
000007f0: b036 3531 b63b 683f d8a0 02fb dac0 7b3f

bias f8 [2]
0.035568988509002614 -0.006404945494634183
00000000: 34c2 cb34 1936 a23f d8f2 e976 123c 7abf
